model/dlinear/checkpoints/model_2025-05-10_09-09-41/DLinear_0.ckpt (torch, 5661 bytes, 4 tensors)

linear_trend.weight f4 [8, 24]
0	0x3e30072f	0.1719024
1	0xbd8c6b7d	-0.06856439
2	0xbd9310c7	-0.071809344
3	0xbc005a43	-0.00783402
4	0xbe93a86c	-0.28839433
5	0x3d24ace1	0.040203933
6	0xbdfb7dbc	-0.12279841
7	0xbc4d5196	-0.012531659
8	0xbda1283a	-0.07869001
9	0xbe3d8e48	-0.18511307
10	0xbd991f11	-0.074766286
11	0xbbf4f945	-0.0074760043
12	0x3e08a675	0.13344748
13	0x3cbcf1ef	0.023064582
14	0x3debcfd5	0.1151425
15	0x3e05eee1	0.13079406
16	0x3e3c185f	0.18368672
17	0x3e20ffeb	0.15722625
18	0x3ead90d8	0.3389957
19	0x3e667a6d	0.22507639
20	0x3dc11d9e	0.09429477
21	0x3d520da9	0.05128256
22	0x3e17d6ed	0.14828081
23	0x3dc70cc2	0.0971923
24	0xbdd1d64a	-0.102459505
25	0xbd9afa73	-0.07567301
26	0xba32bbe5	-0.00068181596
27	0xbd03d501	-0.03218556
28	0xbeac5f3a	-0.33666402
29	0x3d8b6ece	0.06808244
30	0x3c4c2670	0.012460336
31	0x3e1b17cc	0.15145797
32	0x3dd7a94e	0.10530339
33	0xbe669921	-0.22519352
34	0xbe580a3c	-0.21097654
35	0xbd7e09a3	-0.06202091
36	0x3e84da22	0.25947672
37	0x3d8ebde2	0.06969811
38	0x3e12fc30	0.14354014
39	0xbc497e9f	-0.012298255
40	0x3e9f4f8c	0.31115377
41	0x3d238743	0.039923918
42	0x3e9367f1	0.28790238
43	0x3e0474bc	0.12935156
44	0x3c8b5099	0.017006205
45	0x3e738167	0.23779832
46	0x3caaab47	0.020833625
47	0x3e461e74	0.19347554
48	0x3d5100b7	0.051026072
49	0xbc1b0e2c	-0.009463828
50	0xbe70c627	-0.23513089
51	0xbe601fce	-0.21887133
52	0xbd3e9615	-0.046529848
53	0xbe48b27b	-0.19599335
54	0x3e22cec9	0.15899195
55	0x3e4cb80d	0.19992085
56	0x3c14cbf9	0.009081834
57	0xbdff486b	-0.124649845
58	0x3e02c7cd	0.1277153
59	0x3da42b1d	0.08016036
60	0xbddc179e	-0.10746692
61	0x3e25abb7	0.16178785
62	0x3e4fa5f2	0.20278147
63	0x3e9255b9	0.28581026
64	0x3c0125c7	0.007882542
65	0x3dc0de0d	0.09417353
66	0x3e044401	0.12916566
67	0x3e1bb7d0	0.15206838
68	0xbd078906	-0.03308966
69	0xbca72436	-0.020403009
70	0x3e7c3287	0.2462865
71	0x3db3a760	0.087721586
72	0x3ca150fc	0.019691937
73	0xbd947c4d	-0.07250271
74	0xbc65fead	-0.01403777
75	0xbd775206	-0.060380958
76	0xbd17de36	-0.03707715
77	0xbc86c89b	-0.016453078
78	0xbe9d54e6	-0.30728835
79	0x3daa0c56	0.08303134
80	0xbdab8278	-0.08374494
81	0xbd37d43c	-0.044880137
82	0x3deb3e14	0.1148645
83	0x3d9295ac	0.07157454
84	0x3e69c23a	0.22827998
85	0xbc0d0f53	-0.008609611
86	0xbd86dec0	-0.06585455
87	0x3e8a2e26	0.26988333
88	0x3da88564	0.08228567
89	0x3e7103cb	0.23536603
90	0x3e4e3b20	0.20139742
91	0xbc8acb40	-0.01694262
92	0x3e37a9b5	0.17935832
93	0x3e3a7923	0.18210272
94	0xba35ea30	-0.00069394987
95	0x3d3e4596	0.04645308
96	0x3cf17dbf	0.029478906
97	0xbca6f92d	-0.020382488
98	0xbe203e32	-0.15648726
99	0xbe165bd0	-0.14683461
100	0x3dd33317	0.10312479
101	0xbe094ddd	-0.13408609
102	0xbc2e4185	-0.010635738
103	0xbced0008	-0.028930679
104	0xbe0c6490	-0.13710237
105	0xbe169e26	-0.14708766
106	0x3e6bd2a7	0.23029576
107	0x3d688de8	0.056775957
108	0x3e461309	0.19343199
109	0x3dcdcf07	0.10049253
110	0x3e0679b9	0.13132371
111	0x3e56d718	0.20980489
112	0x3e7aa6da	0.24477711
113	0xbdf505cb	-0.119639955
114	0x3d67813c	0.056519732
115	0x3e58a6bb	0.21157353
116	0x3e6ca752	0.23110703
117	0x3e53afd3	0.2067254
118	0xbd935665	-0.07194213
119	0xbd971ebb	-0.07378908
120	0xbe4c97ae	-0.19979736
121	0xbd1fe46a	-0.039036192
122	0x3df64e8f	0.120267026
123	0xbe6a9b30	-0.22910762
124	0x3bb28f89	0.0054492396
125	0xbe55fa1c	-0.2089619
126	0xbe9abd0c	-0.30222356
127	0xbe28b28d	-0.16474362
128	0xb6c9920c	-6.007269e-06
129	0x3e6d55f4	0.2317732
130	0x3d31bf2f	0.043395218
131	0x3e7472e6	0.23871955
132	0x3eb2fafe	0.34957117
133	0x3e8c6a2b	0.2742475
134	0x3e72cbf8	0.2371062
135	0x3e742924	0.23843819
136	0x3e58a88e	0.21158049
137	0x3e11f956	0.1425527
138	0xbd82e271	-0.063908465
139	0xbdbab247	-0.09116035
140	0xbbea30e9	-0.007146944
141	0x3d5cd944	0.05391814
142	0xbd5fa24c	-0.054598138
143	0x3e18a835	0.14907916
144	0x3b9bb6ad	0.0047520013
145	0xbe01add7	-0.12663971
146	0xbc3229b2	-0.010874199
147	0xbd6c4d80	-0.057691097
148	0xbb116f31	-0.002219152
149	0x3cc7c568	0.024386123
150	0xbe4343b6	-0.19068798
151	0x3d8eef5a	0.069792464
152	0xbe242f7d	-0.1603374
153	0xbde8060f	-0.113292806
154	0xbd453367	-0.048144724
155	0x3d1323a3	0.035922658
156	0x3d1f6c38	0.038921565
157	0x3d81390d	0.0630971
158	0x3e941341	0.2892094
159	0x3d8bd3e2	0.06827523
160	0xbcc44420	-0.023958266
161	0x3e50ba9c	0.20383686
162	0x3e468f1f	0.19390534
163	0x3e8768fb	0.2644728
164	0x3d112cd3	0.03544314
165	0x3e3d4b20	0.18485689
166	0x3d83ddca	0.06438787
167	0x3dc1ac30	0.0945667
168	0xbe6c7c01	-0.23094179
169	0xbe201d30	-0.15636134
170	0xbe207b83	-0.15672116
171	0x3a9edfca	0.0012121138
172	0xbcd6429a	-0.026154805
173	0xbd41c009	-0.04730228
174	0x3d7b2bbc	0.061321005
175	0x3d22a6e0	0.039709926
176	0x3cd8f8a8	0.026485756
177	0xbca7935d	-0.02045601
178	0xbdfda9bf	-0.12385892
179	0x3e81b470	0.25332975
180	0x3da5fa76	0.08104412
181	0x3e0c6b87	0.13712893
182	0xbc72077b	-0.014772291
183	0x3de600ad	0.11230598
184	0x3ced34c0	0.028955817
185	0x3eb50311	0.35353902
186	0xbb9f0c5e	-0.004853769
187	0x3cb86e54	0.022513546
188	0x3e3c273a	0.18374339
189	0x3da9770a	0.08274658
190	0x3e8a7135	0.27039495
191	0x3df7ea73	0.121052645

linear_trend.bias f4 [8]
0	0xbd506298	-0.050875276
1	0x3d96d38e	0.073645696
2	0x3b6c0acd	0.003601718
3	0xbccfa869	-0.025348859
4	0x3cde7c73	0.027158951
5	0x3dd9ea0b	0.10640343
6	0x3d9e53ab	0.07730802
7	0xbe0448f9	-0.12918462

linear_season.weight f4 [8, 24]
0	0x3e49e5c9	0.19716562
1	0xbc86919c	-0.016426854
2	0x3c734145	0.014847104
3	0xbde138f1	-0.10997189
4	0x3d530a1e	0.05152332
5	0xbd9a0d91	-0.07522119
6	0xbd4c221b	-0.049837213
7	0xbe8edb10	-0.27901506
8	0x3e2a5b83	0.16636471
9	0xbd995557	-0.074869804
10	0xbe008bac	-0.1255328
11	0xbde598f3	-0.112108134
12	0xbdd0e23d	-0.101994015
13	0xbda32503	-0.07966044
14	0xbe2cc0d4	-0.16870433
15	0xbebe5394	-0.3717314
16	0x3e8d0121	0.27539924
17	0x3c4f823a	0.012665326
18	0xbd0f2d9a	-0.0349556
19	0xbdab22b7	-0.08356231
20	0xbd9a400f	-0.075317495
21	0xbe0381ec	-0.1284253
22	0xbddf0329	-0.108892746
23	0x3dc6f660	0.09714961
24	0x3e600e66	0.21880493
25	0x3e424a34	0.18973619
26	0xbc029022	-0.007968934
27	0xbd967920	-0.073473215
28	0xbc836688	-0.016040102
29	0x3c401a04	0.011724953
30	0xbdb54c50	-0.08852446
31	0xbe57315c	-0.21014923
32	0x3cfb2edf	0.030661998
33	0x3e11047e	0.1416187
34	0xbdf40f60	-0.11916995
35	0xbdd872ef	-0.10568797
36	0xbe2e0904	-0.16995627
37	0xbd4c84c3	-0.0499313
38	0xbde23d43	-0.11046841
39	0xbed75443	-0.42056474
40	0xbd7473d4	-0.059680775
41	0x3e96a8d1	0.29425672
42	0x3e086da4	0.13323075
43	0xbd227b7c	-0.039668545
44	0xbd858934	-0.0652031
45	0xbd8894df	-0.0666902
46	0xbe2175e8	-0.15767634
47	0xbd31f6a4	-0.043448105
48	0x3e2d1a8f	0.16904663
49	0x3c89998e	0.016796853
50	0x3e3da5d6	0.18520293
51	0xbd83d1c5	-0.06436495
52	0xbdb7feaa	-0.0898412
53	0xbd2ce644	-0.042211786
54	0x3c346c69	0.011012175
55	0xbe3b9b5e	-0.18320987
56	0xbb41e6f0	-0.0029587112
57	0xbd44050c	-0.047856376
58	0x3e0b44e1	0.13600494
59	0xbde0c0f4	-0.10974303
60	0xbdc6fc1a	-0.09716053
61	0xbd276fae	-0.04087799
62	0xbe2651c1	-0.16242124
63	0xbe6d4136	-0.23169407
64	0xbe093da3	-0.13402419
65	0x3cd86113	0.026413476
66	0x3ed99082	0.42493063
67	0x3debbf6e	0.11511122
68	0x3dc3b335	0.095556654
69	0xbde66d2b	-0.11251291
70	0x3bf5b69c	0.0074985754
71	0x3e693347	0.22773467
72	0xbbb84689	-0.005623643
73	0xbc8e10c5	-0.01734198
74	0xbc8ba5c6	-0.01704682
75	0x3e013074	0.1261614
76	0xbdc13d20	-0.09435487
77	0xbda1fade	-0.07909177
78	0xbd957cfb	-0.07299229
79	0xbe0cb0ea	-0.13739362
80	0xbd9abe63	-0.07555845
81	0xbda280ef	-0.079347484
82	0xbe13ca9e	-0.14432761
83	0x3e25ff51	0.16210677
84	0xbe167b8e	-0.1469557
85	0xbe2b73fa	-0.1674346
86	0xbe49bedf	-0.19701718
87	0xbe2ea10a	-0.17053619
88	0xbe2e4239	-0.1701745
89	0xbdd2eb35	-0.102987684
90	0x3e1b45ad	0.15163298
91	0x3e82fe11	0.25584462
92	0x3e51c9b2	0.20487097
93	0x3c7f9a10	0.015600696
94	0xbdc1a71b	-0.09455701
95	0xbd04f7cf	-0.03246289
96	0xbd82f117	-0.063936405
97	0xbcb82e58	-0.022483036
98	0xbd569426	-0.05238738
99	0xbda4a892	-0.08039965
100	0x3e149b59	0.14512385
101	0xbe190109	-0.14941801
102	0xbd9f2323	-0.07770374
103	0xbe3a837f	-0.18214224
104	0xbd0cb9f4	-0.034357026
105	0xbdd12cdf	-0.102136366
106	0xbe392ccc	-0.18083495
107	0xbd6413bb	-0.05568288
108	0x3de61bc2	0.11235763
109	0xbe311b72	-0.17295626
110	0xbe4426f0	-0.19155478
111	0xbe787252	-0.2426236
112	0xbded0ab4	-0.11574307
113	0xbe11a257	-0.14222084
114	0x3d5f7cd8	0.05456242
115	0xbaa0e908	-0.001227648
116	0x3ea9c88c	0.33160818
117	0x3e609f73	0.21935825
118	0xbcb30c86	-0.021856558
119	0x3d078ddb	0.03309427
120	0x3de7e53c	0.1132302
121	0xbbee0554	-0.0072638188
122	0xbd87a0f5	-0.06622497
123	0xbdc921e1	-0.09820915
124	0xbda11590	-0.07865441
125	0x3dbcb0e4	0.09213427
126	0xbe19c1fc	-0.15015405
127	0xbe2db4a8	-0.16963446
128	0xbe032865	-0.12808378
129	0xbdaa0471	-0.083016284
130	0xbdb73c04	-0.08946994
131	0xbe04879d	-0.12942357
132	0xbe351b70	-0.17686248
133	0x3db308c5	0.08741907
134	0xbe275611	-0.16341425
135	0xbe9bb88c	-0.30414236
136	0xbe29510a	-0.1653482
137	0xbdccadd2	-0.09994091
138	0xbdd41853	-0.10356202
139	0xbdc39888	-0.095505774
140	0x3dc57abf	0.096425526
141	0x3e98d8c7	0.29852888
142	0x3dcd1844	0.10014394
143	0x3dbc8d4d	0.092066385
144	0x3e563530	0.20918727
145	0x3761618a	1.3433755e-05
146	0xbc6eef70	-0.014583454
147	0xbcdd6b15	-0.0270286
148	0xbcf55251	-0.029946478
149	0xbd95b1be	-0.07309292
150	0x3e2b4758	0.16726434
151	0xbe389637	-0.18026052
152	0xbdacef96	-0.08444135
153	0xbddf5174	-0.10904208
154	0xbd74c88d	-0.059761573
155	0xbdb36e71	-0.087612994
156	0xbdae3f86	-0.0850821
157	0xbe36bb84	-0.17844969
158	0x3dd82078	0.10553068
159	0xbe916409	-0.28396633
160	0xbe132612	-0.14369991
161	0xbe0c3b6e	-0.13694546
162	0x3b8db576	0.0043246103
163	0xbe0ab8e4	-0.13547093
164	0xbd64b37b	-0.05583523
165	0x3e0e9337	0.13923346
166	0x3e95617d	0.2917594
167	0x3d230fef	0.039810117
168	0x3e63a568	0.22231066
169	0xbc94a399	-0.018144416
170	0xbcafecfb	-0.021475306
171	0xbcfe07d6	-0.031009596
172	0xbd14435c	-0.03619705
173	0xbd63b112	-0.05558879
174	0xbd766520	-0.060155034
175	0xbd8396e3	-0.06425264
176	0xbd9d72e0	-0.07687926
177	0xbdaeb674	-0.08530894
178	0xbdcd8486	-0.100350425
179	0xbdb47d55	-0.08812968
180	0xbdb487ae	-0.08814941
181	0xbdda473e	-0.106581196
182	0xbde6894d	-0.11256657
183	0xbdef1434	-0.11673775
184	0xbdeda237	-0.11603206
185	0xbdeb3a1d	-0.114856936
186	0xbdeaf3a2	-0.114722505
187	0xbde072e9	-0.109594174
188	0xbdd83cb4	-0.10558453
189	0xbdd0316c	-0.101656765
190	0xbdc7abce	-0.09749566
191	0x3ecea455	0.4035975

linear_season.bias f4 [8]
0	0x3d980636	0.0742306
1	0xbd0d0bd0	-0.034435093
2	0x3d701253	0.058611225
3	0x3dfb170e	0.12260257
4	0x3dbdc6f8	0.09266466
5	0x3cccebb5	0.025014738
6	0x3d783a32	0.060602374
7	0x3e069e23	0.13146262
