model/dlinear/checkpoints/model_2025-05-24_02-43-21/DLinear_0.ckpt (torch, 5661 bytes, 4 tensors)

linear_trend.weight f4 [8, 24]
0.16623409 -0.07291468 -0.07420642 -0.0064190924 -0.28616178 0.041807406 -0.12125993 -0.010026526
-0.07768075 -0.18252377 -0.07583479 -0.0128797125 0.12967142 0.021395471 0.11440015 0.13069168
0.18386436 0.15747935 0.339442 0.22565515 0.094662115 0.051657926 0.14871232 0.09760139
-0.10557169 -0.07425751 0.0027045119 -0.026579786 -0.32927427 0.070161596 0.012728449 0.15074784
0.10361951 -0.22633743 -0.21359831 -0.06893232 0.2531717 0.06720345 0.1417186 -0.0125586325
0.31257454 0.04198649 0.28959244 0.13131137 0.018999297 0.23984994 0.022737063 0.19577816
0.029387396 -0.018138116 -0.2283325 -0.20407866 -0.029416729 -0.18707626 0.15611823 0.19053917
0.00032940315 -0.13366109 0.118970774 0.07349479 -0.11197419 0.15889418 0.20299226 0.2865451
0.008774433 0.09605705 0.13050568 0.1540318 -0.031332485 -0.018924003 0.24816374 0.0899716
0.019498203 -0.073242106 -0.014962835 -0.06140423 -0.038475316 -0.018480713 -0.30969864 0.080870345
-0.08699595 -0.057629213 0.1096174 0.06833673 0.22612037 -0.010058327 -0.06659523 0.26962173
0.08191808 0.23617081 0.2028527 -0.014824717 0.18170772 0.18445794 0.0016992426 0.049590006
0.026577106 -0.023788033 -0.15971893 -0.14973353 0.10022208 -0.13712214 -0.014372962 -0.03190699
-0.13765238 -0.1477341 0.23015006 0.05497419 0.19001003 0.096227266 0.12796569 0.20961963
0.24729073 -0.11369302 0.060848735 0.21358593 0.23121263 0.20686132 -0.070803106 -0.0713028
-0.20287451 -0.042166304 0.1161276 -0.23331106 0.0014840281 -0.2121819 -0.30612734 -0.16850834
-0.0033652892 0.23471704 0.049293388 0.23757973 0.34662294 0.27366912 0.23841204 0.2400174
0.21302354 0.1440796 -0.062582515 -0.08948131 -0.0051093656 0.056033395 -0.052573998 0.15165569
0.006523245 -0.12576991 -0.0100536 -0.056198075 0.00043490672 0.027259907 -0.18897355 0.0700427
-0.15947431 -0.10721986 -0.054144904 0.032513507 0.03687273 0.06170981 0.28848353 0.067764536
-0.024517376 0.20329618 0.19342719 0.2641554 0.035297442 0.18459994 0.06409164 0.09459864
-0.23157388 -0.15632296 -0.15662144 0.0016786152 -0.024910394 -0.046839368 0.06019211 0.03757141
0.027065434 -0.018735213 -0.12214556 0.25448734 0.08179065 0.13768351 -0.014280563 0.11288865
0.029418608 0.3538979 -0.0044353153 0.02300695 0.18425885 0.08321808 0.27085376 0.12149564
00000000: 4539 2a3e 4b54 95bd 89f9 97bd 4057 d2bb
00000010: cc83 92be 3e3e 2b3d 2057 f8bd 4c46 24bc
00000020: 1617 9fbd 83e7 3abe 454f 9bbd 6e05 53bc
00000030: 96c8 043e 8e45 af3c a04a ea3d 0ad4 053e
00000040: f046 3c3e 4442 213e 58cb ad3e 2512 673e
00000050: 36de c13d 4397 533d 0b48 183e 3de3 c73d
00000060: f835 d8bd 5214 98bd 2e3e 313b dabd d9bc
00000070: a396 a8be e2b0 8f3d fc8a 503c a45d 1a3e
00000080: 7736 d43d 00c5 67be 84b9 5abe 632c 8dbd
00000090: b99f 813e f6a1 893d ae1e 113e b9c2 4dbc
000000a0: c509 a03e 07fa 2b3d 7645 943e 7d76 063e
000000b0: 6aa4 9b3c 399b 753e 1443 ba3c 127a 483e
000000c0: d6bd f03c 6396 94bc ffcf 69be fff9 50be
000000d0: 5afb f0bc eb90 3fbe 75dd 1f3e b31c 433e
000000e0: beb3 ac39 74de 08be f3a6 f33d 7084 963d
000000f0: b952 e5bd 28b5 223e 34dd 4f3e 0ab6 923e
00000100: a4c2 0f3c 8fb9 c43d 48a3 053e 83ba 1d3e
00000110: 7e56 00bd 8306 9bbc a31e 7e3e 0843 b83d
00000120: b2ba 9f3c f5ff 95bd ae26 75bc 0083 7bbd
00000130: 4b98 1dbd dd64 97bc d290 9ebe 5a9f a53d
00000140: ef2a b2bd 9c0c 6cbd 167f e03d 21f4 8b3d
00000150: 198c 673e aecb 24bc 1463 88bd dc0b 8a3e
00000160: abc4 a73d c3d6 713e 9eb8 4f3e 5fe3 72bc
00000170: 9711 3a3e 8be2 3c3e 1fb9 de3a e41e 4b3d
00000180: 3bb8 d93c 1fdf c2bc 5c8d 23be bf53 19be
00000190: 3c41 cd3d bf69 0cbe 927c 6bbc e7b0 02bd
000001a0: bff4 0cbe 9c47 17be 75ac 6b3e 9e2c 613d
000001b0: fd91 423e cd12 c53d 7009 033e 87a6 563e
000001c0: c839 7d3e e3d7 e8bd 863c 793d 45b6 5a3e
000001d0: 01c3 6c3e 74d3 533e 3801 91bd 3407 92bd
000001e0: 56be 4fbe 93b6 2cbd 4fd4 ed3d 18e9 6ebe
000001f0: b883 c23a 3646 59be b9bc 9cbe 738d 2cbe
00000200: 2f8c 5cbb aa59 703e dde7 493d 1a48 733e
00000210: 9078 b13e 5c1e 8c3e 4922 743e 1fc7 753e
00000220: d822 5a3e 9a89 133e 432b 80bd fa41 b7bd
00000230: 776c a7bb 4683 653d d557 57bd a14b 1b3e
00000240: f2c0 d53b d4c9 00be dbb7 24bc f42f 66bd
00000250: 3104 e439 2b50 df3c 4882 41be 8c72 8f3d
00000260: 3c4d 23be 1696 dbbd 0cc7 5dbd e22c 053d
00000270: dc07 173d 6dc3 7c3d 1db4 933e 22c8 8a3d
00000280: aad8 c8bc e02c 503e c711 463e 603f 873e
00000290: 0d94 103d c407 3d3e 7a42 833d efbc c13d
000002a0: b421 6dbe 2013 20be 5f61 20be fb04 dc3a
000002b0: e210 ccbc a3da 3fbd 008c 763d 7be4 193d
000002c0: 54b8 dd3c 977a 99bc 7427 fabd 2a4c 823e
000002d0: db81 a73d e8fc 0c3e 06f9 69bc 2a32 e73d
000002e0: 4bff f03c 1b32 b53e 1f56 91bb 1279 bc3c
000002f0: 5aae 3c3e 3e6e aa3d 58ad 8a3e b5d2 f83d

linear_trend.bias f4 [8]
-0.054300554 0.072940476 0.00034906686 -0.03155117 0.023803389 0.10334747 0.07968564 -0.12875418
00000000: 426a 5ebd d161 953d f602 b739 cd3b 01bd
00000010: 53ff c23c d7a7 d33d 3a32 a33d 23d8 03be

linear_season.weight f4 [8, 24]
0.19221146 -0.010073212 0.015586246 -0.11309717 0.051251613 -0.07707589 -0.051755168 -0.28279176
0.16993175 -0.07404114 -0.12612551 -0.11140785 -0.10341076 -0.08163567 -0.1666985 -0.37334338
0.27755904 0.0058207316 -0.037595894 -0.0871114 -0.08045205 -0.1273012 -0.10877813 0.09698753
0.21224757 0.1901345 -0.0026473226 -0.072659306 -0.01711894 0.014559652 -0.092335194 -0.21084209
0.031793743 0.14509915 -0.12510535 -0.10896741 -0.16804591 -0.05040491 -0.11173214 -0.41820902
-0.05551095 0.29318154 0.13401112 -0.03983791 -0.06332901 -0.064954 -0.15601711 -0.044186786
0.16560784 0.0131549565 0.18958645 -0.054700352 -0.09288465 -0.037461944 0.0016084642 -0.18251517
0.0007901959 -0.04780744 0.12977102 -0.113727756 -0.09634553 -0.04279395 -0.16205488 -0.23075098
-0.13239302 0.027521782 0.4272386 0.11738153 0.09695233 -0.111162655 0.009111228 0.22854747
-0.003133662 -0.012755943 -0.014739046 0.12735674 -0.0983994 -0.07433819 -0.0810379 -0.13722584
-0.07497687 -0.07463009 -0.15307552 0.15226358 -0.14543511 -0.17278497 -0.1980386 -0.16603494
-0.17194234 -0.107893646 0.15344098 0.2542571 0.20371853 0.015427303 -0.08952389 -0.034944057
-0.062683925 -0.019604819 -0.05566191 -0.07992301 0.14465342 -0.14281553 -0.0814745 -0.18521361
-0.03237464 -0.10125446 -0.18682589 -0.06565325 0.10965613 -0.17374985 -0.19107534 -0.24197254
-0.11066382 -0.14271468 0.049552493 0.0018992481 0.33450177 0.21643043 -0.015517888 0.0416278
0.12218085 -0.011649777 -0.063527614 -0.091587484 -0.08308527 0.09861909 -0.14967035 -0.17137423
-0.12749092 -0.08040274 -0.09705397 -0.13829389 -0.17523837 0.08548843 -0.16063984 -0.30743012
-0.1653269 -0.098917976 -0.10877477 -0.09334072 0.09972415 0.29853532 0.10022351 0.09374991
0.2026121 -0.0053109466 -0.015876438 -0.025861247 -0.030131016 -0.07391247 0.16593862 -0.1798555
-0.087020874 -0.10493097 -0.06636537 -0.09200106 -0.07824715 -0.18060924 0.10715529 -0.28909788
-0.1388252 -0.13348994 0.0011744172 -0.13876523 -0.055790145 0.14078178 0.2926251 0.03953262
0.22266804 -0.017906437 -0.022096703 -0.03128656 -0.037037767 -0.056180213 -0.060096998 -0.06329473
-0.07570472 -0.08476156 -0.09970991 -0.08829156 -0.08864813 -0.10675553 -0.11200155 -0.11667098
-0.11701199 -0.11510979 -0.11487342 -0.10911322 -0.105195545 -0.101848885 -0.09754782 0.40516105
00000000: 15d3 443e 1d0a 25bc 745d 7f3c 7d9f e7bd
00000010: 36ed 513d f7d9 9dbd 3afd 53bd 15ca 90be
00000020: 9702 2e3e e2a2 97bd 0c27 01be cd29 e4bd
00000030: 05c9 d3bd 9a30 a7bd 03b3 2abe dd26 bfbe
00000040: 381c 8e3e d6bb be3b 27fe 19bd 7667 b2bd
00000050: 0bc4 a4bd 3f5b 02be 11c7 debd 66a1 c63d
00000060: 6d57 593e 9eb2 423e b47e 2dbb 67ce 94bd
00000070: 053d 8cbc 9b8b 6e3c 3c1a bdbd fde6 57be
00000080: 283a 023d df94 143e 9e1b 00be 4e2a dfbd
00000090: 3a14 2cbe 6175 4ebd d2d3 e4bd 7e1f d6be
000000a0: 735f 63bd e41b 963e 363a 093e 142d 23bd
000000b0: a4b2 81bd 9a06 85bd f3c2 1fbe 34fd 34bd
000000c0: 1a95 293e e387 573c f322 423e 7a0d 60bd
000000d0: 4f3a bebd b271 19bd 1ad3 d23a 42e5 3abe
000000e0: 2625 4f3a bcd1 43bd b2e2 043e 19ea e8bd
000000f0: ce50 c5bd b548 2fbd b7f1 25be fc49 6cbe
00000100: 0992 07be 5c75 e13c 05bf da3e ba65 f03d
00000110: f18e c63d 3fa9 e3bd 4347 153c 5908 6a3e
00000120: 205e 4dbb 4efe 50bc 0a7c 71bc ce69 023e
00000130: a085 c9bd 9f3e 98bd 33f7 a5bd ee84 0cbe
00000140: 798d 99bd a9d7 98bd d4bf 1cbe fcea 1b3e
00000150: f1ec 14be 8bee 30be a1ca 4abe 1005 2abe
00000160: a711 30be 58f7 dcbd a21f 1d3e fd2d 823e
00000170: 979b 503e ccc2 7c3c 4d58 b7bd 8021 0fbd
00000180: 6e60 80bd 499a a0bc befd 63bd adae a3bd
00000190: 0720 143e 3c3e 12be 1adc a6bd a3a8 3dbe
000001a0: 459b 04bd 805e cfbd 494f 3fbe 3675 86bd
000001b0: 6593 e03d 7beb 31be 41a9 43be a6c7 77be
000001c0: b6a3 e2bd cc23 12be 8ef7 4a3d 31f0 f83a
000001d0: d143 ab3e f09f 5d3e bd3e 7ebc e981 2a3d
000001e0: f439 fa3d b5de 3ebc c41a 82bd 3892 bbbd
000001f0: 9c28 aabd cef8 c93d 2f43 19be ba7c 2fbe
00000200: fb8c 02be 31aa a4bd 3bc4 c6bd ea9c 0dbe
00000210: b071 33be 8f14 af3d c57e 24be 7b67 9dbe
00000220: 744b 29be 8295 cabd 4ec5 debd 6b29 bfbd
00000230: 2d3c cc3d 9fd9 983e fc41 cd3d f4ff bf3d
00000240: 8c79 4f3e 7307 aebb 4e0f 82bc f7da d3bc
00000250: 52d5 f6bc 6c5f 97bd d0eb 293e 0a2c 38be
00000260: 0038 b2bd 0ce6 d6bd 91ea 87bd 0d6b bcbd
00000270: 0b40 a0bd a1f1 38be 3c74 db3d a304 94be
00000280: 3128 0ebe 96b1 08be e7ee 993a 7918 0ebe
00000290: 3584 64bd 1929 103e f5d2 953e f5ec 213d
000002a0: 1703 643e 85b0 92bc 2504 b5bc 5626 00bd
000002b0: eab4 17bd 391d 66bd 4528 76bd aba0 81bd
000002c0: 140b 9bbd 7897 adbd b634 ccbd 35d2 b4bd
000002d0: 278d b5bd a5a2 dabd 1261 e5bd 32f1 eebd
000002e0: fba3 efbd aebe ebbd c142 ebbd c076 dfbd
000002f0: c370 d7bd 2696 d0bd 27c7 c7bd 4571 cf3e

linear_season.bias f4 [8]
0.07080541 -0.03514019 0.05535854 0.11640034 0.08930918 0.021958804 0.062979996 0.1318929
00000000: 6d02 913d 29ef 0fbd a3bf 623d 4d63 ee3d
00000010: bbe7 b63d f3e2 b33c a8fb 803d ef0e 073e
