model/dlinear/checkpoints/model_2025-05-31_02-46-22/DLinear_0.ckpt (torch, 5661 bytes, 4 tensors)

linear_trend.weight f4 [8, 24]
0.1651871 -0.0734581 -0.07447186 -0.006507799 -0.2862967 0.042343296 -0.12022552 -0.008568133
-0.075227834 -0.17880541 -0.070614465 -0.007479507 0.13338651 0.023749303 0.11620086 0.13216501
0.18511316 0.15867557 0.34035805 0.22643407 0.095580295 0.052357372 0.149289 0.098157145
-0.10235329 -0.07332462 0.0015096407 -0.029544758 -0.3325376 0.0689414 0.012515306 0.15026164
0.10195651 -0.22979094 -0.21805023 -0.06938527 0.25568312 0.069241606 0.14267805 -0.011512184
0.3133626 0.04217766 0.28991506 0.13113657 0.018741341 0.23953977 0.022080103 0.19490664
0.044751093 -0.012102983 -0.23199046 -0.21310842 -0.03944766 -0.19474393 0.15926003 0.20008938
0.009810815 -0.12478078 0.12682295 0.07848304 -0.109746516 0.15891881 0.20262858 0.28601372
0.008408501 0.0950354 0.1300506 0.15302274 -0.032297827 -0.019994121 0.24702035 0.088420376
0.019638125 -0.07322098 -0.014955574 -0.061725814 -0.03899496 -0.01904733 -0.3094872 0.081725195
-0.08117635 -0.052054845 0.11291034 0.06993073 0.22692917 -0.009709088 -0.06614474 0.26996702
0.082841106 0.2366036 0.20340322 -0.014522204 0.18181837 0.18451647 0.0016922889 0.049368907
0.028433412 -0.021613153 -0.15783636 -0.14807954 0.10172433 -0.13571264 -0.012638548 -0.029956212
-0.13693382 -0.14696892 0.22963043 0.05268081 0.18646409 0.09239929 0.1260348 0.20874329
0.24643523 -0.11599349 0.059679735 0.21338572 0.23208167 0.20765045 -0.07086661 -0.07236811
-0.2008535 -0.040334154 0.11901511 -0.2305523 0.003493524 -0.21103676 -0.30437097 -0.16728677
-0.0021384694 0.22966422 0.04250691 0.23057374 0.34757212 0.27327693 0.2373179 0.23887989
0.21229054 0.143211 -0.062825106 -0.089848146 -0.0052155494 0.0559423 -0.052715257 0.15120696
0.006892794 -0.1246627 -0.008963968 -0.05726488 -0.0011804118 0.025867173 -0.19201052 0.06708925
-0.16349457 -0.112633735 -0.04990482 0.03408826 0.03698935 0.0613121 0.2875388 0.06638231
-0.025789605 0.20201284 0.19226414 0.26313543 0.034771558 0.18426102 0.06375204 0.094147906
-0.22514062 -0.15101989 -0.15186203 0.0035538157 -0.02597363 -0.047535527 0.060251664 0.035087246
0.016410135 -0.028300045 -0.12623683 0.25407094 0.082419276 0.13861148 -0.013502596 0.113186605
0.029702323 0.35409886 -0.004240792 0.02326506 0.1846007 0.08352961 0.27113461 0.1217143
00000000: cf26 293e 3371 96bd b484 98bd 603f d5bb
00000010: 7b95 92be 2a70 2d3d cc38 f6bd 5b61 0cbc
00000020: 0d11 9abd c418 37be 519e 90bd a716 f5bb
00000030: 7996 083e e68d c23c b7fa ed3d 4456 073e
00000040: 4e8e 3d3e d97b 223e 6943 ae3e 55de 673e
00000050: 9abf c33d af74 563d 37df 183e 9d06 c93d
00000060: 9a9e d1bd 382b 96bd 23df c53a d907 f2bc
00000070: 5e42 aabe 2631 8d3d ff0c 4d3c 30de 193e
00000080: 93ce d03d 514e 6bbe 8f48 5fbe dd19 8ebd
00000090: e6e8 823e 8bce 8d3d 321a 123e 999d 3cbc
000000a0: 1071 a03e 7bc2 2c3d bf6f 943e aa48 063e
000000b0: 7187 993c ea49 753e 55e1 b43c 9b95 473e
000000c0: ec4c 373d 974b 46bc e88e 6dbe 1839 5abe
000000d0: df93 21bd f46a 47be 1015 233e 3be4 4c3e
000000e0: 8abd 203c 118d ffbd e0dd 013e b7bb a03d
000000f0: c8c2 e0bd 9dbb 223e de7d 4f3e 6470 923e
00000100: cfc3 093c eba1 c23d fc2b 053e feb1 1c3e
00000110: ba4a 04bd b6ca a3bc e7f2 7c3e be15 b53d
00000120: 22e0 a03c e2f4 95bd 3908 75bc 35d4 7cbd
00000130: 2eb9 1fbd 2509 9cbc 1b75 9ebe 8a5f a73d
00000140: c93f a6bd 7637 55bd 893d e73d d837 8f3d
00000150: 1f60 683e de12 1fbc e576 87bd 1e39 8a3e
00000160: 99a8 a93d 3748 723e ef48 503e 8aee 6dbc
00000170: 982e 3a3e e3f1 3c3e cbcf dd3a 0d37 4a3d
00000180: 30ed e83c 110e b1bc db9f 21be 2aa2 17be
00000190: d854 d03d 41f8 0abe ea11 4fbc bb66 f5bc
000001a0: 6138 0cbe 057f 16be 3d24 6b3e d5c7 573d
000001b0: 71f0 3e3e d73b bd3d 440f 013e cdc0 553e
000001c0: 8459 7c3e ff8d edbd bd72 743d c981 5a3e
000001d0: d1a6 6d3e 52a2 543e 8322 91bd bb35 94bd
000001e0: 8aac 4dbe 6d35 25bd 32be f33d e715 6cbe
000001f0: 9bf3 643b 051a 58be 83d6 9bbe 394d 2bbe
00000200: 9025 0cbb 192d 6b3e ba1b 2e3d 861b 6c3e
00000210: f9f4 b13e f4ea 8b3e 7703 733e ee9c 743e
00000220: b162 593e e8a5 123e 73aa 80bd 4e02 b8bd
00000230: 33e7 aabb c123 653d f4eb 57bd ffd5 1a3e
00000240: f2dc e13b 284f ffbd 9bdd 12bc 948e 6abd
00000250: 0cb8 9aba 65e7 d33c 689e 44be 1766 893d
00000260: 1f6b 27be 84ac e6bd ff68 4cbd 22a0 0b3d
00000270: 2582 173d 6622 7b3d 4938 933e 73f3 873d
00000280: b944 d3bc 74dc 4e3e e4e0 443e b0b9 863e
00000290: 9f6c 0e3d ecae 3c3e 6e90 823d 9ed0 c03d
000002a0: 438b 66be f5a4 1abe b881 1bbe 22e7 683b
000002b0: a6c6 d4bc 9db4 42bd 73ca 763d a5b7 0f3d
000002c0: 8c6e 863c 7fd5 e7bc 3a44 01be 9615 823e
000002d0: 70cb a83d 2bf0 0d3e fe39 5dbc 61ce e73d
000002e0: 4952 f33c 724c b53e 57f6 8abb 5e96 be3c
000002f0: f707 3d3e 9211 ab3d 28d2 8a3e 5945 f93d

linear_trend.bias f4 [8]
-0.05021992 0.07908019 0.0034570952 -0.032112245 0.025668282 0.10733975 0.08099096 -0.12984395
00000000: 67b3 4dbd cbf4 a13d 6f90 623b 2188 03bd
00000010: 4a46 d23c f1d4 db3d 97de a53d d0f5 04be

linear_season.weight f4 [8, 24]
0.19382294 -0.015827307 0.0120572345 -0.11395415 0.04985628 -0.07559864 -0.05202514 -0.28074467
0.17261054 -0.07302019 -0.12735254 -0.111260734 -0.09673898 -0.081159726 -0.17079173 -0.3705126
0.2776643 0.009330227 -0.036009442 -0.08629492 -0.07628928 -0.12502527 -0.107833244 0.09670771
0.21533094 0.1851064 -0.0068872087 -0.07117285 -0.015810275 0.012241678 -0.0897097 -0.21272244
0.035889573 0.14867146 -0.1191408 -0.110212885 -0.16850153 -0.049327686 -0.11260931 -0.41472068
-0.057411257 0.2918718 0.13782853 -0.039140377 -0.0656323 -0.060256615 -0.1543497 -0.0451082
0.16723835 0.009606187 0.18491384 -0.062103786 -0.08674478 -0.04220557 0.0038990437 -0.18516998
0.0038116637 -0.046491023 0.1302348 -0.112811714 -0.0957089 -0.0415371 -0.16284783 -0.22906378
-0.12911293 0.029479682 0.42850816 0.11871736 0.0960855 -0.10864513 0.0067199045 0.22343852
-0.0018084015 -0.021309093 -0.01639541 0.12237942 -0.09597793 -0.07931977 -0.08314718 -0.13551427
-0.07665678 -0.074475095 -0.14628877 0.1553085 -0.1490391 -0.17061242 -0.19777171 -0.1648894
-0.17350078 -0.107349046 0.16088876 0.25320002 0.20482612 0.017747154 -0.08655949 -0.045588218
-0.060173113 -0.029229838 -0.055162527 -0.08122522 0.14233449 -0.15315568 -0.07962629 -0.18590115
-0.033218715 -0.09694673 -0.17916553 -0.064841755 0.10955941 -0.17592992 -0.19227502 -0.24076515
-0.11295995 -0.14169124 0.053169288 0.0023813767 0.3334098 0.21980572 -0.009568654 0.03515012
0.12266374 -0.013539368 -0.06572982 -0.09513648 -0.08491061 0.09141173 -0.14882767 -0.16991577
-0.12736607 -0.0804962 -0.09302804 -0.13957903 -0.17333876 0.08542564 -0.1613251 -0.30298898
-0.16846497 -0.09818031 -0.10355351 -0.09549745 0.09863384 0.2969803 0.10331387 0.094259925
0.2105125 -0.0003555652 -0.013221614 -0.03145813 -0.030978698 -0.075012565 0.1639813 -0.18215221
-0.08865204 -0.10339173 -0.06343174 -0.09483265 -0.08265163 -0.17771184 0.10526544 -0.28219396
-0.13796654 -0.12934017 -0.0012119705 -0.13507976 -0.05341753 0.14203487 0.29285562 0.03985055
0.21863762 -0.01789238 -0.021860704 -0.031147392 -0.036176905 -0.05574681 -0.05871289 -0.06304015
-0.07649842 -0.08429418 -0.09893261 -0.08712725 -0.08901182 -0.105747804 -0.11249411 -0.1155637
-0.11522023 -0.1131509 -0.11356764 -0.10736842 -0.10396692 -0.10024087 -0.09661121 0.404029
00000000: 8579 463e 45a8 81bc b58b 453c cb60 e9bd
00000010: 1936 4c3d 76d3 9abd 5018 55bd c4bd 8fbe
00000020: d1c0 303e 9c8b 95bd b468 02be abdc e3bd
00000030: 161f c6bd 1237 a6bd 07e4 2ebe d4b3 bdbe
00000040: 042a 8e3e cfdd 183c a37e 13bd 64bb b0bd
00000050: 8e3d 9cbd a006 00be add7 dcbd b10e c63d
00000060: b77f 5c3e 888c 3d3e 18ae e1bb 12c3 91bd
00000070: 8d84 81bc 5291 483c b8b9 b7bd e9d3 59be
00000080: f200 133d 553d 183e 1700 f4bd 4bb7 e1bd
00000090: aa8b 2cbe d40b 4abd b69f e6bd 4556 d4be
000000a0: 1128 6bbd 3870 953e ec22 0d3e a951 20bd
000000b0: 3a6a 86bd a4cf 76bd d90d 1ebe 60c3 38bd
000000c0: 8840 2b3e 4563 1d3c 0e5a 3d3e 8a60 7ebd
000000d0: 3fa7 b1bd bfdf 2cbd 1987 7f3b 339d 3dbe
000000e0: 1bcd 793b 5f6d 3ebd 455c 053e d409 e7bd
000000f0: 0703 c4bd ce22 2abd 95c1 26be b28f 6abe
00000100: 2e36 04be 607f f13c 6c65 db3e 1622 f33d
00000110: 7ac8 c43d 5781 debd a532 dc3b 11cd 643e
00000120: e307 edba 6890 aebc ab4f 86bc 10a2 fa3d
00000130: 1490 c4bd 6772 a2bd 1249 aabd 41c4 0abe
00000140: 3bfe 9cbd 6686 98bd b9cc 15be 3109 1f3e
00000150: b59d 18be 06b5 2ebe ab84 4abe c4d8 28be
00000160: 30aa 31be d1d9 dbbd 06c0 243e 6fa3 813e
00000170: f0bd 513e 7b62 913c 1a46 b1bd b6ba 3abd
00000180: 1578 76bd 6a73 efbc 1af2 61bd 6859 a6bd
00000190: 22c0 113e d8d4 1cbe 1c13 a3bd df5c 3ebe
000001a0: 5910 08bd 028c c6bd 2b77 37be c1cb 84bd
000001b0: af60 e03d f926 34be bee3 44be 248b 76be
000001c0: 8c57 e7bd 8217 11be 0ac8 593d df10 1c3b
000001d0: b0b4 aa3e c014 613e d8c5 1cbc 92f9 0f3d
000001e0: 2037 fb3d 3ad4 5dbc 5b9d 86bd ead6 c2bd
000001f0: 9de5 adbd 1336 bb3d 4866 18be 66fe 2dbe
00000200: 406c 02be 31db a4bd 7c85 bebd ceed 0ebe
00000210: b77f 31be a3f3 ae3d 6832 25be 5f21 9bbe
00000220: 1582 2cbe c212 c9bd dd13 d4bd 2b94 c3bd
00000230: 8a00 ca3d cd0d 983e 3996 d33d 590b c13d
00000240: 9790 573e 276b bab9 789f 58bc 3dda 00bd
00000250: 0ac7 fdbc 30a0 99bd b7ea 273e 1c86 3abe
00000260: 338f b5bd 0bbf d3bd 80e8 81bd 9f37 c2bd
00000270: 4245 a9bd 18fa 35be 6895 d73d ba7b 90be
00000280: 1a47 0dbe c071 04be fbda 9eba 5952 0abe
00000290: 57cc 5abd 9771 113e 2cf1 953e 553a 233d
000002a0: 8ae2 5f3e 0a93 92bc 3815 b3bc d128 ffbc
000002b0: 3c2e 14bd c456 64bd ed7c 70bd 321b 81bd
000002c0: 34ab 9cbd 6da2 acbd 2e9d cabd c66f b2bd
000002d0: d44b b6bd 4e92 d8bd 5063 e6bd a9ac ecbd
000002e0: 95f8 ebbd a9bb e7bd 2796 e8bd f9e3 dbbd
000002f0: 9cec d4bd 164b cdbd 19dc c5bd e4dc ce3e

linear_season.bias f4 [8]
0.074886195 -0.029000517 0.058466535 0.115839176 0.09117394 0.025951132 0.064285316 0.13080314
00000000: ef5d 993d 7e92 edbc 9b7a 6f3d 173d ed3d
00000010: 67b9 ba3d 7897 d43c 05a8 833d 42f1 053e
