model/dlinear/checkpoints/model_2025-06-07_02-49-43/DLinear_0.ckpt (torch, 5661 bytes, 4 tensors)

linear_trend.weight f4 [8, 24]
0	0x3e295713	0.16537122
1	0xbd936543	-0.071970485
2	0xbd92af00	-0.07162285
3	0xbb6cc664	-0.0036128992
4	0xbe9195ae	-0.2843451
5	0x3d2fd2f5	0.042925794
6	0xbdf893e8	-0.12137586
7	0xbc37c1da	-0.011215651
8	0xbda0dae2	-0.078542486
9	0xbe3c5edf	-0.18395565
10	0xbda4492a	-0.080217674
11	0xbc8c1d15	-0.017103711
12	0x3e023fed	0.12719698
13	0x3ca22188	0.01979138
14	0x3de90f17	0.11379831
15	0x3e058fb1	0.13043095
16	0x3e3c1f78	0.1837138
17	0x3e214568	0.15749133
18	0x3eadc362	0.33938128
19	0x3e66edfe	0.22551724
20	0x3dc21628	0.09476882
21	0x3d54c676	0.05194708
22	0x3e18b786	0.14913759
23	0x3dc8cd1a	0.09804745
24	0xbdd615bb	-0.104533635
25	0xbd9866cd	-0.07441483
26	0x3b476bda	0.0030429275
27	0xbcdb88af	-0.026798574
28	0xbea8d4e8	-0.32974935
29	0x3d92bf37	0.071653776
30	0x3c736cad	0.014857453
31	0x3e1cccff	0.15312575
32	0x3dd9d57f	0.10636424
33	0xbe66af46	-0.22527799
34	0xbe5b1cb7	-0.21397673
35	0xbd8d03a2	-0.068854585
36	0x3e81bbbd	0.25338545
37	0x3d88be76	0.066769525
38	0x3e116311	0.14197947
39	0xbc4f1e6c	-0.0126415305
40	0x3e9facf5	0.31186643
41	0x3d2858d2	0.04110033
42	0x3e93c7c6	0.28863353
43	0x3e055568	0.13020861
44	0x3c92bbcf	0.01791182
45	0x3e748dbd	0.23882194
46	0x3cb0c65b	0.021578958
47	0x3e475338	0.19465339
48	0x3d0b8ac4	0.034067884
49	0xbc706e7d	-0.01467478
50	0xbe67eaa4	-0.22648102
51	0xbe5246d8	-0.20534837
52	0xbcfbe14a	-0.030747075
53	0xbe40660b	-0.18788926
54	0x3e21d199	0.15802611
55	0x3e46a082	0.19397166
56	0x3b74d685	0.003735931
57	0xbe0472fa	-0.12934485
58	0x3dfbfb22	0.12303759
59	0x3d9c2e47	0.07626014
60	0xbde1ba26	-0.11021833
61	0x3e23c3be	0.15992638
62	0x3e4ef0b1	0.20209004
63	0x3e921f43	0.28539476
64	0x3c04fab0	0.008116409
65	0x3dc2243b	0.09479567
66	0x3e045c59	0.12925853
67	0x3e1c4818	0.15261877
68	0xbd059328	-0.032611042
69	0xbca44aa9	-0.020055132
70	0x3e7cc853	0.24685793
71	0x3db50a8f	0.088399045
72	0x3ca43ffb	0.02005004
73	0xbd95be49	-0.07311685
74	0xbc724417	-0.014786742
75	0xbd7c8ec5	-0.061659593
76	0xbd1e4e23	-0.038648736
77	0xbc98bcb8	-0.018644676
78	0xbe9e748a	-0.30948287
79	0x3da7a20d	0.081852056
80	0xbda4e09c	-0.08050653
81	0xbd40fe00	-0.047117233
82	0x3de1969e	0.11015056
83	0x3d8aa6b6	0.06770079
84	0x3e667c9b	0.2250847
85	0xbc38943f	-0.011265813
86	0xbd8ad853	-0.06779542
87	0x3e895e26	0.26829642
88	0x3da5a522	0.08088137
89	0x3e70593a	0.23471537
90	0x3e4e25ed	0.20131655
91	0xbc872ce3	-0.016500896
92	0x3e3817c4	0.17977816
93	0x3e3af88c	0.18258876
94	0xb91b557d	-0.00014813799
95	0x3d43bacb	0.04778556
96	0x3ce33644	0.027735837
97	0xbcbbc076	-0.022918921
98	0xbe23808f	-0.1596701
99	0xbe19db59	-0.1502508
100	0x3dcbf8c2	0.09959556
101	0xbe0d84e4	-0.13820225
102	0xbc846a8f	-0.016164092
103	0xbd0f3289	-0.034960303
104	0xbe0f34fc	-0.13985056
105	0xbe189e93	-0.14904241
106	0x3e699fd4	0.22814876
107	0x3d6028f9	0.054726575
108	0x3e44960d	0.19197865
109	0x3dccc94b	0.09999331
110	0x3e063e41	0.13109685
111	0x3e572052	0.21008423
112	0x3e794ffd	0.2434692
113	0xbdfb03fd	-0.1225662
114	0x3d5cce37	0.0539076
115	0x3e566dbe	0.20940301
116	0x3e6bd59b	0.23030703
117	0x3e53d645	0.20687206
118	0xbd942abb	-0.07234713
119	0xbd99a788	-0.07502657
120	0xbe4ded4f	-0.20110057
121	0xbd23c772	-0.039985128
122	0x3df2d489	0.11856944
123	0xbe6c7951	-0.23093154
124	0x3b85bfe4	0.004081713
125	0xbe56d85d	-0.20980974
126	0xbe9b5a63	-0.30342397
127	0xbe29a4a2	-0.16566709
128	0x39802222	0.00024439493
129	0x3e6e63b1	0.23280217
130	0x3d1dc170	0.038514555
131	0x3e64ef2b	0.2235686
132	0x3eb11409	0.34585598
133	0x3e8c04e6	0.27347487
134	0x3e73196a	0.23740163
135	0x3e751024	0.23931938
136	0x3e593114	0.21210128
137	0x3e11c6ec	0.14236039
138	0xbd843daa	-0.06457074
139	0xbdbc5caa	-0.09197362
140	0xbbfd99a4	-0.0077392627
141	0x3d5b0bc4	0.053478017
142	0xbd61fa6f	-0.055170473
143	0x3e1863ec	0.14881867
144	0x3c4dc918	0.0125601515
145	0xbdf86a98	-0.12129706
146	0xbbd9b9ff	-0.006644487
147	0xbd67882e	-0.056526355
148	0xba7062f2	-0.00091700174
149	0x3cda7c60	0.026670635
150	0xbe40e2be	-0.18836495
151	0x3d92bc41	0.07164813
152	0xbe21b949	-0.15793337
153	0xbdd80421	-0.105476625
154	0xbd6d3791	-0.05791432
155	0x3d0dbf36	0.03460618
156	0x3d1c524f	0.038164433
157	0x3d7fa170	0.06240982
158	0x3e93dd73	0.2887989
159	0x3d8aa12b	0.067690216
160	0xbccc7153	-0.024956381
161	0x3e4fc1df	0.202888
162	0x3e459ea3	0.19298796
163	0x3e86f32f	0.2635741
164	0x3d0efe67	0.034910586
165	0x3e3cbcf3	0.18431453
166	0x3d82c940	0.06386042
167	0x3dc105d3	0.09424939
168	0xbe63e771	-0.22256257
169	0xbe195116	-0.14972338
170	0xbe1dafdd	-0.15399118
171	0x3adee3bb	0.0017005125
172	0xbcda4374	-0.026643492
173	0xbd4acd38	-0.049512118
174	0x3d661c85	0.056179542
175	0x3cfa4b5c	0.030553512
176	0x3c856016	0.016281169
177	0xbcc9e8a6	-0.024647068
178	0xbe00223d	-0.12513061
179	0x3e82180c	0.2540897
180	0x3da849c1	0.082171924
181	0x3e0dac2e	0.13835213
182	0xbc60dbf6	-0.013724318
183	0x3de79f89	0.11309726
184	0x3cf37710	0.02971986
185	0x3eb56501	0.35428622
186	0xbb815dc2	-0.0039479444
187	0x3cc1cd62	0.023657504
188	0x3e3d707a	0.18499938
189	0x3dac0c75	0.084008135
190	0x3e8b1401	0.271637
191	0x3dfa501e	0.122223124

linear_trend.bias f4 [8]
0	0xbd5cbee1	-0.053892974
1	0x3d8e03ab	0.06934293
2	0xbb148015	-0.002265935
3	0xbcf78c64	-0.03021831
4	0x3cb788c7	0.022404088
5	0x3dd39db0	0.10332811
6	0x3d9be37e	0.0761175
7	0xbe031f90	-0.12805009

linear_season.weight f4 [8, 24]
0	0x3e46d0b8	0.19415557
1	0xbc9f40cb	-0.019440075
2	0x3c8045cb	0.01565828
3	0xbde236a2	-0.11045577
4	0x3d52657d	0.051366318
5	0xbd98bd2e	-0.07457958
6	0xbd4bbdf1	-0.04974169
7	0xbe900943	-0.28132066
8	0x3e2623e9	0.16224636
9	0xbd981500	-0.074258804
10	0xbe00b265	-0.12568052
11	0xbde5bdc7	-0.11217838
12	0xbdce2ee8	-0.100675404
13	0xbda71453	-0.081581734
14	0xbe2baac4	-0.1676436
15	0xbebf393f	-0.37348363
16	0x3e8cbe72	0.27489048
17	0x3c1ca67a	0.0095611755
18	0xbd208009	-0.039184604
19	0xbdb01264	-0.08597258
20	0xbd968155	-0.07348887
21	0xbe015deb	-0.12633483
22	0xbde414d2	-0.11136784
23	0x3dc91853	0.098190926
24	0x3e5a898c	0.21341532
25	0x3e3ee108	0.1864053
26	0xbbd1a33e	-0.006397634
27	0xbd8f9995	-0.07011715
28	0xbc80a917	-0.015705628
29	0x3c807ed7	0.015685482
30	0xbdbb4f61	-0.09146
31	0xbe5acd4c	-0.21367377
32	0x3d06b7c7	0.032890107
33	0x3e157731	0.14596249
34	0xbdf854fb	-0.12125584
35	0xbdd85ca9	-0.105645485
36	0xbe2c4704	-0.16823965
37	0xbd5311bf	-0.051530596
38	0xbdd77cb2	-0.105218306
39	0xbed92819	-0.42413405
40	0xbd615f91	-0.05502278
41	0x3e96712f	0.29383227
42	0x3e09694d	0.13419075
43	0xbd3246f1	-0.043524686
44	0xbd80e2f8	-0.06293291
45	0xbd8e9d08	-0.06963545
46	0xbe25a9d8	-0.16178071
47	0xbd3638ce	-0.044487767
48	0x3e287bdf	0.16453503
49	0x3c5e85c7	0.0135817
50	0x3e3e8622	0.18605855
51	0xbd7b303f	-0.061325308
52	0xbdb6c42c	-0.089241356
53	0xbd1c4544	-0.038151994
54	0x3b8b9001	0.00425911
55	0xbe3ca6db	-0.18423025
56	0x3b12591e	0.002233095
57	0xbd2f75df	-0.04283702
58	0x3e073544	0.13203913
59	0xbddcbf50	-0.107786775
60	0xbdbeadc6	-0.093104884
61	0xbd3bd166	-0.045853995
62	0xbe23b551	-0.15987135
63	0xbe6e26d3	-0.23256998
64	0xbe0c61d7	-0.13709198
65	0x3ce44773	0.0278661
66	0x3edba6fb	0.42900833
67	0x3decb67d	0.115582444
68	0x3dd2b759	0.10288877
69	0xbde46f23	-0.1115401
70	0x3c0743e5	0.008255933
71	0x3e6820b1	0.22668721
72	0xbb009ba6	-0.0019624024
73	0xbc2cf838	-0.010557227
74	0xbc7f9325	-0.015599047
75	0x3e00f026	0.1259161
76	0xbdc6069a	-0.09669228
77	0xbd989250	-0.07449782
78	0xbda85f07	-0.0822125
79	0xbe0837a6	-0.13302478
80	0xbd9731fb	-0.0738258
81	0xbd98c751	-0.074598916
82	0xbe139a98	-0.14414442
83	0x3e1dcd55	0.15410359
84	0xbe1a9f1c	-0.15099758
85	0xbe305213	-0.17218809
86	0xbe48a825	-0.19595392
87	0xbe2a512e	-0.1663253
88	0xbe2c5a95	-0.1683143
89	0xbdd0aa30	-0.10188711
90	0x3e20c31e	0.15699431
91	0x3e82e0e6	0.2556221
92	0x3e527fab	0.20556514
93	0x3c738257	0.014862618
94	0xbdc08f71	-0.09402359
95	0xbd118213	-0.03552444
96	0xbd7af559	-0.061269138
97	0xbc63fd0a	-0.01391531
98	0xbd73128c	-0.05934386
99	0xbda23141	-0.07919551
100	0x3e15085e	0.14553973
101	0xbe192b59	-0.14957942
102	0xbda1c240	-0.07898378
103	0xbe3c3943	-0.18381219
104	0xbd0d7b44	-0.034541383
105	0xbdc707ec	-0.09718308
106	0xbe3df5d9	-0.18550815
107	0xbd7ad739	-0.06124041
108	0x3ddb3922	0.107042566
109	0xbe2fce47	-0.17168532
110	0xbe4643b2	-0.19361761
111	0xbe76c7f5	-0.24099715
112	0xbdec6a3e	-0.115437016
113	0xbe0dd5ce	-0.13851091
114	0x3d60d23c	0.054887995
115	0x3ad8c15f	0.0016537121
116	0x3eaa7ee2	0.3329993
117	0x3e5fb019	0.2184452
118	0xbce3cb89	-0.027807014
119	0x3d2322c6	0.039828084
120	0x3e00321a	0.12519112
121	0xbc13c3f8	-0.009018891
122	0xbd966e4d	-0.07345257
123	0xbdb68c26	-0.0891345
124	0xbda1cb44	-0.07900098
125	0x3dc860da	0.09784098
126	0xbe170262	-0.14747003
127	0xbe2b482d	-0.16726752
128	0xbe036020	-0.12829638
129	0xbda20c75	-0.07912532
130	0xbdbe9bb5	-0.093070425
131	0xbe05261a	-0.13002816
132	0xbe3356fe	-0.17513654
133	0x3dae4a4c	0.08510265
134	0xbe26bca8	-0.16282904
135	0xbe9a6bc8	-0.30160356
136	0xbe2621be	-0.16223809
137	0xbdcc5478	-0.09977049
138	0xbdda7cc8	-0.106683314
139	0xbdc3cc04	-0.09560397
140	0x3dca3d1f	0.09874939
141	0x3e998572	0.29984623
142	0x3dce8854	0.10084596
143	0x3dbcfcdb	0.09227916
144	0x3e5d28e4	0.2159763
145	0xb9b81be6	-0.00035116
146	0xbc83c2e9	-0.016084151
147	0xbcb8fba5	-0.022580931
148	0xbcda76b0	-0.026667923
149	0xbd92bfb2	-0.07165469
150	0x3e2f6d81	0.17131616
151	0xbe3af4b5	-0.18257411
152	0xbda9ead0	-0.0829674
153	0xbddbc0f8	-0.10730165
154	0xbd808202	-0.06274797
155	0xbdbd0eba	-0.092313245
156	0xbda88180	-0.08227825
157	0xbe36f6d8	-0.17867601
158	0x3dcefaa2	0.10106398
159	0xbe9037bd	-0.28167525
160	0xbe0fce30	-0.14043498
161	0xbe0eb1c6	-0.13935003
162	0x3adff968	0.0017087879
163	0xbe095d1d	-0.13414426
164	0xbd69dacb	-0.057093423
165	0x3e135b3f	0.14390276
166	0x3e94d088	0.29065347
167	0x3d2525a2	0.040319093
168	0x3e615362	0.22004464
169	0xbc85adb3	-0.016318178
170	0xbcb4c614	-0.022067107
171	0xbcf7c803	-0.03024674
172	0xbd130bc1	-0.03589988
173	0xbd622280	-0.055208683
174	0xbd70b6a4	-0.05876793
175	0xbd80cb47	-0.06288772
176	0xbd9cd416	-0.0765764
177	0xbdad61a5	-0.0846589
178	0xbdca5916	-0.09880273
179	0xbdb41575	-0.08793155
180	0xbdb3d0fc	-0.08780095
181	0xbdd6b9ee	-0.10484682
182	0xbde3c06a	-0.111206844
183	0xbdeb4fa8	-0.114898026
184	0xbded30bc	-0.11581561
185	0xbde8db5b	-0.11369964
186	0xbde85aee	-0.113454685
187	0xbddcc750	-0.10780203
188	0xbdd808eb	-0.10548576
189	0xbdce8300	-0.1008358
190	0xbdc70489	-0.09717662
191	0x3ecf5d6a	0.40500957

linear_season.bias f4 [8]
0	0x3d91d81b	0.07121297
1	0xbd1eaba0	-0.038737893
2	0x3d580994	0.05274351
3	0x3df11e02	0.11773302
4	0x3db40a1f	0.08790993
5	0x3cb3ba1e	0.021939334
6	0x3d7359bc	0.05941175
7	0x3e07c784	0.13259703
