model/dlinear/checkpoints/model_2025-05-17_02-44-14/DLinear_0.ckpt (torch, 5661 bytes, 4 tensors)

linear_trend.weight f4 [8, 24]
00000000: 0d9a 2e3e 5ebf 8dbd 4c8d 92bd 8e86 bebb
00000010: fe4d 92be 4d51 2d3d 23f5 f7bd d6eb 2fbc
00000020: 6e32 a0bd 6d7d 3ebe 552d a1bd a479 12bc
00000030: 612a 0a3e 966c d43c 2418 f23d 56bb 083e
00000040: ee4b 3e3e 7cd9 223e 734a ae3e 69cb 673e
00000050: 647e c33d 82e9 563d 300b 193e eb79 c93d
00000060: b119 cebd c4a5 95bd 530b 193a 4904 f8bc
00000070: 8a4d aabe cd21 903d 3dad 723c 169e 1c3e
00000080: 78aa d73d 019d 67be bec9 5bbe 815a 8abd
00000090: 6676 833e d93e 903d ca4e 113e 1e8e 3fbc
000000a0: 362b a03e 4ea9 2b3d 9844 943e 8f36 063e
000000b0: 1034 9b3c 8e9a 753e cb50 b83c 744d 483e
000000c0: f0dd 683d 36cb febb c164 69be fe1d 5abe
000000d0: 810d 2cbd dfba 4ebe 9d6d 1c3e 29c3 4d3e
000000e0: ad2c 063c 8faa 03be 6ac5 f93d 328c 9a3d
000000f0: 5334 e5bd b1f4 203e f700 503e 051f 933e
00000100: 8eed 1f3c 655e c33d cd69 043e 4a8d 1b3e
00000110: 3061 09bd 31d2 acbc bde4 7b3e b289 b33d
00000120: 86a2 b83c de99 8fbd e6bd 43bc e890 6ebd
00000130: 2b62 11bd b6d0 7cbc 39f0 9cbe 0e48 a83d
00000140: 2c14 acbd b3a0 68bd 8ca3 e63d 552d 8e3d
00000150: 0281 673e 01d0 31bc f36c 8abd 898c 893e
00000160: 1157 a53d 7b19 703e 4959 4e3e 4a10 87bc
00000170: 2624 383e 9eea 3a3e 2c12 e7b9 d9fa 423d
00000180: b6eb e93c 13d9 abbc 2ba6 20be 404f 16be
00000190: 2a66 d23d 3252 0abe 737c 56bc 7437 ffbc
000001a0: ad3e 0bbe 163b 14be df25 6e3e 5c78 693d
000001b0: df41 443e c294 c63d 88c1 043e b9fb 573e
000001c0: ccbd 7c3e 0603 f1bd 1155 6d3d 911e 593e
000001d0: 856b 6d3e ee85 543e f844 92bd 8053 96bd
000001e0: 946c 4dbe b173 22bd 4743 f53d 6f4b 6abe
000001f0: b4dd c23b 1296 55be fec4 9abe c695 28be
00000200: 4d6c 0e3a 7be7 703e 5276 363d e6d6 673e
00000210: 2b8f ae3e 7f23 8c3e 90e5 733e a1b5 753e
00000220: 1e46 5a3e e62a 133e 93be 80bd 58fd b8bd
00000230: d485 c5bb e1ec 613d 8913 5cbd eec5 193e
00000240: 865f 9f3b f5d7 01be 55a0 33bc 66e1 68bd
00000250: 60fe 68ba 5ace d03c 6ed3 42be 3858 903d
00000260: ce33 22be f864 dbbd 767f 75bd 5704 f63c
00000270: f024 183d 6fab 7e3d 6ad0 933e 77b6 8b3d
00000280: 5584 c5bc 9fd3 503e 58e5 463e e29c 873e
00000290: 1d97 143d 3e34 3e3e 3293 853d dfa3 c33d
000002a0: 3001 72be 5acc 24be 7a6b 21be 7c41 d43b
000002b0: 4e30 afbc 7422 25bd 3df3 873d b5b4 173d
000002c0: f061 b73c 22ad c0bc 11cf ffbd 78c0 813e
000002d0: 5c98 a63d ccd3 0c3e 795f 6dbc 25ed e53d
000002e0: fdd6 ed3c 9006 b53e 0ee9 9cbb 76e7 b93c
000002f0: 5090 3c3e 0c92 aa3d abb3 8a3e d0ee f83d
0.17050953 -0.06921266 -0.071558565 -0.00581438 -0.28575128 0.042313863 -0.12107303 -0.01073738
-0.07822119 -0.18602534 -0.078699745 -0.008940134 0.13492729 0.025930684 0.11821011 0.13352713
0.18583652 0.15903276 0.34041175 0.22636189 0.095455915 0.052468784 0.14945674 0.09837707
-0.10063494 -0.07307008 0.0005838174 -0.03027548 -0.33262283 0.07037697 0.014811811 0.1529468
0.10530561 -0.22618486 -0.21463677 -0.067555435 0.25676268 0.07043237 0.14190212 -0.011691598
0.31282967 0.04190951 0.28958583 0.1310675 0.018945724 0.23984739 0.022499463 0.19560796
0.05685228 -0.0077756895 -0.22792341 -0.21300504 -0.042005066 -0.20188473 0.15276189 0.20093979
0.0081893625 -0.12858032 0.12195857 0.075462714 -0.11191621 0.15718342 0.20312868 0.28734604
0.009761227 0.09539489 0.12930985 0.15190616 -0.03353995 -0.02109632 0.24598975 0.08766498
0.022538435 -0.0701177 -0.011947131 -0.058243662 -0.03549401 -0.01543062 -0.30652025 0.08216868
-0.08402285 -0.05679388 0.11261663 0.0694224 0.22607806 -0.010852815 -0.06759062 0.26865032
0.08073247 0.2344722 0.20151247 -0.01648726 0.1798254 0.18253562 -0.00044073293 0.04760251
0.028554779 -0.020977532 -0.15688388 -0.14678669 0.102733925 -0.13507918 -0.013091194 -0.031154372
-0.13598128 -0.14475664 0.23256634 0.05699955 0.19165753 0.09696342 0.12964451 0.21092118
0.24681777 -0.11768155 0.057942454 0.21203066 0.23185547 0.20754215 -0.07142061 -0.07340145
-0.2006095 -0.039661113 0.11975723 -0.22880338 0.005946839 -0.20858029 -0.30228418 -0.16463384
0.0005433008 0.23525803 0.044546433 0.22640571 0.34093603 0.2737083 0.2381804 0.23995067
0.2131581 0.14371833 -0.06286349 -0.090326965 -0.0060279164 0.055157546 -0.053729568 0.1501691
0.004863682 -0.12680037 -0.010963519 -0.05685558 -0.00088880025 0.025489021 -0.19025967 0.070480764
-0.15840074 -0.10712618 -0.05993601 0.030031366 0.0371446 0.06217521 0.28869945 0.06821912
-0.024110952 0.20393227 0.19423425 0.2648688 0.036276925 0.18574616 0.06522216 0.0955274
-0.23633265 -0.16093579 -0.15763655 0.006477533 -0.021385338 -0.04031606 0.06638191 0.03703757
0.022385567 -0.023520056 -0.12490667 0.25342155 0.08134529 0.13752669 -0.0144880945 0.11226872
0.029033178 0.3535657 -0.0047885245 0.022693377 0.18414426 0.083286375 0.270902 0.12154925

linear_trend.bias f4 [8]
00000000: 966b 5cbd 438a 953d 5609 29bb 7916 08bd
00000010: a6b9 9c3c 482a ce3d df9b 9b3d db94 04be
-0.05381354 0.07301762 -0.0025792918 -0.033224557 0.019131493 0.10066658 0.075980894 -0.12947409

linear_season.weight f4 [8, 24]
00000000: a748 453e 54b2 7bbc c978 983c f687 e2bd
00000010: 18ac 4f3d 979a 94bd 8453 46bd ff3d 90be
00000020: 4a19 2b3e 2e3f 91bd 0ba3 05be 2f99 e0bd
00000030: 497d cebd 204c a6bd e4e2 2cbe 6507 bebe
00000040: 308d 8d3e 0d15 ce3b 625d 19bd f3e4 b8bd
00000050: fb43 a0bd ae55 05be 179f e5bd 5fc9 c83d
00000060: 8485 5c3e 3ff5 413e 5b0e c5bb c8b6 8ebd
00000070: eb1c 76bc 53ff 703c e1fe babd c9c2 5ebe
00000080: e58e 073d 9c69 183e e890 fbbd 79f1 e2bd
00000090: 6da2 2cbe 2237 4fbd 88d3 e6bd 03a7 d8be
000000a0: 293f 71bd bb0b 953e 2317 0c3e 4f55 25bd
000000b0: 6c84 8dbd 18af 86bd e583 24be 5cf5 29bd
000000c0: 4059 2b3e c295 873c 09a0 413e 5d61 76bd
000000d0: 59d8 b3bd a7d2 1fbd 35bf 983b 375e 3cbe
000000e0: e45e c4b9 8b33 1fbd 3329 053e 5f9e e8bd
000000f0: 0431 c0bd 578c 2ebd 54c6 24be 2a7e 6dbe
00000100: 3987 07be 2c98 d43c 07ce d93e 5f51 fa3d
00000110: 6550 d13d ecb0 e3bd b290 483c a83e 663e
00000120: 594b a9ba 15e7 7fbc 90d0 aabc 66bf 003e
00000130: 85fe c4bd b520 9abd fd9f a4bd 510a 0abe
00000140: 051e 9dbd 3e73 90bd 1ec2 1abe 9c98 1e3e
00000150: de9e 15be ea2d 31be 2d3c 4bbe 892b 29be
00000160: d7f5 30be 02f4 dcbd 709a 1d3e 1a15 823e
00000170: 20c7 523e fcfb 793c 2d1b b9bd 1aeb 43bd
00000180: 8a0b 7bbd ace9 c2bc a7f2 72bd 6c3b a0bd
00000190: 980f 163e 31ef 1abe 1280 9fbd 9558 3ebe
000001a0: 405e 10bd 105e c9bd e8d1 3dbe 03ff 7cbd
000001b0: 5209 db3d 16a6 2fbe 522a 43be 023b 75be
000001c0: 5db0 edbd a693 13be 2705 4e3d 1bed 583b
000001d0: 25dd a93e 2f94 5f3e dc9d 92bc bd87 193d
000001e0: 4853 e83d fb13 84bc ae4a 91bd 2679 bfbd
000001f0: 974f a9bd febb c13d 0bf7 16be 215f 2fbe
00000200: ffd0 04be ddce 9ebd 83ec c1bd 2eaf 0fbe
00000210: 1d8a 2fbe 4b58 b53d 81af 25be 3a13 9bbe
00000220: e028 28be fbc0 cdbd bc0d ddbd 7003 c2bd
00000230: 214f c73d 54bf 983e dec9 cd3d 96cd b03d
00000240: 2948 593e 614d baba cb63 b0bc 2f89 d5bc
00000250: 1ce0 e7bc 98b9 a1bd 0a96 2f3e 9522 38be
00000260: 3ccd a9bd c84c d5bd 12d6 7ebd 5db6 c1bd
00000270: 5dc6 aebd a87d 35be ff92 dc3d 2193 8fbe
00000280: 3612 10be 8999 0bbe 6a03 66ba 7e33 09be
00000290: 9398 62bd cc81 133e 335b 953e b838 2a3d
000002a0: 2ba5 603e 22dd 94bc 4574 b9bc 1d2e 04bd
000002b0: 051c 16bd 9580 67bd ef7d 76bd d664 85bd
000002c0: 3eb0 9cbd 3760 adbd c90f cdbd 0875 b5bd
000002d0: 1437 b6bd 6745 dbbd 425e e8bd dabc f0bd
000002e0: ee20 efbd 9afd e9bd 08f7 e9bd fc37 dfbd
000002f0: 4a7c d7bd de3a cebd 55ba c7bd a542 cf3e
0.19265996 -0.015362341 0.018612282 -0.11061089 0.05070123 -0.07256048 -0.04841949 -0.281723
0.16708866 -0.07092129 -0.13050477 -0.109667175 -0.1008249 -0.081199884 -0.16883427 -0.37115017
0.2764678 0.0062891305 -0.037442572 -0.090280436 -0.07825466 -0.13020965 -0.112119846 0.098040335
0.21535307 0.1894121 -0.006013674 -0.069684565 -0.015021543 0.014709312 -0.091306455 -0.21753992
0.03309526 0.14884037 -0.12283498 -0.110812135 -0.16858836 -0.050589688 -0.11270815 -0.4231492
-0.058898125 0.29110512 0.13680701 -0.04036456 -0.06910023 -0.06576365 -0.16065939 -0.04149376
0.16733265 0.016550902 0.18908705 -0.060151447 -0.087814994 -0.039019253 0.0046614655 -0.18395315
-0.00037454732 -0.038867515 0.13003998 -0.11358332 -0.09384349 -0.042614307 -0.16091281 -0.23192659
-0.13235177 0.025951467 0.4254 0.122225516 0.10220412 -0.111177295 0.012241529 0.22484839
-0.0012916132 -0.015619059 -0.020851403 0.12573013 -0.09618858 -0.075257696 -0.08038328 -0.13480498
-0.076717414 -0.07053231 -0.15113112 0.15487903 -0.14611384 -0.17302671 -0.19847174 -0.16520514
-0.1728128 -0.10788728 0.15390944 0.25406724 0.20583773 0.015257832 -0.090383865 -0.047831632
-0.0612903 -0.023793064 -0.059313443 -0.07823834 0.14654386 -0.15130307 -0.07788099 -0.18588479
-0.035246134 -0.09832394 -0.18537104 -0.061766636 0.10695137 -0.171532 -0.19059113 -0.23948291
-0.11605904 -0.14411792 0.050297882 0.003310031 0.33176532 0.21833871 -0.017897539 0.037482966
0.1134401 -0.016122809 -0.07094322 -0.09349279 -0.08267134 0.09459685 -0.14742677 -0.17126133
-0.1297035 -0.077543 -0.09468939 -0.1403167 -0.1714253 0.08854731 -0.1618023 -0.30288106
-0.16421843 -0.10046574 -0.10793635 -0.09473312 0.097318895 0.29833472 0.10048269 0.086329624
0.21218933 -0.0014213735 -0.02153196 -0.02606639 -0.028305106 -0.07896727 0.17147079 -0.17981942
-0.082910985 -0.104150355 -0.062215872 -0.09458611 -0.085339285 -0.17723715 0.10770225 -0.28041938
-0.14069447 -0.13632788 -0.00087743124 -0.13398549 -0.055321287 0.14404982 0.29171142 0.041557997
0.21938007 -0.01817185 -0.02263845 -0.03227054 -0.036647815 -0.05651911 -0.060178693 -0.065133736
-0.07650803 -0.08465617 -0.100127764 -0.088602126 -0.08897224 -0.10706597 -0.11346103 -0.117547706
-0.11676203 -0.11425324 -0.114240706 -0.1089935 -0.10521753 -0.10069822 -0.09752337 0.40480533

linear_season.bias f4 [8]
00000000: ce01 923d 7f9e 0fbd fbc0 563d eef5 ea3d
00000010: 4b56 ad3d c0ec 9d3c b0ca 723d 4752 063e
0.071292505 -0.035063263 0.052430134 0.114726886 0.08463725 0.01927793 0.05927533 0.13117324
