model/dlinear/checkpoints/model_2025-06-14_02-48-25/DLinear_0.ckpt (torch, 5661 bytes, 4 tensors)

linear_trend.weight f4 [8, 24]
000000 25 7d 27 3e e9 6a 98 bd c0 73 98 bd 30 4c cd bb
       0.16356333 -0.074422665 -0.074439526 -0.006265186
000010 fc 8f 92 be f7 35 2c 3d 96 e7 f7 bd 56 e1 17 bc
       -0.28625476 0.042043652 -0.121047184 -0.009270033
000020 8f 3a 9b bd 30 6d 36 be 29 f0 8f bd 9e 5e 17 bc
       -0.075795285 -0.17815089 -0.07028229 -0.009238867
000030 53 e4 05 3e f4 a0 ac 3c 78 da e8 3d 36 e1 04 3e
       0.1307538 0.021072842 0.113697946 0.12976536
000040 1a 55 3b 3e 57 65 20 3e 14 52 ad 3e 8b 58 66 3e
       0.18294182 0.15663658 0.33851683 0.22494714
000050 d5 f2 c0 3d 99 37 52 3d 93 fa 17 3e 79 42 c7 3d
       0.094213165 0.051322553 0.1484168 0.097294755
000060 f0 0e d2 bd 8b 8d 95 bd ea 91 21 3b 1d a9 e0 bc
       -0.10256755 -0.07302388 0.0024653622 -0.02742439
000070 ea 1a a9 be 38 a9 91 3d 1a c7 6e 3c 15 a8 1c 3e
       -0.33028346 0.07112354 0.014573837 0.15298493
000080 89 f0 d9 3d e2 a7 65 be 11 a7 58 be e9 9b 84 bd
       0.106415816 -0.22427323 -0.21157481 -0.0647505
000090 7d 24 83 3e b3 fa 89 3d 5f 12 12 3e 8e d0 54 bc
       0.25613776 0.0673727 0.1426482 -0.012989176
0000a0 3e 02 9f 3e d4 fa 22 3d 85 40 93 3e 01 c7 04 3e
       0.31056398 0.03978999 0.28760162 0.12966539
0000b0 3a 5d 8d 3c 20 c8 73 3e 3e 49 ad 3c d5 da 46 3e
       0.017256368 0.2380681 0.021153089 0.19419415
0000c0 a2 6e 04 3d 5d 38 74 bc 4d b2 68 be e6 31 53 be
       0.03233207 -0.014906016 -0.22724266 -0.20624503
0000d0 00 62 ea bc fb 3f 3c be bf 3f 23 3e e2 58 47 3e
       -0.028611183 -0.18383782 0.15942286 0.194675
0000e0 c9 b3 a7 3b 87 33 03 be c1 0b fe 3d b3 ae 9f 3d
       0.0051178676 -0.12812625 0.12404586 0.07796993
0000f0 29 11 de bd 26 7b 25 3e ad 22 50 3e 50 83 92 3e
       -0.10843117 0.16160259 0.20325728 0.28615808
000100 b1 2c e9 3b 60 8e bf 3d 68 82 03 3e 60 aa 1b 3e
       0.0071159233 0.09353328 0.12842715 0.15201712
000110 0d 18 08 bd a3 4f ac bc 85 9b 7b 3e a9 af b2 3d
       -0.03322606 -0.021034067 0.24571045 0.08724911
000120 0d 3e 9d 3c 50 c4 96 bd 82 1e 76 bc e8 55 7a bd
       0.019194627 -0.073616624 -0.015021922 -0.061117083
000130 90 c4 1b bd 43 67 93 bc 6b 25 9e be ee bf a5 3d
       -0.038029253 -0.017993575 -0.30887923 0.08093248
000140 4f 20 b1 bd 3e 86 47 bd 9e 67 e7 3d 34 af 8f 3d
       -0.086487405 -0.048712008 0.1129906 0.07015839
000150 04 78 68 3e c5 75 20 bc f6 de 88 bd df d6 89 3e
       0.22702032 -0.009793703 -0.066831514 0.26921746
000160 21 c0 a7 3d 82 e2 70 3e 78 f7 4d 3e 68 55 8a bc
       0.081909426 0.23523906 0.20113933 -0.016886428
000170 70 b2 37 3e e5 bc 3a 3e b8 01 25 ba 1d db 3d 3d
       0.17939162 0.1823612 -0.00062945066 0.04635154
000180 cd 88 e2 3c 1b d2 b9 bc a4 b6 22 be 16 c2 18 be
       0.027653122 -0.022683194 -0.15889984 -0.14917788
000190 41 3d cd 3d 29 d1 0c be 76 89 66 bc 50 39 05 bd
       0.10021449 -0.13751663 -0.014070859 -0.03252536
0001a0 b1 a8 13 be 5c 61 20 be 99 48 62 3e c4 0c 44 3d
       -0.1441982 -0.1566214 0.22098006 0.047863737
0001b0 7f 31 3d 3e ff 5c ba 3d 47 6d 00 3e 0a a2 55 3e
       0.18475913 0.09099769 0.12541686 0.20862594
0001c0 7a 02 7a 3e 93 8c fc bd 69 51 5e 3d d4 08 59 3e
       0.24415007 -0.123315 0.054276858 0.21194774
0001d0 d2 01 6f 3e 1b 95 56 3e f3 e4 8c bd 71 7e 91 bd
       0.23340538 0.20955317 -0.06879606 -0.07104195
0001e0 77 6f 51 be 9e 41 37 bd bf 87 ea 3d cc ef 6f be
       -0.20452677 -0.04474031 0.11451673 -0.23431319
0001f0 34 ac 95 b9 e8 c4 5b be 59 7d 9d be 4f 93 2e be
       -0.00028547796 -0.21461833 -0.30759695 -0.17048381
000200 00 dd cd bb 33 26 6a 3e 4b 9d 34 3d bd a3 67 3e
       -0.006282449 0.22866134 0.04409532 0.22621055
000210 ef f4 af 3e b9 00 8a 3e b9 f6 6f 3e cd 8c 72 3e
       0.34366557 0.26953676 0.23433961 0.23686524
000220 92 6f 57 3e ce 0e 11 3e 85 de 83 bd 8e 2c bc bd
       0.21038654 0.14165804 -0.064389266 -0.09188186
000230 0a 75 fa bb 61 d8 5c 3d 15 0c 60 bd b0 f3 18 3e
       -0.0076433467 0.053917293 -0.054699022 0.1493671
000240 db a7 9f 3b 35 0e 03 be e3 fc 43 bc 2b 48 76 bd
       0.004872305 -0.12798388 -0.011962148 -0.06012742
000250 23 d7 92 bb 5f ab ae 3c ae d8 47 be 50 87 81 3d
       -0.0044812127 0.02132195 -0.1951625 0.06324637
000260 a8 3f 2b be 2d 92 e0 bd 0e 10 3c bd ba c4 f8 3c
       -0.16723502 -0.10965381 -0.04591375 0.030367244
000270 ab 65 0c 3d c2 55 73 3d 86 b1 92 3e 53 56 87 3d
       0.034276646 0.059407957 0.28651065 0.06608262
000280 2a 3e d3 bc 87 ed 4e 3e e3 06 45 3e 97 b2 86 3e
       -0.025786478 0.20207797 0.19240908 0.26308128
000290 c2 e8 0c 3d e0 53 3c 3e 98 ec 81 3d 35 ec bf 3d
       0.034401663 0.18391371 0.06343955 0.09371225
0002a0 ec 03 67 be c1 6f 1b be fe b2 1d be 04 ad 49 3b
       -0.2256009 -0.1517935 -0.15400311 0.0030773291
0002b0 3b 38 c3 bc 4d 16 44 bd b4 38 63 3d 21 32 eb 3c
       -0.023830524 -0.04787283 0.055474 0.028710427
0002c0 a4 84 9d 3c 9f bb 99 bc 59 77 f8 bd 72 2f 83 3e
       0.019228287 -0.018766223 -0.12132139 0.25622135
0002d0 0e 04 aa 3d 44 b9 0d 3e 7b 4c 66 bc 17 7b e6 3d
       0.083015546 0.13840204 -0.01405632 0.11253946
0002e0 63 1f ee 3c 31 07 b5 3e dc ad 9e bb 22 a6 b8 3c
       0.0290677 0.3535705 -0.004842503 0.022540156
0002f0 a5 50 3c 3e 39 d1 a9 3d f8 85 8a 3e 47 28 f8 3d
       0.18390138 0.08291859 0.27055335 0.12117057

linear_trend.bias f4 [8]
000000 de af 54 bd 09 2b 98 3d 60 d1 96 3a 10 73 01 bd
       -0.051925533 0.07430083 0.001150649 -0.031603873
000010 38 f9 b5 3c 83 c3 d4 3d ac 6c 98 3d 9a c2 02 be
       0.022213563 0.103888534 0.074426025 -0.12769547

linear_season.weight f4 [8, 24]
000000 46 e3 46 3e 95 40 8a bc 07 0c 84 3c b6 7d e4 bd
       0.19422635 -0.016876498 0.016119016 -0.1115679
000010 29 8e 57 3d ea 15 95 bd b1 40 57 bd 89 e2 8f be
       0.05262581 -0.072795704 -0.05255193 -0.2810252
000020 e6 34 27 3e 6c 73 a0 bd 8b a9 00 be ab 27 e8 bd
       0.16328773 -0.07834515 -0.12564676 -0.11335691
000030 1c fb c9 bd ed 70 a5 bd f6 d5 2c be ce 35 be be
       -0.098623484 -0.080781795 -0.16878495 -0.37150425
000040 d8 9d 8c 3e 4b a3 04 3c ff 95 1f bd 38 27 ad bd
       0.27464175 0.008095573 -0.038961407 -0.08454746
000050 d6 86 a2 bd cb 9f 01 be 4a f5 e6 bd 39 34 c7 3d
       -0.07935874 -0.12658612 -0.11277254 0.097267576
000060 54 8f 5d 3e 50 30 41 3e da 04 1a bc 6d e3 8d bd
       0.21636707 0.18866086 -0.009400571 -0.06928144
000070 cb 45 80 bc 0d 65 70 3c bf 92 bf bd 31 dd 54 be
       -0.01565828 0.01467253 -0.093541615 -0.20787503
000080 0c 05 01 3d 69 b4 0f 3e ca da fc bd 64 d4 e4 bd
       0.031498954 0.14033665 -0.12346418 -0.11173323
000090 b9 a2 29 be b9 30 4b bd b5 50 e4 bd 0e ca d6 be
       -0.1656598 -0.049607012 -0.11148206 -0.4195103
0000a0 96 2a 6d bd 5a b3 94 3e fe 9b 07 3e 64 55 25 bd
       -0.05790194 0.29043084 0.132431 -0.040364638
0000b0 df ea 7d bd 94 67 85 bd 71 82 22 be 93 b8 35 bd
       -0.06199157 -0.065138966 -0.15870072 -0.044365477
0000c0 a4 a1 2b 3e 31 cd 99 3c be 1a 3a 3e 29 f8 77 bd
       0.1676088 0.0187746 0.18174264 -0.0605394
0000d0 9d d9 b6 bd 3f 09 27 bd d8 db b5 3b 10 46 3b be
       -0.08928225 -0.040780302 0.005549889 -0.18288445
0000e0 75 09 8a 3b b7 55 31 bd 87 40 05 3e 8e 4c ea bd
       0.004212553 -0.043294635 0.13012896 -0.11440383
0000f0 cf d2 bd bd 71 bb 3c bd f9 92 23 be 02 68 6c be
       -0.09268724 -0.046077196 -0.15974034 -0.23086551
000100 a3 09 0b be ef 07 c9 3c e4 58 db 3e cb 37 f1 3d
       -0.13577895 0.024539916 0.42841256 0.1177822
000110 23 3c c9 3d de 5f dc bd c1 ab fe 3b 4c 67 64 3e
       0.09825923 -0.10760473 0.0077719395 0.2230503
000120 37 84 5a bb 10 5a 6e bc 16 66 b4 bc bd 59 ff 3d
       -0.0033342966 -0.01454784 -0.022021335 0.12468288
000130 7d 9a c5 bd 10 d1 99 bd da b3 a1 bd f3 cc 0c be
       -0.09648607 -0.07510579 -0.07895632 -0.13750057
000140 ed ce 9e bd 63 5b 9a bd ec 42 15 be 52 72 1c 3e
       -0.07754312 -0.07536962 -0.1457631 0.15277985
000150 10 55 16 be 13 51 32 be 7d 16 46 be bc fe 2a be
       -0.14680886 -0.1741374 -0.19344516 -0.16698736
000160 da 4f 2f be fe 55 dc bd 59 67 21 3e ec 52 84 3e
       -0.17120305 -0.10758589 0.1576208 0.25844514
000170 67 d5 52 3e 40 3d 8e 3c 9b 02 ae bd f2 be 19 bd
       0.20589219 0.01736319 -0.08496591 -0.037535615
000180 09 e8 76 bd 34 17 d1 bc c0 82 6e bd 55 f2 a4 bd
       -0.06027988 -0.02552376 -0.05823016 -0.08054034
000190 dc cd 15 3e 58 c7 16 be bb 03 9a bd ce f7 3c be
       0.1462931 -0.14724481 -0.07520243 -0.18453905
0001a0 7b b0 14 bd 9c 27 cf bd 94 1f 33 be 9d fd 8b bd
       -0.036301117 -0.10114977 -0.17492515 -0.06835482
0001b0 4c db d8 3d 06 c9 34 be 6a 5a 43 be 9d d1 77 be
       0.105887026 -0.1765481 -0.19077459 -0.24201055
0001c0 0e 01 e4 bd b5 7e 0d be b7 93 67 3d 52 3f 45 3b
       -0.11133014 -0.13817866 0.056537356 0.0030097556
0001d0 08 54 aa 3e 76 c2 60 3e a4 c8 2f bc 01 28 17 3d
       0.33267236 0.21949181 -0.010728989 0.036903385
0001e0 c9 d6 ee 3d d4 f5 60 bc f2 54 92 bd e0 d2 bc bd
       0.11662061 -0.013730485 -0.07145108 -0.09219909
0001f0 2e ab ac bd 6a a4 bd 3d ac c9 13 be 79 53 2e be
       -0.084310874 0.09259875 -0.144324 -0.1702403
000200 70 3c 06 be 36 11 a0 bd 2e e5 c0 bd 94 d8 0b be
       -0.13108993 -0.07815783 -0.094187126 -0.13656837
000210 a4 48 34 be ab e9 a5 3d 78 c1 22 be 3b 59 9b be
       -0.17605835 0.08101209 -0.15894115 -0.30341515
000220 45 5b 2f be 1b 0f c7 bd dd 47 cd bd 04 54 c2 bd
       -0.1712466 -0.09719678 -0.100234725 -0.09488681
000230 c0 97 ca 3d 2b 49 98 3e db 94 d3 3d 49 ae b9 3d
       0.09892225 0.29743323 0.10331126 0.090664454
000240 af 33 57 3e 16 84 29 39 ea 0e 92 bc 26 eb de bc
       0.2101581 0.00016166302 -0.017829377 -0.027211737
000250 24 a8 da bc 87 98 9c bd 73 9b 2c 3e df 76 3d be
       -0.026691504 -0.0764628 0.16856174 -0.18502377
000260 59 61 b6 bd 64 d3 cf bd 3e 38 70 bd 02 79 c4 bd
       -0.08905286 -0.101477414 -0.058647387 -0.09593393
000270 0d 7e af bd d2 40 3d be 9c d0 e7 3d d6 ae 90 be
       -0.08568964 -0.18481758 0.11319086 -0.2825839
000280 a7 1d 10 be 8d b8 0b be 52 3c 9a 3b a2 d3 0d be
       -0.14073811 -0.1364462 0.004706898 -0.13850263
000290 dd 02 6f bd 92 91 10 3e 04 03 98 3e fa 19 27 3d
       -0.05835234 0.1411803 0.296898 0.040796258
0002a0 16 9f 64 3e 19 ee 8e bc 0d 82 c1 bc 00 92 00 bd
       0.22326311 -0.017447518 -0.023621583 -0.031389236
0002b0 db 18 15 bd 0b e2 65 bd dd a7 74 bd 95 21 81 bd
       -0.036400657 -0.056123774 -0.0597304 -0.063052334
0002c0 09 e9 9c bd db 92 af bd f7 6c cc bd e9 6d b6 bd
       -0.076616354 -0.08572932 -0.09981721 -0.089076824
0002d0 96 9d b5 bd e3 dd db bd 05 e9 e5 bd 41 39 f0 bd
       -0.08867948 -0.10735681 -0.112260856 -0.1172967
0002e0 1f 60 ed bd 49 7f ea bd db 32 e9 bd 61 89 df bd
       -0.11590599 -0.11450059 -0.11386653 -0.10914875
0002f0 d5 e5 d8 bd db 14 cf bd b2 cc c5 bd b6 b6 ce 3e
       -0.10590712 -0.101114 -0.09658183 0.40373772

linear_season.bias f4 [8]
000000 af df 95 3d e9 5c 0a bd 20 08 66 3d 9b 47 ee 3d
       0.07318055 -0.033780012 0.056160092 0.116347514
000010 2f a6 b3 3d d5 51 b8 3c 44 6c 6c 3d 73 24 08 3e
       0.087719314 0.022499958 0.057720438 0.13295154
