model/lstm/lstm_model.pth (torch, 58423 bytes, 7 tensors)

lstm.weight_ih_l0 f4 [128, 5]
-0.14964923 -0.04434311 0.26573664 0.0059739617 0.20484371 0.31275925 0.069460355 0.46666685
-0.31038088 0.1870704 0.3230175 0.0972895 -0.41013554 0.12150538 -0.13039447 0.021273136
0.2962004 -0.14781435 -0.2223237 -0.19004475 -0.3295375 -0.031224217 0.08059956 -0.2966643
-0.40980968 -0.18378241 -0.202416 -0.16471504 0.04133749 -0.13839611 -0.2732778 0.16137108
0.11177065 0.09034667 0.09273292 -0.26959983 -0.07297061 -0.39496472 -0.046998356 0.24896473
-0.21389978 -0.36054525 0.12583427 0.508959 0.5224746 0.15130752 0.38018027 0.26736176
-0.07556315 -0.51319015 -0.29946193 -0.15623546 0.01955227 -0.42060688 0.40831444 0.038823318
0.078979775 0.3362992 -0.12354692 -0.018161975 0.20146455 0.44938654 0.10473707 -0.023056548
0.3658183 -0.24616985 -0.10826313 0.30860004 0.075586826 -0.25969663 0.43424776 -0.14693214
0.0012472781 0.37251475 0.144713 0.049448427 0.22212471 0.15060192 0.32116216 0.15579604
0.4855229 0.32282773 0.33102477 -0.09463639 0.17783214 0.09461349 -0.13168322 -0.12664492
0.0026184248 0.010628127 -0.2063417 0.16277646 -0.04856635 -0.3205543 0.12016976 -0.25671953
0.109224446 -0.27219817 0.057467274 -0.11219113 0.056630366 0.19837818 -0.06362883 0.46152943
-0.12213216 -0.29827645 -0.027193522 -0.2151701 0.08836662 -0.16536064 0.18293807 -0.13054967
0.029334823 -0.22828682 0.16051997 0.31466347 -0.13170667 0.0092124455 -0.15692283 -0.019840226
-0.28527382 -0.40407217 -0.030828597 -0.17506804 0.016363407 -0.075366765 0.4912858 0.05007051
-0.13087079 -0.2801801 0.22662537 -0.38012353 -0.018727288 -0.3495302 -0.6217382 0.020266896
-0.27972695 -0.31165093 -0.124887735 -0.19958538 -0.22181502 0.3146938 0.121591255 0.2891493
0.28869495 0.09791274 0.10353268 0.14835157 0.13257243 0.9014217 0.32325253 -0.18423416
0.009468775 0.07186088 0.13126042 0.002469309 -0.053728584 -0.27497423 0.2266659 -0.902222
0.37116233 0.102612555 0.18673956 0.045291312 0.039457776 -0.5258466 -0.52496135 -0.19036005
0.3188524 -0.18332052 -0.013838765 0.10190535 -0.032631237 0.15524748 0.2308867 -0.10602206
-0.055065863 0.22256212 0.03049076 0.0054571535 0.055475816 0.04968198 0.06885412 0.28108603
-0.027453972 -0.39704698 -0.11147279 0.15511204 0.1829668 -0.14263625 -0.1385407 -0.22165489
-0.13333358 0.1540339 0.006397318 -0.42709514 -0.15051197 -0.16457093 0.1670276 -0.026538065
-0.30349165 0.18821803 0.4939424 -0.32109877 -0.22812533 0.45041132 -0.06307088 -0.03465177
0.07522967 0.050627235 -0.22873403 0.23749264 -0.06575504 -0.20154595 -0.4391519 0.2130437
-0.24443884 -0.2661566 -0.1139493 -0.12648161 -0.05383739 -0.31239808 0.17433147 0.053080663
-0.04965759 0.18454388 0.061767064 0.045263294 -0.0763212 0.014274119 0.21080579 -0.2880074
-0.039467156 0.36705837 -0.06805743 0.25797227 -0.21910979 -0.060558178 -0.16297577 -0.6052951
0.10675319 0.10938365 -0.11076243 -0.5831713 -0.24673639 0.55075234 0.26224867 -0.09145745
-0.17817035 -0.00605692 -0.20912679 -0.20063367 -0.2897649 -0.01663673 0.31617418 -0.06632521
00000000: a63d 19be 1fa1 35bd a20e 883e 39c1 c33b
00000010: 8dc2 513e fb21 a03e 3b41 8e3d f5ee ee3e
00000020: 3eea 9ebe 628f 3f3e 8d62 a53e b83f c73d
00000030: 49fd d1be d0d7 f83d 2186 05be 0045 ae3c
00000040: 94a7 973e a55c 17be d3a8 63be 179b 42be
00000050: 24b9 a8be eec9 ffbc 6211 a53d 62e4 97be
00000060: 93d2 d1be 7531 3cbe 2446 4fbe 0fab 28be
00000070: 8051 293d b6b7 0dbe 11eb 8bbe 763e 253e
00000080: 03e8 e43d ad07 b93d c2ea bd3d fd08 8abe
00000090: 9d71 95bd d138 cabe 5981 40bd 9cf0 7e3e
000000a0: 8b08 5bbe 6399 b8be b3da 003e 234b 023f
000000b0: e5c0 053f 5cf0 1a3e fda6 c23e a4e3 883e
000000c0: dac0 9abd 6e60 03bf 1353 99be 30fc 1fbe
000000d0: 152c a03c c959 d7be 970e d13e 3305 1f3d
000000e0: 26c0 a13d 692f ac3e 2b06 fdbd 6cc8 94bc
000000f0: b94c 4e3e fe15 e63e 6480 d63d 16e1 bcbc
00000100: 894c bb3e f313 7cbe 0fb9 ddbd d300 9e3e
00000110: 44cd 9a3d f5f6 84be b955 de3e 6175 16be
00000120: b57b a33a 41ba be3e a52f 143e 6f8a 4a3d
00000130: a974 633e 6437 1a3e 5e6f a43e ff88 1f3e
00000140: 7596 f83e ad49 a53e 147c a93e b9d0 c1bd
00000150: a119 363e b8c4 c13d f7d7 06be 35af 01be
00000160: e199 2b3b 9821 2e3c 3d4b 53be dfae 263e
00000170: 82ed 46bd b11f a4be 901b f63d be70 83be
00000180: 11b1 df3d 8f5d 8bbe ce62 6b3d 77c4 e5bd
00000190: 3ef5 673d a623 4b3e d54f 82bd 964d ec3e
000001a0: 6d20 fabd b1b7 98be f3c4 debc 8d55 5cbe
000001b0: 8ff9 b43d 4d54 29be 1e54 3b3e d0ae 05be
000001c0: 954f f03c 05c4 69be 595f 243e 921b a13e
000001d0: 1dde 06be ccef 163c 61b0 20be f887 a2bc
000001e0: 690f 92be 8ce2 cebe 418c fcbc 0945 33be
000001f0: 8d0c 863c e459 9abd d089 fb3e bc16 4d3d
00000200: fe02 06be c473 8fbe 7b10 683e 8d9f c2be
00000210: f869 99bc 9ff5 b2be 3c2a 1fbf c306 a63c
00000220: 5f38 8fbe b690 9fbe 24c5 ffbd 1c60 4cbe
00000230: 7a23 63be 8c1f a13e d604 f93d 610b 943e
00000240: d3cf 933e 7a86 c83d f108 d43d 79e9 173e
00000250: 11c1 073e 93c3 663f 5b81 a53e e1a7 3cbe
00000260: ec22 1b3c cc2b 933d 2269 063e 21d4 213b
00000270: 8112 5cbd 6cc9 8cbe 1b1b 683e 05f8 66bf
00000280: fd08 be3e 8826 d23d a838 3f3e 6283 393d
00000290: 7a9e 213d e29d 06bf de63 06bf bfed 42be
000002a0: 9f40 a33e 60b8 3bbe fdbb 62bc c1b3 d03d
000002b0: 55a8 05bd 32f9 1e3e 906d 6c3e 1822 d9bd
000002c0: be8c 61bd 53e7 633e c2c7 f93c ecd1 b23b
000002d0: 9c3a 633d 557f 4b3d 6403 8d3d 82ea 8f3e
000002e0: 27e7 e0bc be49 cbbe d94b e4bd b1d5 1e3e
000002f0: a65b 3b3e 3d0f 12be 9ddd 0dbe 80f9 62be
00000300: 9988 08be 10bb 1d3e 98a0 d13b 37ac dabe
00000310: cf1f 1abe 4885 28be 4809 2b3e 5b66 d9bc
00000320: 4263 9bbe 3abc 403e 05e6 fc3e 0f67 a4be
00000330: b099 69be 509c e63e 4e2b 81bd 04ef 0dbd
00000340: 0312 9a3d 815e 4f3d 4139 6abe 4531 733e
00000350: 94aa 86bd 1062 4ebe 85d8 e0be 2128 5a3e
00000360: 2d4e 7abe ae45 88be 405e e9bd 6584 01be
00000370: 9884 5cbd a4f2 9fbe f383 323e 1c6b 593d
00000380: c265 4bbd 12f9 3c3e 76ff 7c3d 0166 393d
00000390: 4a4e 9cbd ffdd 693c 79dd 573e b575 93be
000003a0: 50a8 21bd 13ef bb3e b261 8bbd f114 843e
000003b0: 515e 60be da0b 78bd 1fe3 26be 9ff4 1abf
000003c0: 6ba1 da3d 8904 e03d 6ad7 e2bd b74a 15bf
000003d0: 77a8 7cbe 1bfe 0c3f 7545 863e 0b4e bbbd
000003e0: 4a72 36be 2179 c6bb 5525 56be ea72 4dbe
000003f0: 115c 94be c049 88bc 95e1 a13e 83d5 87bd

lstm.weight_hh_l0 f4 [128, 32]
-1.2484224 0.2752383 0.9973933 0.24783427 0.17465428 0.13851532 0.69663346 0.43061867
-0.14400539 0.3256609 0.16272838 -0.36799282 -0.39316747 -1.5220366 -0.85844463 0.3113798
-0.20115095 -0.037147686 0.70694774 1.1980654 0.83042663 1.2466301 -0.093458414 -0.74417484
0.011330136 -0.78033376 -0.7943746 -0.18986979 -0.11287527 -0.40112054 -0.32561818 0.434536
-0.46817642 0.22709104 -0.35135648 -0.55286324 -0.15558574 -0.1189771 0.08283755 -0.048658557
0.1261109 0.048475374 -0.27040437 -0.0057387757 0.34188557 -0.13162343 0.17840563 0.26819432
0.9529491 -0.3568727 -0.18759635 -0.0914915 0.32093364 0.2509024 0.70664245 0.27855158
0.13537061 -0.23894763 0.7025857 -0.27114117 -0.24217324 -0.17162926 -0.030024953 -0.02835191
-0.40277046 -0.051874287 -0.06295341 -0.605764 -0.523799 0.47545394 -0.3427116 0.23340932
0.045528304 0.82962126 0.41620073 0.033502713 -0.28934488 -0.1865552 -0.0075974925 0.23344181
-0.31534845 0.10450136 0.3163116 -0.09283738 -0.38246194 0.006558419 0.083765775 0.060245946
0.4990637 -0.4937952 -0.12958987 -0.48139966 0.55406386 -0.3862134 0.2842447 0.17601275
-0.83748746 0.22955595 -0.016629469 -0.19806243 -0.029099636 0.76188284 0.106101945 -0.16938104
-0.49565446 -0.13812104 -0.2188343 0.21920547 -0.16093318 -0.19937088 0.21652883 0.1850805
-0.08484929 -0.15182316 0.30426493 -0.20242506 -0.45304522 0.2910217 0.068859704 -0.03290238
0.22792658 -0.084458515 -0.47823542 -0.13088356 -0.24915625 -0.20878853 -0.034937575 0.37778994
-1.372747 0.75993645 0.23783804 0.3687708 0.32709143 0.3349586 0.903642 0.16648045
-0.03776954 -0.3273424 0.31011128 -0.093801856 -0.39676112 -0.3693957 -0.19359785 0.17351633
-0.6661283 0.38225752 0.8497474 0.45668498 0.15744314 0.28116313 -0.70662713 -0.7605454
0.17437503 -0.21482241 -0.2743962 -0.2088738 -0.57224643 0.04788294 0.7207723 0.3794871
1.085646 0.48476303 0.16833918 0.65499574 1.1237029 0.43647814 -0.28866535 -0.2844168
-0.42822596 -0.2639725 0.27510014 -0.034117725 -0.1696248 0.22114696 0.42523083 0.075811476
-0.52938914 0.13988619 0.37126452 -0.5404782 -0.3120794 -0.35913676 -0.4585656 -0.6303528
-0.3788858 -0.11027427 -0.02681002 -0.7342485 -0.048536003 -0.06481747 0.3826042 -0.010895074
0.07913185 -0.28483388 0.23062694 0.21110782 0.6446808 0.2693439 -0.20984973 0.37939262
0.03505908 -0.20575939 0.23677471 -0.25999638 -0.09338611 -0.15808944 0.06928532 0.3808484
-0.2519806 -0.12596619 0.57553476 -0.17978111 0.60727316 0.058404777 -0.2767405 -0.082986295
-0.7037894 -0.016182508 -0.08153452 -0.19664115 0.1413667 -0.4618018 -0.0019000717 0.36207595
-0.18377085 -0.21821441 -0.14847764 -0.10088761 0.13134927 -0.018355897 -0.3490075 -0.22158074
-0.346329 0.1493927 -0.2599019 0.16479225 -0.20888877 0.2060391 -0.22407208 0.04961845
-0.12732896 -0.07263924 -0.019277511 -0.10002041 -0.24354398 -0.09703724 -0.033589512 0.0846818
-0.099064685 0.056114186 0.005720605 -0.18063858 0.38209713 -0.2913589 -0.1802374 0.039988395
00000000: 4ecc 9fbf 09ec 8c3e 2b55 7f3f 44c8 7d3e
00000010: 92d8 323e f6d6 0d3e 9256 323f 0d7a dc3e
00000020: 2676 13be 07bd a63e 45a2 263e 8e69 bcbe
00000030: 3f4d c9be 18d2 c2bf 07c3 5bbf 2c6d 9f3e
00000040: 84fa 4dbe 2c28 18bd 87fa 343f 355a 993f
00000050: d796 543f 9391 9f3f 2067 bfbd 3e82 3ebf
00000060: 09a2 393c f4c3 47bf 225c 4bbf 3a6d 42be
00000070: 262b e7bd ac5f cdbe 6db7 a6be 817b de3e
00000080: d2b4 efbe 8e8a 683e ffe4 b3be 7288 0dbf
00000090: de51 1fbe 44aa f3bd bca6 a93d 324e 47bd
000000a0: 3723 013e 1d8e 463d 7172 8abe 570c bcbb
000000b0: a00b af3e 4bc8 06be f7af 363e c450 893e
000000c0: 79f4 733f 05b8 b6be 4219 40be e55f bbbd
000000d0: 6a51 a43e 4876 803e 85e6 343f 509e 8e3e
000000e0: 989e 0a3e b0ae 74be a8dc 333f 04d3 8abe
000000f0: 43fc 77be 95bf 2fbe e4f6 f5bc 4442 e8bc
00000100: ee37 cebe 227a 54bd b8ed 80bd 5913 1bbf
00000110: b117 06bf b36e f33e e577 afbe da02 6f3e
00000120: e37b 3a3d 0f62 543f 4318 d53e 243a 093d
00000130: 0325 94be 5408 3fbe 63f4 f8bb 5f0b 6f3e
00000140: 5a75 a1be cf04 d63d 98f3 a13e 8621 bebd
00000150: 0dd2 c3be 02e8 d63b 648d ab3d 74c4 763d
00000160: 4785 ff3e b9d2 fcbe 35b3 04be 047a f6be
00000170: 21d7 0d3f c3bd c5be 8588 913e b03c 343e
00000180: 9465 56bf b710 6b3e 863a 88bc e1d0 4abe
00000190: 5c62 eebc c10a 433f fa4b d93d 3972 2dbe
000001a0: 6cc6 fdbe 9a6f 0dbe 1916 60be 6677 603e
000001b0: abcb 24be e127 4cbe bcb9 5d3e be85 3d3e
000001c0: 77c5 adbd 8877 1bbe 9dc8 9b3e 8448 4fbe
000001d0: 8bf5 e7be cc00 953e 5106 8d3d a5c4 06bd
000001e0: 9665 693e 96f8 acbd 46db f4be 5706 06be
000001f0: d122 7fbe a9cc 55be b41a 0fbd af6d c13e
00000200: 2cb6 afbf 328b 423f d18b 733e 87cf bc3e
00000210: 8778 a73e b27f ab3e 1555 673f da79 2a3e
00000220: 3cb4 1abd 6c99 a7be e8c6 9e3e 301b c0bd
00000230: 4624 cbbe 6f21 bdbe 843e 46be 44ae 313e
00000240: 6287 2abf 42b7 c33e 0c89 593f 9dd2 e93e
00000250: c638 213e 9df4 8f3e 84e5 34bf 1ab3 42bf
00000260: 5e8f 323e 68fa 5bbe a97d 8cbe 03e3 55be
00000270: be7e 12bf e720 443d 8984 383f 224c c23e
00000280: 73f6 8a3f dc32 f83e 1b61 2c3e cdad 273f
00000290: 7fd5 8f3f 107a df3e f2cb 93be 149f 91be
000002a0: 6f40 dbbe 6727 87be edd9 8c3e 07bf 0bbd
000002b0: 20b2 2dbe 5974 623e dbb7 d93e 0c43 9b3d
000002c0: 0c86 07bf 533e 0f3e 6216 be3e c85c 0abf
000002d0: dfc8 9fbe c6e0 b7be 1cc9 eabe cd5e 21bf
000002e0: 52fd c1be 7ad7 e1bd b0a0 dbbc b6f7 3bbf
000002f0: b0cd 46bd 06bf 84bd b3e4 c33e 4181 32bc
00000300: e10f a23d bfd5 91be 7829 6c3e a62c 583e
00000310: cd09 253f 72e7 893e d9e2 56be c03f c23e
00000320: 1c9a 0f3d 97b2 52be 1275 723e 3f1e 85be
00000330: 3841 bfbd 33e2 21be 76e5 8d3d 90fe c23e
00000340: 9a03 81be 48fd 00be 3f56 133f 8a18 38be
00000350: 4176 1b3f d939 6f3d eeb0 8dbe b8f4 a9bd
00000360: 8b2b 34bf 2e91 84bc 92fb a6bd 4c5c 49be
00000370: 6fc2 103e 4971 ecbe d40b f9ba 0562 b93e
00000380: 6d2e 3cbe 9973 5fbe 860a 18be 2a9e cebd
00000390: 6c80 063e 1b5f 96bc 1cb1 b2be 10e6 62be
000003a0: 0952 b1be 66fa 183e dd11 85be 4dbf 283e
000003b0: f0e6 55be eafb 523e 2773 65be b73c 4b3d
000003c0: 8662 02be e2c3 94bd dfeb 9dbc 80d7 ccbd
000003d0: 9863 79be 76bb c6bd 2895 09bd a76d ad3d
000003e0: 6de2 cabd fdd7 653d ea73 bb3b 52f9 38be
000003f0: 3ca2 c33e fe2c 95be 2790 38be dfca 233d

lstm.bias_ih_l0 f4 [128]
0.61153615 -0.1588459 -0.2975098 -0.26488203 0.15633917 0.16570628 -0.10353246 -0.17249227
-0.026387177 -0.13510406 -0.051491834 -0.21131667 -0.16490933 -0.04554244 0.23973109 -0.03851366
0.06167062 -0.005515735 0.2611087 -0.07049408 0.14527106 0.10595054 0.32805577 0.004226999
-0.029618425 -0.17858061 -0.11313118 0.4934148 -0.26659322 -0.04281134 0.08314141 -0.18741956
-0.33666357 0.17961106 0.027347663 -0.029425701 0.046902772 -0.27412623 -0.045141008 0.07491686
-0.2319839 0.13716808 0.20385066 0.11263705 0.23094477 -0.057451103 -0.14913052 0.31575635
0.027899792 0.31242085 -0.15467498 0.2601165 -0.35466066 -0.14581902 -0.07388814 0.049370922
0.020915478 0.10984591 0.19811529 -0.103256285 -0.052017156 0.12676041 -0.4842079 0.0071429433
0.20501173 0.13904087 0.23747629 0.09873941 -0.05594719 -0.24126004 0.045633327 -0.017306305
0.088680804 -0.03608538 -0.030299887 -0.1418424 0.1271938 0.116633214 0.04698112 0.016794864
0.0841559 0.11135766 -0.13818467 -0.06383426 -0.0056235516 0.11041363 0.24106173 0.2265644
0.13748528 -0.09143354 0.24243404 0.008425902 -0.07576548 0.15068227 -0.040168345 0.09067618
0.8400675 0.014466917 -0.1268684 -0.09225493 0.09200526 0.0095644295 -0.27509052 -0.35776854
-0.014486414 -0.26586688 0.07660488 0.08757241 -0.2479969 -0.26569983 0.19774184 -0.059851844
0.24676304 -0.12768039 0.34325215 0.15521464 -0.03366013 0.026099555 0.2815297 0.18548746
-0.10021954 -0.12314561 0.09722688 0.19333614 -0.124166094 -0.26576382 0.108686864 -0.19108252
00000000: a28d 1c3f 80a8 22be 3453 98be 9e9e 87be
00000010: 6017 203e e8ae 293e d408 d4bd d0a1 30be
00000020: ec29 d8bc b858 0abe 1ae9 52bd 6663 58be
00000030: fedd 28be b68a 3abd 117c 753e 80c0 1dbd
00000040: 559a 7c3d 57bd b4bb 0ab0 853e 335f 90bd
00000050: f0c1 143e 99fc d83d edf6 a73e a382 8a3b
00000060: 57a2 f2bc d6dd 36be 52b1 e7bd dda0 fc3e
00000070: e87e 88be f25a 2fbd 0b46 aa3d eaea 3fbe
00000080: 2b5f acbe f6eb 373e 3508 e03c 2b0e f1bc
00000090: 1f1d 403d 465a 8cbe c7e5 38bd 036e 993d
000000a0: 308d 6dbe ca75 0c3e 3abe 503e 41ae e63d
000000b0: c97c 6c3e d951 6bbd acb5 18be d1aa a13e
000000c0: 1b8e e43c a0f5 9f3e 1e63 1ebe fd2d 853e
000000d0: 1596 b5be 9551 15be aa52 97bd 2a39 4a3d
000000e0: f056 ab3c e4f6 e03d bcde 4a3e 0878 d3bd
000000f0: f10f 55bd 7bcd 013e 19ea f7be 5a0f ea3b
00000100: 98ee 513e bb60 0e3e fc2c 733e e337 ca3d
00000110: e128 65bd df0c 77be 03ea 3a3d f4c5 8dbc
00000120: 489e b53d 43ce 13bd 7837 f8bc 223f 11be
00000130: 173f 023e 65dd ee3d 466f 403d 6295 893c
00000140: ee59 ac3d 7c0f e43d 4880 0dbe 89bb 82bd
00000150: c545 b8bb 8b20 e23d e3d8 763e 8000 683e
00000160: f1c8 0c3e 8241 bbbd a140 783e cb0c 0a3c
00000170: ef2a 9bbd 744c 1a3e 9087 24bd 6fb4 b93d
00000180: aa0e 573f a606 6d3c cae9 01be 27f0 bcbd
00000190: 416d bc3d 20b4 1c3c aad8 8cbe 702d b7be
000001a0: 6d58 6dbc b41f 88be 05e3 9c3d 2a59 b33d
000001b0: e6f2 7dbe cf09 88be d67c 4a3e 3527 75bd
000001c0: 73af 7c3e a6be 02be bfbe af3e 96f0 1e3e
000001d0: 34df 09bd bcce d53c a924 903e 6df0 3d3e
000001e0: e73f cdbd c433 fcbd e31e c73d e9f9 453e
000001f0: cb4a febd 3212 88be 3897 de3d 23ab 43be

lstm.bias_hh_l0 f4 [128]
0.6776327 -0.03671871 -0.10799981 0.008358737 0.27668464 0.15465984 -0.23205633 -0.2300598
-0.28106782 -0.22663245 -0.07524534 -0.07392255 -0.4099927 -0.21314536 0.47398314 -0.12285893
-0.0019965072 0.09156323 0.18312089 -0.012390408 -0.007902379 0.12021827 0.19693531 0.058009863
0.04385475 -0.098544516 -0.040532205 0.3634567 -0.4412183 -0.26872241 0.16737248 -0.19602191
-0.6147134 0.1814946 -0.005756141 0.07909316 0.1955381 -0.27224153 0.0794852 -0.03040705
-0.22156668 -0.10267369 0.258464 0.11125888 0.08001956 -0.23301151 0.079083726 0.110388905
-0.020889381 0.26243395 -0.24267623 0.08835399 -0.13674794 0.093230024 0.21521784 0.017427118
0.10549922 -0.07794905 0.35082632 -0.23301083 -0.121796936 0.029066596 -0.35343894 -0.08898462
0.0406641 0.008921932 -0.10687178 -0.13107736 0.056926582 -0.114691064 0.038763374 -0.08693568
0.013023041 -0.078742094 0.02957095 0.063156836 -0.13925943 -0.12508082 0.11450133 -0.110642046
0.086061284 0.120852455 0.036993198 0.070627876 -0.02312647 0.051349644 0.045617886 -0.027310694
-0.009677272 -0.14940235 -0.004235582 0.09777686 -0.08321934 0.076703064 -0.049683586 -0.05135362
0.6826558 -0.20186542 -0.24850395 0.04160286 0.16588065 -0.10703321 -0.23862572 -0.18226118
0.040324762 -0.087583825 -0.101286575 -0.23340262 -0.045757 -0.043447345 0.46644285 0.007007353
0.20856576 -0.11036379 0.344552 0.1696128 0.18234049 0.028116561 0.09146789 0.12334605
0.12604061 -0.0683506 0.04832235 0.12978666 -0.18577108 -0.1176784 0.17943014 0.06926586
00000000: 5679 2d3f 5c66 16bd 012f ddbd 16f3 083c
00000010: 9ca9 8d3e 265f 1e3e 2da0 6dbe cc94 6bbe
00000020: 1fe8 8fbe 5612 68be 3b1a 9abd b564 97bd
00000030: 90ea d1be c742 5abe ebad f23e 769d fbbd
00000040: d5d7 02bb 8185 bb3d 0b84 3b3e 2301 4bbc
00000050: fb78 01bc ff34 f63d 69a9 493e c09b 6d3d
00000060: 0aa1 333d b5d1 c9bd 1905 26bd ff16 ba3e
00000070: 5de7 e1be fc95 89be b163 2b3e f8b9 48be
00000080: db5d 1dbf b8d9 393e 039e bcbb 98fb a13d
00000090: 243b 483e 3e63 8bbe 23c9 a23d 3518 f9bc
000000a0: 60e2 62be 9546 d2bd 6555 843e b2db e33d
000000b0: 4ce1 a33d 929a 6ebe a6f6 a13d 9413 e23d
000000c0: 3520 abbc be5d 863e 1e80 78be f0f2 b43d
000000d0: a707 0cbe 62ef be3d 1162 5c3e 51c3 8e3c
000000e0: fa0f d83d c0a3 9fbd 829f b33e 649a 6ebe
000000f0: ac70 f9bd 121d ee3c f3f5 b4be 923d b6bd
00000100: 668f 263d 4c2d 123c 97df dabd 2539 06be
00000110: d92b 693d 26e3 eabd 58c6 1e3d 550b b2bd
00000120: 985e 553c 8943 a1bd c73e f23c 5f58 813d
00000130: 069a 0ebe 3015 00be ac7f ea3d 4c98 e2bd
00000140: e640 b03d 7e81 f73d 2e86 173d 59a5 903d
00000150: b973 bdbc 0154 523d d2d9 3a3d adba dfbc
00000160: 6c8d 1ebc eefc 18be a3ca 8abb 3c3f c83d
00000170: e76e aabd 7f16 9d3d 0481 4bbd 2c58 52bd
00000180: 88c2 2e3f cfb5 4ebe d277 7ebe c367 2a3d
00000190: 9edc 293e 3a34 dbbd 4d5a 74be ada2 3abe
000001a0: 942b 253d 265f b3bd 566f cfbd 1901 6fbe
000001b0: b16b 3bbd d8f5 31bd 99d1 ee3e f09d e53b
000001c0: 4392 553e 6906 e2bd 1f69 b03e faae 2d3e
000001d0: 77b7 3a3e b454 e63c 8453 bb3d db9c fc3d
000001e0: ca10 013e 66fb 8bbd a8ed 453d cbe6 043e
000001f0: c63a 3ebe 5f01 f1bd 89bc 373e 42db 8d3d

fc1.weight f4 [256, 32]
0.0675055 -0.028809393 0.2911866 0.11536957 0.08059273 -0.37276432 -0.049644485 0.24462765
0.17514665 0.07048926 0.3072934 -0.043365654 -0.09537236 -0.17889713 -0.13526326 -0.13294925
0.2090362 0.06728606 0.057713427 0.18186231 0.16582221 0.25379032 0.1811194 -0.007647138
-0.15765081 -0.31019023 0.27556384 0.08148374 -0.071001776 -0.17256069 0.030827997 -0.115798816
-0.32622635 -0.024859669 0.0694545 -0.05367516 0.1047905 0.015574688 0.22806315 0.14489336
0.06384835 -0.13707152 -0.23277102 -0.14617637 0.19869211 -0.03501823 0.4322161 0.20213346
0.3535742 0.042204954 0.1786157 -0.10714835 0.24388678 0.21079198 0.09734664 -0.07852248
0.21079442 -0.20407519 -0.2530271 -0.832732 0.03758011 0.0077006076 0.08765772 -0.07982968
0.17325369 -0.4182474 -0.008193733 -0.059724428 -0.2482508 -0.14715235 -0.11867609 0.15868606
-0.21674095 0.0074923127 0.3286814 -0.13635528 0.09687613 0.17042772 -0.24225447 0.19276766
-0.25357002 0.3100729 0.008641115 0.27700838 0.08879782 0.07664971 -0.062971056 -0.1686968
-0.33492187 -0.1293264 0.20908268 -0.04175517 -0.13643537 -0.23536602 -0.13274467 0.031478684
-0.43120578 -0.01268904 0.32792872 -0.08764967 -0.084176004 0.035676416 0.13380547 0.10394226
0.23470894 0.15358178 0.0068367124 -0.093239255 -0.07894611 0.009302467 0.32269195 0.18854816
0.146736 0.046879575 0.47994035 -0.24950047 0.045585573 0.23389837 0.25807825 0.0035128915
0.27815032 -0.32257405 -0.010032767 -0.7951566 0.0034550196 -0.18909591 0.123870395 0.010845475
0.118339315 -0.17347655 0.22613749 0.010982732 -0.039505884 -0.15493788 0.28544125 -0.006715475
-0.11753931 -0.24649745 -0.059266515 0.01686541 0.16737469 -0.13619067 -0.04675852 0.118574545
0.041894335 0.13346644 0.039395086 0.072123595 0.07602741 0.14419064 -0.09949024 -0.04356872
0.03490435 -0.25488654 0.06011903 0.055037443 -0.20030318 -0.0042884485 -0.09625465 -0.069917545
0.21310462 0.113026194 0.33364296 0.065822735 0.13479927 0.15339185 0.20583762 0.17742187
0.037759807 0.021565897 0.119639754 -0.15333071 0.10171176 -0.10333659 0.07324251 -0.02629657
0.34448865 0.12327442 -0.24123524 0.20042326 0.1544119 0.27344537 -0.06676999 -0.11873212
-0.11050889 -0.08031764 0.13191296 0.18186288 -0.13316795 -0.05952358 -0.063341424 -0.18776587
-0.06945143 0.13458835 -0.058153357 0.12183354 0.05399714 0.08861811 -0.09899699 -0.025673706
0.123815745 0.0036735504 0.016958142 -0.04608853 0.08099019 0.07538016 -0.015712904 -0.29974616
0.12145689 -0.13907555 -0.06053657 -0.20269391 -0.26597372 -0.22085105 -0.0031444647 0.111504495
0.014406322 0.06918372 -0.023163907 0.004136652 0.0034530382 0.13579284 -0.07127867 -0.113278314
-0.015370635 -0.11577866 -0.27046528 0.08508332 0.07604568 0.15747374 -0.22768936 -0.1807039
0.18496057 0.16083801 0.15244912 0.088122755 0.021070434 -0.11756145 0.036776833 0.024862982
-0.16837145 0.28301474 0.335263 -0.23661274 0.4029644 -0.046957366 -0.12460457 -0.21455435
0.45359483 -0.09389777 0.2807777 -0.90231574 0.30054086 -0.23932663 -0.0862902 -0.1936623
00000000: 5340 8a3d ad01 ecbc 6916 953e e246 ec3d
00000010: cd0d a53d f7da bebe 0458 4bbd ac7f 7a3e
00000020: a559 333e ac5c 903d 8f55 9d3e 2fa0 31bd
00000030: 9552 c3bd cf30 37be 7482 0abe d923 08be
00000040: 960d 563e 46cd 893d ea64 6c3d 1d3a 3a3e
00000050: 4ccd 293e cef0 813e 5d77 393e d894 fabb
00000060: 376f 21be 41d1 9ebe b416 8d3e f2e0 a63d
00000070: 6169 91bd c0b3 30be ff8a fc3c ee27 edbd
00000080: 2407 a7be 81a6 cbbc 293e 8e3d 7cda 5bbd
00000090: 679c d63d fa2c 7f3c 6389 693e ed5e 143e
000000a0: ecc2 823d 7a5c 0cbe 875b 6ebe 42af 15be
000000b0: f275 4b3e 476f 0fbd 6e4b dd3e 13fc 4e3e
000000c0: ad07 b53e 1adf 2c3d 09e7 363e 9870 dbbd
000000d0: 75bd 793e dad9 573e ad5d c73d 65d0 a0bd
000000e0: 7eda 573e 16f9 50be c58c 81be ed2d 55bf
000000f0: 9aed 193d 6155 fc3b e485 b33d be7d a3bd
00000100: 6a69 313e 8624 d6be 023f 06bc 9aa1 74bd
00000110: 7535 7ebe 1baf 16be 730c f3bd 997e 223e
00000120: 57f1 5dbe 1382 f53b ee48 a83e b8a0 0bbe
00000130: fe66 c63d 9b84 2e3e 8e11 78be e364 453e
00000140: eed3 81be e0c1 9e3e 7793 0d3c 0bd4 8d3e
00000150: a2db b53d 86fa 9c3d f8f6 80bd dbbe 2cbe
00000160: e17a abbe 246e 04be c519 563e 7807 2bbd
00000170: b7b5 0bbe ca03 71be 38ee 07be cbef 003d
00000180: 01c7 dcbe b1e5 4fbc 46e6 a73e ac81 b3bd
00000190: 7864 acbd 6f21 123d 4d04 093e aedf d43d
000001a0: 8a57 703e 8b44 1d3e 8006 e03b 39f4 bebd
000001b0: 80ae a1bd 6069 183c e137 a53e c512 413e
000001c0: f641 163e cc04 403d beba f53e 0d7d 7fbe
000001d0: f0b7 3a3d 0e83 6f3e d522 843e 8a38 663b
000001e0: b869 8e3e 6d28 a5be 7a60 24bc 628f 4bbf
000001f0: 9c6d 623b 5ca2 41be c3af fd3d 38b1 313c
00000200: e25b f23d d6a3 31be 9690 673e ebf0 333c
00000210: ecd0 21bd 09a8 1ebe 5b25 923e 7d0d dcbb
00000220: 73b8 f0bd d469 7cbe 72c1 72bd 5429 8a3c
00000230: 4564 2b3e 9175 0bbe dd85 3fbd 36d7 f23d
00000240: 6599 2b3d 6dab 083e be5c 213d 89b5 933d
00000250: 42b4 9b3d b6a6 133e 8ac1 cbbd 1d75 32bd
00000260: ddf7 0e3d 7d80 82be 5f3f 763d f16e 613d
00000270: 471c 4dbe 1d86 8cbb 2821 c5bd ee30 8fbd
00000280: 1938 5a3e 477a e73d 40d3 aa3e 12ce 863d
00000290: d208 0a3e c112 1d3e 19c7 523e 14ae 353e
000002a0: 07aa 1a3d f7aa b03c b005 f53d ba02 1dbe
000002b0: 414e d03d 22a2 d3bd 2b00 963d e86b d7bc
000002c0: d160 b03e 4d77 fc3d 5f06 77be c13b 4d3e
000002d0: 271e 1e3e 0801 8c3e b4be 88bd d329 f3bd
000002e0: 7c52 e2bd 937d a4bd 3114 073e 433a 3a3e
000002f0: 2e5d 08be ffce 73bd 26b9 81bd b245 40be
00000300: 8d3c 8ebd 87d1 093e 3732 6ebd dd83 f93d
00000310: 1b2c 5d3d 697d b53d efbe cabd aa51 d2bc
00000320: 1c93 fd3d f3bf 703b cdeb 8a3c 54c7 3cbd
00000330: 2fde a53d ea60 9a3d 59b8 80bc 5478 99be
00000340: 64be f83d d269 0ebe 32f5 77bd fe8e 4fbe
00000350: b52d 88be c726 62be 5d13 4ebb 785c e43d
00000360: 7e08 6c3c 32b0 8d3d 3cc2 bdbc c18c 873b
00000370: 5e4c 623b 470d 0b3e 8dfa 91bd 76fe e7bd
00000380: 1ed5 7bbc 5d1d edbd 6d7a 8abe 2a40 ae3d
00000390: d6bd 9b3d cc40 213e 6627 69be 710a 39be
000003a0: 4e66 3d3e b8b2 243e 9f1b 1c3e b479 b43d
000003b0: e79b ac3c 0fc4 f0bd 4ea3 163d 74ad cb3c
000003c0: 9169 2cbe 4fe7 903e 98a7 ab3e 9c4a 72be
000003d0: 5a51 ce3e 5e56 40bd ae30 ffbd 23b4 5bbe
000003e0: 953d e83e 794d c0bd 18c2 8f3e 2afe 66bf
000003f0: 7ee0 993e 0a12 75be ebb8 b0bd 694f 46be

fc1.bias f4 [256]
-0.10429539 -0.22472775 -0.21945971 -0.20428924 0.02467 -0.08570111 0.01459546 -0.19412939
-0.20767269 -0.2682444 -0.18072748 0.0014058622 0.025664773 -0.3200927 0.010613723 0.09486031
0.02673452 -0.01263345 -0.022750419 -0.21106021 -0.12540263 -0.07976403 -0.20385402 0.003409844
-0.0881476 0.0055769947 -0.2893252 -0.26273525 0.029902784 0.007415261 -0.27090046 -0.16382118
0.018648878 -0.00028917033 -0.040580932 0.044920143 -0.22559193 -0.02755218 -0.2130758 -0.21008132
0.073816426 -0.09716011 -0.16405767 0.07241482 -0.23585023 -0.23945834 0.05620678 0.041898508
-0.004124677 0.0051689553 -0.17000878 0.036274925 0.045045275 -0.014076016 -0.24020967 0.0007969605
-0.028385395 -0.037113782 -0.0042648106 0.061544437 -0.149655 -0.09690963 0.057781883 -0.097976394
-0.0670985 -0.027027879 -0.22424047 -0.049547408 -0.2590548 0.06316157 -0.18467888 -0.07296877
0.005950962 -0.034572344 -0.27524137 0.078655355 0.020161659 -0.034476284 0.044665318 0.098205976
0.09388222 -0.06174984 0.060629923 -0.07013832 0.04198754 -0.019468494 -0.21278164 -0.18409188
-0.19262627 0.041692104 0.0034198891 -0.047114506 -0.017412685 -0.0035726211 -0.010059919 -0.05206209
0.058539096 -0.22641844 0.011209709 0.051638633 -0.12441216 -0.0067261686 -0.23790966 0.044095196
0.03024012 -0.0897627 0.042538952 0.098201 -0.20384176 -0.05466724 0.021794671 0.07125818
0.04732306 0.020406391 0.043267388 -0.25415063 -0.079252146 -0.34532633 0.07237787 -0.12703995
-0.097113885 -0.09882008 0.08553762 0.038876228 0.0596585 0.038845308 0.077350184 -0.07356361
-0.016111737 -0.17590396 -0.27758953 0.046364836 -0.19174826 -0.004895758 -0.0006186681 0.08949225
0.054699015 0.030959342 -0.023173686 0.07418274 0.061045058 0.040211957 0.0458486 -0.1075679
0.047487717 -0.047806744 -0.066244125 -0.26352742 -0.33135357 0.030637939 -0.18099685 -0.21830495
0.049299996 -0.1771666 -0.049674008 0.031486165 -0.30666578 -0.17071472 0.016311446 0.048870217
-0.23230657 -0.039012697 -0.12338512 -0.27125713 0.054474298 -0.32122535 -0.25364116 0.017830621
-0.1043352 0.011291463 0.005774193 0.0765512 0.12280568 0.07479971 -0.26568586 0.008876018
-0.078383654 0.028817168 -0.006799611 0.029567365 -0.042822883 -0.08812961 -0.14958598 -0.030407771
0.068547584 0.08306523 0.033401567 0.05176267 -0.12895657 -0.078350104 0.11259389 -0.044110678
-0.09200774 0.070525736 -0.2119944 -0.22328015 -0.11516205 -0.20573781 0.05960685 -0.074329965
0.04788327 0.08159022 -0.20563124 -0.009565136 0.03854962 0.037102565 -0.31233215 -0.013562839
-0.08963539 -0.018253725 0.1071761 -0.22440222 -0.06727132 -0.007868902 0.050776396 -0.06572455
-0.037971247 -0.14361 -0.0058315895 0.014515582 -0.12325415 0.02784588 0.042024422 -0.1449782
-0.22892529 -0.13556698 -0.034080118 -0.29624727 0.04488563 0.07392255 -0.21596703 0.058757246
-0.05349801 -0.043922797 0.010510658 0.083980784 -0.014372888 -0.13114046 0.0055754427 -0.052124154
-0.23655698 0.04082926 -0.009429412 -0.28599784 0.11070855 -0.09015314 -0.02610014 0.056103684
0.005393659 0.042372815 -0.012159299 -0.20634721 -0.33689615 -0.39456344 -0.24151118 -0.13740969
00000000: d298 d5bd 081f 66be 0cba 60be 3331 51be
00000010: bd18 ca3c 1084 afbd cc21 6f3c dbc9 46be
00000020: 26a8 54be 5457 89be a010 39be e844 b83a
00000030: ee3e d23c 31e3 a3be 2ee5 2d3c 1f46 c23d
00000040: 5a02 db3c 88fc 4ebc 165f babc 2b20 58be
00000050: 8c69 00be 535b a3bd 1cbf 50be b077 5f3b
00000060: bb86 b4bd 39bf b63b 6f22 94be 3c85 86be
00000070: aff6 f43c b8fb f23b 77b3 8abe bdc0 27be
00000080: 88c5 983c c99b 97b9 3138 26bd 2ffe 373d
00000090: 9201 67be 1cb5 e1bc 8b30 5abe 8f1f 57be
000000a0: 112d 973d e1fb c6bd bcfe 27be 394e 943d
000000b0: b982 71be 9134 75be 1539 663d c59d 2b3d
000000c0: 4c28 87bb 5760 a93b c816 2ebe 0495 143d
000000d0: 6581 383d 179f 66bc 86f9 75be 1deb 503a
000000e0: 7d88 e8bc 9f04 18bd d3bf 8bbb 0516 7c3d
000000f0: 293f 19be 8e78 c6bd b2ac 6c3d d9a7 c8bd
00000100: f06a 89bd 9269 ddbc 4b9f 65be 39f2 4abd
00000110: d5a2 84be da5a 813d 761c 3dbe a770 95bd
00000120: 4a00 c33b bb9b 0dbd 70ec 8cbe 0f16 a13d
00000130: 102a a53c 0137 0dbd fbf2 363d 3720 c93d
00000140: 5245 c03d 66ed 7cbd 1557 783d aea4 8fbd
00000150: 20fb 2b3d 647c 9fbc 6ee3 59be 9582 3cbe
00000160: d23f 45be 57c5 2a3d 3820 603b 24fb 40bd
00000170: 0ca5 8ebc a322 6abb 5cd2 24bc 0f3f 55bd
00000180: b1c6 6f3d 3cda 67be eda8 373c 0883 533d
00000190: cdcb febd 3167 dcbb 979e 73be 2a9d 343d
000001a0: 21ba f73c 82d5 b7bd 533d 2e3d 9b1d c93d
000001b0: e5bb 50be c1ea 5fbd bd8a b23c cfef 913d
000001c0: d3d5 413d 4e2b a73c 2539 313d 0820 82be
000001d0: f34e a2bd 9dce b0be d93a 943d c316 02be
000001e0: a5e3 c6bd 2f62 cabd 592e af3d ae3c 1f3d
000001f0: 795c 743d 421c 1f3d c669 9e3d 85a8 96bd
00000200: c3fc 83bc 2b20 34be 3720 8ebe 0ee9 3d3d
00000210: a859 44be 986c a0bb 1d2e 22ba b647 b73d
00000220: 130c 603d 729e fd3c bed6 bdbc 1fed 973d
00000230: 620a 7a3d 4bb5 243d becb 3b3d 8f4c dcbd
00000240: 7b82 423d 01d1 43bd 00ab 87bd 11ed 86be
00000250: 2da7 a9be 6afc fa3c 3d57 39be 558b 5fbe
00000260: cbee 493d 296b 35be f976 4bbd a3f7 003d
00000270: 4c03 9dbe d7cf 2ebe 959f 853c 232c 483d
00000280: c6e1 6dbe c7cb 1fbd 56b1 fcbd 37e2 8abe
00000290: 7120 5f3d a677 a4be 41dd 81be 8611 923c
000002a0: b1ad d5bd d4ff 383c 7135 bd3b e0c6 9c3d
000002b0: 8b81 fb3d 9730 993d fa07 88be b86c 113c
000002c0: 9c87 a0bd fb11 ec3c 45cf debb 4237 f23c
000002d0: 0c67 2fbd 4c7d b4bd 112d 19be b819 f9bc
000002e0: ad62 8c3d 1a1e aa3d 15d0 083d 1805 543d
000002f0: 310d 04be 0576 a0bd a097 e63d 66ad 34bd
00000300: 8e6e bcbd cc6f 903d 0f15 59be 8da3 64be
00000310: 15da ebbd efac 52be 5026 743d 4f3a 98bd
00000320: 3f21 443d c618 a73d ff90 52be 17b7 1cbc
00000330: 35e6 1d3d dcf8 173d 00ea 9fbe ab36 5ebc
00000340: c292 b7bd d688 95bc 257f db3d b2c9 65be
00000350: 8cc5 89bd 91ec 00bc e9fa 4f3d 989a 86bd
00000360: bd87 1bbd 800e 13be eb16 bfbb c3d2 6d3c
00000370: ac6c fcbd 0b1d e43c cd21 2c3d 2a75 14be
00000380: 646b 6abe 12d2 0abe 9897 0bbd b9ad 97be
00000390: ffd9 373d b564 973d 7626 5dbe 70ab 703d
000003a0: bb20 5bbd 64e8 33bd e534 2c3c 1efe ab3d
000003b0: 437c 6bbc af49 06be 34b2 b63b 2380 55bd
000003c0: fe3b 72be 953c 273d d27d 1abc 4f6e 92be
000003d0: 2abb e23d 36a2 b8bd f6cf d5bc facc 653d
000003e0: 4bbd b03b 1e8f 2d3d cc37 47bc af4c 53be
000003f0: a77d acbe 3804 cabe b54e 77be 20b5 0cbe

out_layer.weight f4 [1, 256]
-0.033710655 -0.1260454 -0.07913588 -0.147097 -0.037953697 -0.048818354 0.03481071 0.4011721
-0.009996106 0.14411554 -0.09136931 -0.04594684 -0.023484843 0.04735448 -0.04726882 -0.049396086
0.035114374 0.05947387 0.04665126 0.06748786 0.074725635 -0.023415973 -0.0035151043 0.032152236
0.02242398 0.062788434 0.006563993 0.0928717 -0.04179171 0.05471766 0.010172665 0.084041044
0.039638564 0.040970895 -0.024264205 -0.021936828 0.15463491 0.028469035 -0.002544492 0.009899336
-0.034864325 -0.053947166 -0.12061684 -0.048906468 0.039220355 0.068592146 0.059884947 0.03400682
0.043181997 -0.014788558 -0.030015713 -0.023102952 0.02316272 0.03067911 0.024872346 -0.017779075
0.074816495 0.06486951 0.032425415 -0.03130403 -0.07311449 -0.057417225 0.034265332 -0.063611485
-0.037372783 0.048695683 -0.016756082 -0.058957957 -0.27054197 0.05379943 0.05911899 -0.03439865
-0.033369586 -0.044471674 -0.16882658 0.038795866 0.028150674 0.070342466 -0.030626573 -0.03752983
-0.08900434 0.02022068 -0.02360648 -0.06619625 0.044904582 0.051506206 -0.0073364037 0.0018886992
-0.06809433 0.04485305 0.055292245 -0.04507567 -0.034419417 0.048962053 -0.018416677 -0.06004624
-0.041275464 0.0016386786 0.04405031 0.057037406 -0.031030893 0.04513279 0.0011019182 -0.025612297
-0.04140003 -0.06718765 -0.03556602 -0.019648142 -0.023100264 0.023720948 0.050016977 -0.02477449
-0.02964495 -0.053216774 -0.023244068 0.02670461 0.030921184 0.12676007 0.04002195 0.066072494
0.049653284 -0.038549934 0.040918175 -0.05125274 0.027122686 -0.038245037 -0.038429502 -0.049234074
0.04904446 -0.14729945 0.025870703 0.05427652 0.0047940835 0.03906178 0.04676308 -0.034231167
-0.03909378 0.028060457 0.041925743 -0.007924559 0.06268686 0.0440479 -0.011868064 -0.053925272
-0.05377783 0.06659676 -0.044203494 0.06297046 0.3731011 0.034651197 0.003902872 0.04087485
-0.06654421 -0.0021102114 0.039759073 0.046678673 0.122361474 -0.16926956 -0.029418958 -0.033889662
-0.01781521 0.08132524 0.078686655 0.13390496 -0.013493062 0.14639647 0.084977396 0.045353632
0.044161737 -0.010142012 0.022086369 -0.038509674 -0.06305704 -0.027899439 0.024003766 -0.05310405
0.110804774 -0.043036353 0.063271515 0.051734317 -0.018847162 -0.051765095 -0.015745133 -0.02030479
-0.00032855914 -0.058331314 0.039191086 0.04024243 -0.055787444 -0.05087213 -0.020717701 0.0588978
0.035137508 -0.057693005 0.026047997 0.0040606763 -0.05009663 0.017429076 -0.054564923 -0.038148504
0.055106033 -0.019801775 0.018846283 0.040329035 0.071131766 0.02891237 -0.1469037 -0.036429904
0.06581679 0.041624915 -0.056670863 -0.020120269 -0.057162423 0.03867386 0.046141412 0.06506061
-0.04305394 0.031262115 -0.03694172 0.062533036 -0.07413091 0.04869518 -0.027890751 -0.015751684
0.027364122 -0.047240146 -0.04231082 0.19827417 0.04068965 0.031973932 0.053593602 0.0506712
-0.033078667 0.03614 0.026006443 -0.032936133 0.029677918 -0.053122718 0.04721298 0.043241594
-0.012380248 0.031277247 -0.047715865 0.14070413 -0.037993837 -0.031767964 0.037245277 0.061049532
0.073506616 -0.05472666 0.024832984 0.014677163 -0.13592811 0.31438586 0.002879502 -0.018296544
00000000: 2f14 0abd 0c12 01be fe11 a2bd 99a0 16be
00000010: 5675 1bbd c1f5 47bd ad95 0e3d 6e66 cd3e
00000020: b5c6 23bc 0693 133e d51f bbbd c132 3cbd
00000030: 4963 c0bc c5f6 413d f39c 41bd 8d53 4abd
00000040: 17d4 0f3d df9a 733d 6415 3f3d 1337 8a3d
00000050: c109 993d dbd2 bfbc aa5d 66bb 10b2 033d
00000060: 7fb2 b73c 3997 803d c416 d73b 8533 be3d
00000070: c92d 2bbd a01f 603d 40ab 263c b61d ac3d
00000080: 0c5c 223d 19d1 273d bac5 c6bc ddb4 b3bc
00000090: 9d58 1e3e e537 e93c 7ec1 26bb d330 223c
000000a0: e5cd 0ebd b4f7 5cbd f605 f7bd 2652 48bd
000000b0: 86a5 203d 0a7a 8c3d eb49 753d bc4a 0b3d
000000c0: 9bdf 303d b54b 72bc 83e3 f5bc 6742 bdbc
000000d0: bfbf bd3c c252 fb3c 17c1 cb3c 6ca5 91bc
000000e0: 6439 993d 4eda 843d 83d0 043d a838 00bd
000000f0: 0dbd 95bd 532e 6bbd ce59 0c3d bd46 82bd
00000100: 3414 19bd 2075 473d 0d44 89bc e67d 71bd
00000110: 7a84 8abe cb5c 5c3d c126 723d 99e5 0cbd
00000120: 8cae 08bd ee27 36bd e0e0 2cbe 6ae8 1e3d
00000130: 3e9c e63c b60f 903d 94e4 fabc e1b8 19bd
00000140: e847 b6bd d7a5 a53c 6062 c1bc e691 87bd
00000150: deed 373d 2cf8 523d 3766 f0bb 3b8e f73a
00000160: 0a75 8bbd d5b7 373d 1f7a 623d 44a1 38bd
00000170: 60fb 0cbd 6f8c 483d 92de 96bc 0cf3 75bd
00000180: 7610 29bd eec8 d63a 196e 343d 0ea0 693d
00000190: 8034 febc 29dd 383d 3d6e 903a e1d0 d1bc
000001a0: 1493 29bd ae99 89bd adad 11bd 24f5 a0bc
000001b0: c43c bdbc 6f52 c23c 9ade 4c3d dff3 cabc
000001c0: f7d9 f2bc d5f9 59bd 586a bebc a0c3 da3c
000001d0: 6c4e fd3c 64cd 013e 0eee 233d 0451 873d
000001e0: 3e61 4b3d 89e6 1dbd d199 273d 65ee 51bd
000001f0: 6530 de3c d4a6 1cbd 4168 1dbd aba9 49bd
00000200: d8e2 483d abd5 16be ccee d33c 0e51 5e3d
00000210: b017 9d3b 3fff 1f3d a58a 3f3d fb35 0cbd
00000220: cd20 20bd 0bdf e53c 54ba 2b3d 02d6 01bc
00000230: f861 803d 926b 343d 4572 42bc bfe0 5cbd
00000240: 2446 5cbd e263 883d b90e 35bd a8f6 803d
00000250: 1b07 bf3e 6aee 0d3d 54c7 7f3b 636c 273d
00000260: 5548 88bd 794b 0abb 69da 223d 2332 3f3d
00000270: a798 fa3d 0055 2dbe 0700 f1bc e3cf 0abd
00000280: 34f1 91bc d98d a63d 7826 a13d 621e 093e
00000290: 0112 5dbc f5e8 153e a108 ae3d bbc4 393d
000002a0: f0e2 343d ae2a 26bc 79ee b43c 52bc 1dbd
000002b0: 0d24 81bd 5d8d e4bc 8ca3 c43c a283 59bd
000002c0: 9ded e23d e346 30bd 7f94 813d 5de7 533d
000002d0: 5d65 9abc a307 54bd f0fb 80bc 3b56 a6bc
000002e0: 7642 acb9 d1ec 6ebd d586 203d 3fd5 243d
000002f0: 6081 64bd 4b5f 50bd 2bb8 a9bc d23e 713d
00000300: 59ec 0f3d 804f 6cbd 9c62 d53c 6c0f 853b
00000310: 2032 4dbd 6cc7 8e3c 787f 5fbd 9b41 1cbd
00000320: ddb6 613d 5537 a2bc 8563 9a3c 0f30 253d
00000330: 88ad 913d a2d9 ec3c ec6d 16be 8637 15bd
00000340: f4ca 863d e37e 2a3d b51f 68bd 43d3 a4bc
00000350: 2523 6abd 7b68 1e3d c7fe 3c3d 7f3e 853d
00000360: 5459 30bd b40c 003d 3350 17bd 5211 803d
00000370: f2d1 97bd 9974 473d 257b e4bc ad09 81bc
00000380: b92a e03c e27e 41bd 1c4e 2dbd 6208 4b3e
00000390: 31aa 263d 19f7 023d f784 5b3d 9b8c 4f3d
000003a0: 7f7d 07bd 8907 143d 770b d53c 0ae8 06bd
000003b0: 1b1f f33c 3597 59bd 6662 413d 191e 313d
000003c0: 86d6 4abc 921c 003d b671 43bd be14 103e
000003d0: 6d9f 1bbd 201f 02bd 818e 183d 130f 7a3d
000003e0: a38a 963d 1029 60bd 8b6e cb3c 7c78 703c
000003f0: bd30 0bbe 2ff7 a03e 07b6 3c3b a2e2 95bc
