model/lstm/lstm_model.pth (torch, 58020 bytes, 7 tensors)

lstm.weight_ih_l0 f4 [128, 5]
-0.14186312 -0.039083924 0.23928156 -0.0028242958 0.20874733 0.31944066 0.043081984 0.45391026
-0.28426895 0.21178366 0.27364415 0.09142347 -0.4040744 0.13097951 -0.119683385 -0.007295422
0.26930517 -0.13775344 -0.21261287 -0.18528146 -0.33603334 -0.02435277 0.061347585 -0.28844586
-0.41609195 -0.1471617 -0.19128442 -0.1645588 0.035661586 -0.15099452 -0.24566127 0.1473488
0.11440382 0.08254899 0.09734582 -0.25594094 -0.114370465 -0.399227 -0.05607505 0.2587377
-0.20143189 -0.36664847 0.14330283 0.4954564 0.5393361 0.1840076 0.34317383 0.24169816
-0.09663502 -0.4778314 -0.2685064 -0.18764326 -0.019307494 -0.40757003 0.43566868 0.04932594
0.105660595 0.34732318 -0.1451232 -0.02738231 0.16287129 0.42327073 0.117200986 -0.008559799
0.370874 -0.2162207 -0.11885351 0.30348316 0.060038935 -0.23755823 0.45499566 -0.13592318
-0.0070399255 0.37178433 0.13984178 0.09938163 0.2197434 0.16095711 0.32158175 0.14619212
0.499451 0.31371254 0.31847903 -0.1045873 0.21450113 0.10347389 -0.11452097 -0.12768213
0.010282565 -0.0156127615 -0.18555963 0.15087414 -0.06495354 -0.3349932 0.13311325 -0.23980269
0.079086244 -0.29071352 0.05247032 -0.10112826 0.05881652 0.16660649 -0.046233077 0.47240472
-0.11237357 -0.27911302 -0.045927145 -0.23585416 0.089169085 -0.13511689 0.15014984 -0.15435088
0.033874687 -0.20470504 0.17084917 0.32808337 -0.109164916 -0.011549498 -0.15669994 -0.030204717
-0.28903592 -0.3818223 -0.08285372 -0.13384815 0.0021264968 -0.107430935 0.47504234 0.08551445
-0.09765304 -0.3044684 0.24590784 -0.34327507 -0.009065447 -0.35112053 -0.6319944 0.024157112
-0.2984921 -0.34151828 -0.1007911 -0.19638775 -0.21631823 0.3066912 0.12299786 0.2829575
0.28559202 0.12662527 0.10736511 0.17574008 0.11291863 0.9016119 0.37093842 -0.15237902
0.02295601 0.04430205 0.13212714 0.035665352 -0.04934364 -0.28208932 0.22277121 -0.8918358
0.3797614 0.10127826 0.18677768 0.054702464 0.022401936 -0.4864826 -0.5511523 -0.22271514
0.32684928 -0.15616757 -0.072125725 0.094368055 -0.03723996 0.1761406 0.24592926 -0.07653216
-0.099509455 0.18477695 0.05783383 0.038537927 0.0397424 0.0169331 0.020085203 0.29232523
0.0028251645 -0.36605737 -0.10861406 0.15026152 0.21356893 -0.15522443 -0.10359037 -0.24026965
-0.12316271 0.13456419 0.009612973 -0.39489558 -0.17486784 -0.18010491 0.16262753 -0.011786787
-0.28389105 0.18660243 0.49888206 -0.339653 -0.21783286 0.45171076 -0.087005824 -0.06497784
0.0782645 0.07087166 -0.1922917 0.1963505 -0.101402655 -0.1908593 -0.41310582 0.16929382
-0.24887006 -0.25704387 -0.12046675 -0.123578176 -0.027175728 -0.3270648 0.16694751 0.056516185
-0.02613816 0.1934876 0.03789471 0.044461377 -0.06544761 0.01494902 0.2769778 -0.2732943
-0.031244546 0.34722027 -0.05830984 0.2913031 -0.22959578 -0.06610062 -0.14605407 -0.59920144
0.11118349 0.10800078 -0.14936885 -0.5467867 -0.22547245 0.54379934 0.24850294 -0.07507273
-0.15793827 -0.009344715 -0.1977665 -0.1842017 -0.29274893 -0.013908783 0.306967 -0.051323034
00000000: 9144 11be 7716 20bd 3a06 753e d217 39bb
00000010: dcc1 553e ba8d a33e bc76 303d ed66 e83e
00000020: b38b 91be d1dd 583e 161b 8c3e 3a3c bb3d
00000030: d7e2 cebe 7e1f 063e 901c f5bd 6f0e efbb
00000040: 5ee2 893e 3d0f 0dbe 30b7 59be 6cba 3dbe
00000050: 900c acbe 767f c7bc 9b47 7b3d 2daf 93be
00000060: 010a d5be 8fb1 16be 10e0 43be 1a82 28be
00000070: e211 123d 4f9e 1abe a18e 7bbe 9be2 163e
00000080: 8d4c ea3d 720f a93d 3f5d c73d b10a 83be
00000090: 103b eabd 7b67 ccbe f4ae 65bd 4579 843e
000000a0: 2944 4ebe 59b9 bbbe fabd 123e 76ac fd3e
000000b0: ee11 0a3f 7d6c 3c3e 7bb4 af3e b97f 773e
000000c0: 95e8 c5bd 51a6 f4be ac79 89be 8e25 40be
000000d0: c02a 9ebc 05ad d0be f70f df3e ff09 4a3d
000000e0: 9564 d83d 58d4 b13e 2d9b 14be de50 e0bc
000000f0: bbc7 263e f1b6 d83e 1207 f03d 663e 0cbc
00000100: 32e3 bd3e f668 5dbe 7869 f3bd 2562 9b3e
00000110: 63eb 753d 7742 73be 31f5 e83e 722f 0bbe
00000120: 2daf e6bb 845a be3e af32 0f3e 9988 cb3d
00000130: 6a04 613e f1d1 243e 5da6 a43e 63b3 153e
00000140: 0bb8 ff3e ee9e a03e af0f a33e de31 d6bd
00000150: 2fa6 5b3e 1eea d33d f889 eabd 1bbf 02be
00000160: 3478 283c abcc 7fbc 5803 3ebe c07e 1a3e
00000170: 5d06 85bd 3b84 abbe d74e 083e d68e 75be
00000180: f8f7 a13d 67d8 94be 1eeb 563d 551c cfbd
00000190: 97e9 703d e49a 2a3e e55e 3dbd 08df f13e
000001a0: 1d24 e6bd e7e7 8ebe 1a1e 3cbd c183 71be
000001b0: 489e b63d 155c 0abe e1c0 193e 280e 1ebe
000001c0: 2fc0 0a3d 339e 51be 16f3 2e3e 8bfa a73e
000001d0: db91 dfbd 1b3a 3dbc f375 20be e26f f7bc
000001e0: 84fc 93be 367e c3be 36af a9bd 7d0f 09be
000001f0: b25c 0b3b c004 dcbd c038 f33e 3322 af3d
00000200: 51fe c7bd 48e3 9bbe 44cf 7b3e c0c1 afbe
00000210: 3e87 14bc 12c6 b3be 63ca 21bf 23e5 c53c
00000220: f5d3 98be 7cdb aebe 906b cebd df19 49be
00000230: 8782 5dbe a106 9d3e 4de6 fb3d cedf 903e
00000240: 1e39 923e 0eaa 013e 3de2 db3d 35f5 333e
00000250: e241 e73d 0ad0 663f a4eb bd3e 3f09 1cbe
00000260: 3e0e bc3c 1176 353d 564c 073e d515 123d
00000270: 8f1c 4abd 036e 90be 231e 643e 5a4f 64bf
00000280: 1670 c23e fa6a cf3d a642 3f3e b10f 603d
00000290: 4484 b73c 3f14 f9be 5118 0dbf 700f 64be
000002a0: ca58 a73e 64ea 1fbe a7b6 93bd 0a44 c13d
000002b0: ee88 18bd 345e 343e e1d4 7b3e e5bc 9cbd
000002c0: 9dcb cbbd 2b36 3d3e 2be3 6c3d f2d9 1d3d
000002d0: edc8 223d 49b7 8a3c b989 a43c a7ab 953e
000002e0: 6526 393b df6b bbbe 0c71 debd 28de 193e
000002f0: d0b1 5a3e 27f3 1ebe 3027 d4bd 3f09 76be
00000300: bb3c fcbd 32cb 093e bb7f 1d3c c12f cabe
00000310: 8e10 33be 6c6d 38be d587 263e 5e1d 41bc
00000320: 2b5a 91be b514 3f3e 786d ff3e ffe6 adbe
00000330: 940f 5fbe a246 e73e 1c30 b2bd 1a13 85bd
00000340: 2349 a03d 2925 913d 1ee8 44be 1b10 493e
00000350: 32ac cfbd 9f70 43be 9b82 d3be 5c5b 2d3e
00000360: cbd7 7ebe 419b 83be 45b7 f6bd 8e16 fdbd
00000370: a29f debc 0a75 a7be 4af4 2a3e 847d 673d
00000380: b21f d6bc 9d21 463e 7c37 1b3d 221d 363d
00000390: 6609 86bd bcec 743c 09d0 8d3e 3bed 8bbe
000003a0: 90f4 ffbc dbc6 b13e 4cd6 6ebd ae25 953e
000003b0: 281b 6bbe c35f 87bd 338f 15be 4465 19bf
000003c0: 2bb4 e33d 832f dd3d 26f4 18be 37fa 0bbf
000003d0: 40e2 66be 6f36 0b3f 8e77 7e3e bbbf 99bd
000003e0: 92ba 21be 931a 19bc 4d83 4abe 5f9f 3cbe
000003f0: 30e3 95be aae1 63bc c72a 9d3e 1a38 52bd

lstm.weight_hh_l0 f4 [128, 32]
-1.2550153 0.26221204 1.003635 0.19282389 0.15083602 0.16074245 0.71523124 0.4444323
-0.13435018 0.31374815 0.15254281 -0.3608007 -0.36546195 -1.5098602 -0.8557515 0.30142817
-0.1721521 -0.08435269 0.6922109 1.198175 0.8276021 1.2264432 -0.07534119 -0.7238261
0.0065297442 -0.7550109 -0.78537786 -0.16264132 -0.098128654 -0.37931734 -0.3467144 0.44572458
-0.52126473 0.20797925 -0.36473897 -0.6057368 -0.18268248 -0.08368575 0.11742253 -0.011974731
0.14985874 0.063415 -0.24829428 0.016945379 0.38532448 -0.16277413 0.20655552 0.286259
0.97995985 -0.36634016 -0.20885736 -0.10828826 0.305327 0.2465414 0.7422402 0.30318183
0.17003453 -0.21310948 0.6919631 -0.28231785 -0.20518336 -0.19786674 -0.046403382 -0.04768569
-0.36049795 -0.054286446 -0.07043959 -0.5607564 -0.5100352 0.46743873 -0.36997893 0.21390158
0.04371668 0.8371313 0.402993 0.026317319 -0.31912842 -0.17317085 -0.030036993 0.22253494
-0.35315648 0.10601319 0.3414868 -0.06800084 -0.35494414 0.014896499 0.050551254 0.030561488
0.46825048 -0.48989382 -0.14168887 -0.46601462 0.53845394 -0.3699299 0.3242419 0.17751493
-0.8559974 0.19752324 -0.032805853 -0.21167177 -0.053978354 0.7758241 0.12485199 -0.15030068
-0.4760143 -0.1200169 -0.2268764 0.23165064 -0.1566098 -0.22961895 0.21340232 0.19008534
-0.10477422 -0.17260098 0.3001099 -0.1877979 -0.44235882 0.30024114 0.09028318 -0.016940475
0.23070216 -0.048805136 -0.49208015 -0.11437639 -0.24501504 -0.20604819 -0.045583412 0.3753477
-1.3951594 0.7671977 0.24461776 0.33826014 0.2990569 0.35640296 0.9045563 0.18055803
-0.02437916 -0.32931992 0.29648674 -0.094845414 -0.3924503 -0.3707777 -0.18510918 0.15904364
-0.6493882 0.36575988 0.85032624 0.45606098 0.163393 0.30500633 -0.68348545 -0.7362162
0.17453991 -0.20923516 -0.26261106 -0.2056061 -0.571771 0.05835568 0.72798663 0.39992577
1.079459 0.47868976 0.15461276 0.664756 1.123924 0.45436418 -0.278469 -0.29107472
-0.43446475 -0.26264566 0.30496514 -0.02451205 -0.1669971 0.22738415 0.45776874 0.092179365
-0.53023636 0.16850549 0.3538945 -0.56463593 -0.35729256 -0.41341782 -0.46730313 -0.62087345
-0.42865315 -0.103730455 -0.052788407 -0.7803711 -0.05916196 -0.071559586 0.41365352 -0.022572426
0.07823058 -0.2917075 0.23440337 0.19938369 0.6357744 0.2721666 -0.20285654 0.37979928
0.04748748 -0.20669049 0.24911135 -0.25768733 -0.08730462 -0.17090513 0.061639655 0.3782475
-0.24457495 -0.13691306 0.56453127 -0.17410722 0.6035332 0.056250237 -0.28400412 -0.09761917
-0.6876124 -0.00628216 -0.074114986 -0.18345124 0.15759747 -0.45475832 -0.0034110826 0.3562405
-0.21688174 -0.23325674 -0.16136298 -0.12262758 0.11302889 -0.013235859 -0.32705817 -0.2063768
-0.31936213 0.1646728 -0.27840486 0.18509921 -0.19870175 0.17230693 -0.23141061 0.04935444
-0.114690736 -0.104646675 -0.045512 -0.08365666 -0.23507714 -0.08869304 0.0011801214 0.1178073
-0.07371626 0.06755231 0.004707183 -0.15934445 0.4013269 -0.27528173 -0.20878913 0.036777075
00000000: 57a4 a0bf a840 863e 1d77 803f a073 453e
00000010: c274 1a3e ab99 243e 6519 373f a18c e33e
00000020: 1893 09be 99a3 a03e 2f34 1c3e dfba b8be
00000030: d41d bbbe 1943 c1bf 8812 5bbf cb54 9a3e
00000040: a448 30be 1ac1 acbd bc34 313f cc5d 993f
00000050: bbdd 533f 17fc 9c3f 7b4c 9abd ab4c 39bf
00000060: 77f7 d53b 6548 41bf 860e 49bf 728b 26be
00000070: adf7 c8bd e235 c2be 8d84 b1be 0336 e43e
00000080: 9b71 05bf 83f8 543e 11bf babe 9111 1bbf
00000090: 1e11 3bbe 6f63 abbd 397b f03d aa31 44bc
000000a0: 9274 193e b9df 813d db40 7ebe 09d1 8a3c
000000b0: 4049 c53e 43ae 26be 4a83 533e 8a90 923e
000000c0: a6de 7a3f f090 bbbe b4de 55be 3cc6 ddbd
000000d0: d253 9c3e 5975 7c3e 7403 3e3f a63a 9b3e
000000e0: 881d 2e3e 5f39 5abe 7e24 313f f78b 90be
000000f0: 961b 52be 949d 4abe 7911 3ebd 1252 43bd
00000100: 3093 b8be 775b 5ebd a242 90bd bb8d 0fbf
00000110: ab91 02bf 2154 ef3e e16d bdbe 0409 5b3e
00000120: 4310 333d 3d4e 563f 1955 ce3e 6b97 d73c
00000130: cd64 a3be b353 31be 2410 f6bc 33e0 633e
00000140: edd0 b4be 711d d93d 5cd7 ae3e 0644 8bbd
00000150: 3dbb b5be 7210 743c d50e 4f3d 165c fa3c
00000160: 87be ef3e 5dd3 fabe e316 11be 7899 eebe
00000170: 1ed8 093f 7467 bdbe 0903 a63e 79c6 353e
00000180: a522 5bbf 8843 4a3e 6e5f 06bd 7cc0 58be
00000190: 6818 5dbd 699c 463f 66b2 ff3d 6ce8 19be
000001a0: 25b8 f3be 6ccb f5bd 4952 68be d335 6d3e
000001b0: 525e 20be 3b21 6bbe 2386 5a3e bba5 423e
000001c0: de93 d6bd 50be 30be 01a8 993e 184e 40be
000001d0: db7c e2be 35b9 993e 63e6 b83d c0c6 8abc
000001e0: 303d 6c3e e5e7 47bd eef1 fbbe 2b3e eabd
000001f0: 39e5 7abe 4cfe 52be acb5 3abd 932d c03e
00000200: 9594 b2bf 1267 443f 147d 7a3e 6f30 ad3e
00000210: fc1d 993e 737a b63e 0091 673f 34e4 383e
00000220: ceb6 c7bc 9f9c a8be 1ccd 973e 503e c2bd
00000230: 3fef c8be 93d6 bdbe 438d 3dbe 56dc 223e
00000240: 4e3e 26bf e144 bb3e fbae 593f d380 e93e
00000250: 7f50 273e ca29 9c3e e7f8 2ebf aa78 3cbf
00000260: 97ba 323e be41 56be f574 86be 688a 52be
00000270: 965f 12bf 5e06 6f3d 555d 3a3f 12c3 cc3e
00000280: b62b 8a3f d316 f53e cf52 1e3e 732d 2a3f
00000290: bedc 8f3f 6ca2 e83e 7d93 8ebe bf07 95be
000002a0: 2a72 debe 7e79 86be 6424 9c3e 7fcd c8bc
000002b0: 4a01 2bbe 64d7 683e aa60 ea3e 89c8 bc3d
000002c0: 92bd 07bf b48c 2c3e a931 b53e fb8b 10bf
000002d0: 0def b6be 80ab d3be 5b42 efbe 90f1 1ebf
000002e0: 6d78 dbbe a270 d4bd a838 58bd 67c6 47bf
000002f0: d053 72bd d58d 92bd 65ca d33e cfe9 b8bc
00000300: 5b37 a03d af5a 95be 7007 703e 3d2b 4c3e
00000310: 1cc2 223f 6c59 8b3e a0b9 4fbe 0d75 c23e
00000320: 3b82 423d aca6 53be 0c17 7f3e 98ef 83be
00000330: c4cc b2bd c101 2fbe dd79 7c3d a8a9 c13e
00000340: db71 7abe f032 0cbe 1f85 103f 2a49 32be
00000350: 2781 1a3f a666 663d fd68 91be 8fec c7bd
00000360: 5e07 30bf 94da cdbb 99c9 97bd a4da 3bbe
00000370: 3b61 213e 15d6 e8be 788c 5fbb 2865 b63e
00000380: 3f16 5ebe dbda 6ebe 563c 25be 2b24 fbbd
00000390: b17b e73d 37db 58bc 2b74 a7be 7154 53be
000003a0: 6f83 a3be fd9f 283e 158b 8ebe a68a 3d3e
000003b0: 7978 4bbe 3a71 303e e7f6 6cbe e227 4a3d
000003c0: fae2 eabd ff50 d6bd ca6a 3abd 2f54 abbd
000003d0: 10b8 70be b2a4 b5bd 4eae 9a3a f444 f13d
000003e0: 8df8 96bd de58 8a3d b73e 9a3b 312b 23be
000003f0: b87a cd3e baf1 8cbe d1cc 55be 8fa3 163d

lstm.bias_ih_l0 f4 [128]
0.6182058 -0.18188983 -0.2990131 -0.27392474 0.15430166 0.16538863 -0.09423605 -0.17294262
-0.007257345 -0.12353222 -0.07781537 -0.18968625 -0.1803101 -0.042340726 0.23303227 -0.033111572
0.04744608 -0.010331719 0.26679048 -0.08009751 0.13666679 0.08955669 0.3036098 -0.0038091657
-0.056058645 -0.20248997 -0.12904115 0.46118584 -0.25178555 -0.015220547 0.10831509 -0.1967367
-0.34101087 0.1604274 0.01686153 -0.05774514 0.033168502 -0.30215874 -0.034077942 0.068249434
-0.22663508 0.13041052 0.18393956 0.12060937 0.21844983 -0.0667982 -0.13419102 0.30101523
-0.0077604516 0.29675066 -0.1503816 0.23178199 -0.3799845 -0.14720204 -0.09080871 0.04309191
0.00673772 0.10424427 0.17903505 -0.12535761 -0.046687588 0.122950375 -0.45576784 -0.0025340596
0.23541977 0.11451118 0.21660666 0.1155725 -0.033441212 -0.23218885 0.037475295 -0.018622879
0.07727431 -0.026935598 -0.02346797 -0.14027889 0.116580255 0.14165196 0.042115513 0.02372504
0.058785204 0.11298944 -0.14131437 -0.082151026 -0.006266024 0.09258541 0.22837391 0.20285748
0.12724178 -0.08400485 0.22880548 -0.019573636 -0.075584926 0.1493214 -0.061915006 0.07968212
0.84069115 0.007387414 -0.12347526 -0.10295117 0.07759356 0.019806739 -0.26835886 -0.35113528
0.0050784997 -0.28147975 0.06945582 0.10565291 -0.26676106 -0.28478578 0.17838812 -0.050695416
0.22169662 -0.12719405 0.35738662 0.1471943 -0.050418127 0.019179264 0.2584221 0.17929327
-0.13560481 -0.13303669 0.0785847 0.1637364 -0.111236565 -0.2431857 0.12785132 -0.20245403
00000000: bc42 1e3f 5441 3abe 3f18 99be dd3f 8cbe
00000010: 4101 1e3e a35b 293e d5fe c0bd df17 31be
00000020: 06cf edbb 76fe fcbd aa5d 9fbd 1d3d 42be
00000030: 36a3 38be 786d 2dbd 03a0 6e3e 00a0 07bd
00000040: d256 423d 5f46 29bc c398 883e 2a0a a4bd
00000050: 61f2 0b3e 7f69 b73d be72 9b3e 32a3 79bb
00000060: c09d 65bd 8859 4fbe 5d23 04be 8d20 ec3e
00000070: 09ea 80be 9a5f 79bc 4dd4 dd3d 5875 49be
00000080: fa98 aebe 1547 243e 3121 8a3c 2b86 6cbd
00000090: b2db 073d 8db4 9abe 5095 0bbd 5cc6 8b3d
000000a0: 0713 68be 568a 053e a75a 3c3e 0c02 f73d
000000b0: 50b1 5f3e 7fcd 88bd 5f69 09be ab1e 9a3e
000000c0: 634b febb b4ef 973e a2fd 19be 4258 6d3e
000000d0: 548d c2be 22bc 16be ebf9 b9bd 2581 303d
000000e0: 18c8 dc3b 057e d53d f754 373e bf5d 00be
000000f0: 7c3b 3fbd 68cd fb3d 675a e9be 7712 26bb
00000100: e111 713e d684 ea3d 23ce 5d3e 46b1 ec3d
00000110: a7f9 08bd eac2 6dbe b27f 193d 028f 98bc
00000120: fe41 9e3d 0ba8 dcbc e63f c0bc 45a5 0fbe
00000130: a1c1 ee3d 360d 113e 5181 2c3d 045b c23c
00000140: c1c8 703d 0267 e73d b7b4 10be cc3e a8bd
00000150: 3853 cdbb 6b9d bd3d dada 693e dfb9 4f3e
00000160: ab4b 023e bc0a acbd fc4b 6a3e e458 a0bc
00000170: 45cc 9abd b6e7 183e 979a 7dbd 6130 a33d
00000180: 8937 573f 1f12 f23b 99e0 fcbd 10d8 d2bd
00000190: 5fe9 9e3d be41 a23c 5566 89be 01c8 b3be
000001a0: 8b69 a63b 1d1e 90be da3e 8e3d 8e60 d83d
000001b0: e894 88be 71cf 91be 60ab 363e ffa5 4fbd
000001c0: 7004 633e 283f 02be 61fb b63e 1aba 163e
000001d0: 3d83 4ebd d51d 9d3c e74f 843e a898 373e
000001e0: fddb 0abe c53a 08be 04f1 a03d 84aa 273e
000001f0: ffcf e3bd ac05 79be 75eb 023e 1c50 4fbe

lstm.bias_hh_l0 f4 [128]
0.68430233 -0.059762616 -0.109503135 -0.0006840513 0.27464724 0.15434219 -0.2227599 -0.23051016
-0.26193798 -0.21506059 -0.10156889 -0.052292135 -0.4253933 -0.20994367 0.4672842 -0.117456816
-0.016221045 0.08674725 0.18880272 -0.021993853 -0.016506666 0.103824414 0.1724894 0.049973704
0.017414521 -0.12245396 -0.056442183 0.33122775 -0.42641062 -0.24113142 0.19254617 -0.20533904
-0.61906 0.16231094 -0.016242271 0.050773747 0.18180378 -0.30027404 0.09054827 -0.03707445
-0.21621786 -0.10943129 0.23855315 0.1192312 0.06752463 -0.24235871 0.094023146 0.09564762
-0.056549627 0.24676372 -0.23838285 0.06001948 -0.16207182 0.09184705 0.19829723 0.011148095
0.091321446 -0.083550684 0.33174592 -0.2551122 -0.11646739 0.025256481 -0.3249989 -0.098661624
0.071072176 -0.0156077845 -0.12774138 -0.11424422 0.079432525 -0.10561982 0.030605342 -0.088252254
0.0016165945 -0.06959228 0.03640287 0.06472035 -0.14987294 -0.100062154 0.109635755 -0.10371182
0.06069059 0.12248425 0.03386348 0.05231112 -0.023768937 0.033521406 0.032930125 -0.05101763
-0.019920763 -0.14197375 -0.017864209 0.06977733 -0.083038785 0.07534225 -0.07143024 -0.06234767
0.68327945 -0.20894489 -0.24511088 0.030906683 0.15146904 -0.0967909 -0.23189415 -0.17562795
0.05988967 -0.10319661 -0.108435646 -0.2153221 -0.06452134 -0.062533215 0.44708925 0.016163776
0.18349934 -0.10987745 0.35868648 0.16159245 0.16558248 0.021196282 0.06836032 0.11715194
0.09065531 -0.07824169 0.02968019 0.10018691 -0.17284152 -0.095100485 0.19859464 0.057894308
00000000: 702e 2f3f a5c9 74bd 2e43 e0bd e851 33ba
00000010: 909e 8c3e e10b 1e3e 2c1b 64be db0a 6cbe
00000020: bc1c 86be d838 5cbe 5a03 d0bd 4730 56bd
00000030: 27cd d9be 79fb 56be e03f ef3e 338d f0bd
00000040: ffe1 84bc 8ba8 b13d 8055 413e 742c b4bc
00000050: fd38 87bc e5a1 d43d 10a1 303e 3ab1 4c3d
00000060: e6a8 8e3c 24c9 fabd eb2f 67bd af96 a93e
00000070: 7e52 dabe 28eb 76be d32a 453e 6644 52be
00000080: b77a 1ebf d734 263e 830e 85bc 22f8 4f3d
00000090: c52a 3a3e 85bd 99be 5f71 b93d 61db 17bd
000000a0: 3768 5dbe 831d e0bd 4747 743e 7d2f f43d
000000b0: 5a4a 8a3d e22c 78be 358f c03d e6e2 c33d
000000c0: 95a0 67bd a1af 7c3e a21a 74be fcd6 753d
000000d0: 28f6 25be 4e1a bc3d 6e0e 4b3e 80a6 363c
000000e0: bd06 bb3d 9f1c abbd 9ada a93e 119e 82be
000000f0: 7486 eebd aee6 ce3c 4166 a6be 1b0f cabd
00000100: 4a8e 913d cbb7 7fbc a3ce 02be e0f8 e9bd
00000110: 85ad a23d 344f d8bd 0eb8 fa3c 99bd b4bd
00000120: e9e3 d33a 6686 8ebd 2d1b 153d 1a8c 843d
00000130: 4b78 19be 63ed ccbd b688 e03d dd66 d4bd
00000140: b296 783d 06d9 fa3d 6fb4 0a3d 2f44 563d
00000150: 13b7 c2bc be4d 093d bde1 063d ddf7 50bd
00000160: de30 a3bc 9161 11be f657 92bc 6be7 8e3d
00000170: 3d10 aabd 0a4d 9a3d 054a 92bd 4560 7fbd
00000180: 67eb 2e3f a6f5 55be 59fe 7abe 0330 fd3c
00000190: b31a 1b3e 4f3a c6bd a975 6dbe d0d7 33be
000001a0: df4e 753d bf58 d3bd 8213 debd 667d 5cbe
000001b0: c423 84bd 6a11 80bd e2e8 e43e e569 843c
000001c0: 40e7 3b3e 6e07 e1bd c1a5 b73e 7e78 253e
000001d0: 748e 293e d3a3 ad3c 7f00 8c3d 5bed ef3d
000001e0: 7ea9 b93d 2e3d a0bd df23 f33c cb2e cd3d
000001f0: 5efd 30be 0bc4 c2bd 655c 4b3e 9522 6d3d

fc1.weight f4 [256, 32]
0.09905319 -0.06477964 0.26766968 0.14359948 0.061401695 -0.36299554 -0.041457713 0.2808661
0.20712724 0.094888836 0.31345847 -0.03587237 -0.07845749 -0.18509954 -0.16485405 -0.10749358
0.18132424 0.06601252 0.055960316 0.18508993 0.21269569 0.26420322 0.19972524 0.004243865
-0.17674339 -0.2849491 0.26241735 0.08652128 -0.08550499 -0.18129718 0.007972701 -0.10121285
-0.32853428 -0.019696778 0.06864886 0.0064596194 0.12437548 0.030019509 0.19834334 0.115368456
0.057938654 -0.13860525 -0.22877792 -0.18438864 0.14143008 -0.010138513 0.439993 0.18958461
0.3295982 0.05138535 0.19193368 -0.1317344 0.2206907 0.19113858 0.049576644 -0.098004535
0.18218729 -0.20752853 -0.25683787 -0.85526246 0.024013633 0.015084078 0.12275403 -0.071047395
0.17325369 -0.4182474 -0.008193733 -0.059724428 -0.2482508 -0.14715235 -0.11867609 0.15868606
-0.21674095 0.0074923127 0.3286814 -0.13635528 0.09687613 0.17042772 -0.24225447 0.19276766
-0.25357002 0.3100729 0.008641115 0.27700838 0.08879782 0.07664971 -0.062971056 -0.1686968
-0.33492187 -0.1293264 0.20908268 -0.04175517 -0.13643537 -0.23536602 -0.13274467 0.031478684
-0.4269951 -0.020261504 0.3186817 -0.03262051 -0.07298358 0.054587886 0.107906215 0.07039391
0.22815922 0.16304632 0.025876185 -0.119115785 -0.13496643 0.024193946 0.32885277 0.18221387
0.12081962 0.052734353 0.48938552 -0.27389735 0.021232521 0.20716843 0.21301387 -0.02034799
0.2741205 -0.3172085 -0.012191583 -0.8179906 -0.0048363665 -0.18525852 0.15968516 -0.00074447785
0.15666881 -0.21186596 0.19786072 0.053392325 -0.05625433 -0.16118112 0.28613666 0.022058398
-0.06330522 -0.21856602 -0.048156325 0.038472757 0.17566006 -0.14083709 -0.08030279 0.1465024
0.00459261 0.12899221 0.033809137 0.080500886 0.11316887 0.13825238 -0.094891615 -0.045182288
-0.012069185 -0.23057199 0.038530063 0.054438602 -0.2027441 -0.015015371 -0.118791685 -0.0693836
0.23988712 0.09453175 0.3343055 0.0895813 0.13547695 0.13339785 0.18402198 0.1922389
0.0835653 0.026610766 0.08988042 -0.16185883 0.11038989 -0.095934354 0.03292953 -0.022652311
0.3243864 0.099212006 -0.21400541 0.22346385 0.2006396 0.2821147 -0.07031495 -0.11288344
-0.13806787 -0.06791201 0.12603536 0.20969564 -0.13677591 -0.064848825 -0.104474016 -0.16191955
-0.09640636 0.1392712 -0.06478641 0.08466443 0.035556655 0.09733121 -0.07433399 -0.016028197
0.1030515 0.0057197646 0.014533677 -0.024267705 0.09658908 0.046974216 -0.022986852 -0.29192835
0.14541742 -0.14112456 -0.06505658 -0.18912213 -0.25478896 -0.21038866 0.018243445 0.12745832
0.006590807 0.05752067 -0.012758123 0.013423672 0.017966107 0.12748754 -0.07560269 -0.11932713
-0.039626945 -0.12074617 -0.30447468 0.060993046 0.046965577 0.11785653 -0.22320308 -0.15806417
0.22072223 0.19702356 0.13735037 0.12333321 0.046544876 -0.1437472 -0.005295353 0.052543055
-0.17442095 0.25121906 0.30902722 -0.21626677 0.44153503 -0.045007136 -0.11060234 -0.20100117
0.41083378 -0.05299801 0.24379341 -0.87501115 0.33065456 -0.23848851 -0.11334235 -0.17162581
00000000: 66dc ca3d 30ab 84bd 000c 893e be0b 133e
00000010: 5880 7b3d 8dda b9be 90cf 29bd aecd 8f3e
00000020: 2a19 543e 1455 c23d a17d a03e e8ee 12bd
00000030: 52ae a0bd bc8a 3dbe 80cf 28be 9825 dcbd
00000040: 10ad 393e 9231 873d a536 653d 3788 3d3e
00000050: e6cc 593e a545 873e c684 4c3e 1f10 8b3b
00000060: 38fc 34be d9e4 91be 915b 863e 1232 b13d
00000070: 3d1d afbd f8a5 39be ef9f 023c af48 cfbd
00000080: a535 a8be 235b a1bc c697 8c3d 37ab d33b
00000090: 92b8 fe3d 79eb f53c 841a 4b3e 4c46 ec3d
000000a0: 1551 6d3d 89ee 0dbe c244 6abe 60d0 3cbe
000000b0: 0cd3 103e 011c 26bc c346 e13e 7822 423e
000000c0: 18c1 a83e 7279 523d 438a 443e 62e5 06be
000000d0: befc 613e d5b9 433e e110 4b3d 9ab6 c8bd
000000e0: 4e8f 3a3e 5c82 54be 4180 83be 7bf2 5abf
000000f0: 3db8 c43c 3523 773c 7766 fb3d 4c81 91bd
00000100: 6a69 313e 8624 d6be 023f 06bc 9aa1 74bd
00000110: 7535 7ebe 1baf 16be 730c f3bd 997e 223e
00000120: 57f1 5dbe 1382 f53b ee48 a83e b8a0 0bbe
00000130: fe66 c63d 9b84 2e3e 8e11 78be e364 453e
00000140: eed3 81be e0c1 9e3e 7793 0d3c 0bd4 8d3e
00000150: a2db b53d 86fa 9c3d f8f6 80bd dbbe 2cbe
00000160: e17a abbe 246e 04be c519 563e 7807 2bbd
00000170: b7b5 0bbe ca03 71be 38ee 07be cbef 003d
00000180: 1a9f dabe 74fb a5bc 3f2a a33e 159d 05bd
00000190: 6a78 95bd 8c97 5f3d effd dc3d af2a 903d
000001a0: 92a2 693e 9df5 263e 4bfa d33c faf2 f3bd
000001b0: a434 0abe 6232 c63c 645f a83e 4696 3a3e
000001c0: 4770 f73d faff 573d bd90 fa3e 463c 8cbe
000001d0: d3ef ad3c f623 543e 4f20 5a3e d4b0 a6bc
000001e0: 8659 8c3e 2769 a2be 35bf 47bc d567 51bf
000001f0: 627a 9ebb 69b4 3dbe 8284 233e 1029 43ba
00000200: ca6d 203e 64f3 58be 009c 4a3e e9b1 5a3d
00000210: f16a 66bd aa0c 25be 8180 923e d0b3 b43c
00000220: 2ba6 81bd c5cf 5fbe 913f 45bd 9c95 1d3d
00000230: 3be0 333e 9937 10be ca75 a4bd ba04 163e
00000240: 9b7d 963b 8916 043e 737b 0a3d a6dd a43d
00000250: 15c5 e73d 0892 0d3e 8956 c2bd 1011 39bd
00000260: d5bd 45bc 101b 6cbe b3d1 1d3d 03fb 5e3d
00000270: 269c 4fbe 0803 76bc 0e49 f3bd fd18 8ebd
00000280: f8a4 753e dd99 c13d 172a ab3e 6776 b73d
00000290: 78ba 0a3e 7299 083e 4270 3c3e 46da 443e
000002a0: 4924 ab3d d2fe d93c 3a13 b83d 52be 25be
000002b0: 1814 e23d 3b79 c4bd 1de1 063d 5791 b9bc
000002c0: f915 a63e aa2f cb3d 3c24 5bbe b5d3 643e
000002d0: 7874 4d3e 5771 903e 4901 90bd 6f2f e7bd
000002e0: aa61 0dbe 7415 8bbd 6a0f 013e 74ba 563e
000002f0: fc0e 0cbe 76cf 84bd 79f6 d5bd 3dce 25be
00000300: b370 c5bd 1c9d 0e3e bdae 84bd 8b64 ad3d
00000310: dba3 113d 9655 c73d 6b3c 98bd 914d 83bc
00000320: aa0c d33d dd6c bb3b a91e 6e3c 11cd c6bc
00000330: 7fd0 c53d 0968 403d ec4e bcbc a277 95be
00000340: 4ee8 143e f582 10be 623c 85bd 3ba9 41be
00000350: b373 82be 2070 57be 4773 953c 6f84 023e
00000360: b2f7 d73b cb9a 6b3d 7207 51bc f6ee 5b3c
00000370: a82d 933c 188c 023e 95d5 9abd c861 f4bd
00000380: dd4f 22bd c549 f7bd 1be4 9bbe d8d3 793d
00000390: fa5e 403d c45e f13d 598f 64be 93db 21be
000003a0: 0205 623e 8bc0 493e 93a5 0c3e 1f96 fc3d
000003b0: d7a5 3e3d 7732 13be a484 adbb 6337 573d
000003c0: 689b 32be c99f 803e d138 9e3e 0975 5dbe
000003d0: e110 e23e 6759 38bd 7b83 e2bd 40d3 4dbe
000003e0: ce58 d23e 7114 59bd fba4 793e bb00 60bf
000003f0: 8e4b a93e 5536 74be 0920 e8bd adbe 2fbe

fc1.bias f4 [256]
-0.12768345 -0.21078 -0.21945971 -0.19322143 0.0013611951 -0.08474237 0.00081837963 -0.22119592
-0.20767269 -0.2835442 -0.18541892 0.0023623197 0.021220637 -0.2667996 0.0061128703 0.0704783
0.017247217 -0.010803205 -0.024460217 -0.21286562 -0.12627634 -0.082403526 -0.20385402 0.00041572607
-0.07892555 -0.0046142787 -0.2524839 -0.23753989 0.0054199183 0.012936733 -0.27090046 -0.17248487
0.02768678 -0.0034241637 -0.064109474 0.035464734 -0.23271175 -0.03336862 -0.2130758 -0.21008132
0.088651404 -0.07246953 -0.19095501 0.07450719 -0.20706096 -0.22341701 0.04707955 0.03250592
-0.012220367 0.04098693 -0.17000878 0.03172404 0.045516532 -0.023344615 -0.24020967 0.0046440065
-0.03853529 -0.05252637 0.00048453567 0.040052366 -0.149655 -0.12133245 0.048006844 -0.09046183
-0.06414872 -0.039645806 -0.22424047 -0.051379796 -0.25008968 0.055721853 -0.16135141 -0.068343274
0.012120689 -0.05123547 -0.2778165 0.0752754 0.022510486 -0.040201616 0.057497237 0.10193199
0.07984967 -0.052844357 0.07652264 -0.07143038 0.025280934 -0.029550495 -0.21278164 -0.18409188
-0.17734304 0.036493905 -0.013316286 -0.06911281 -0.03410813 -0.008112627 0.0038240761 -0.07205272
0.051263906 -0.22641844 -0.017429419 0.03782603 -0.1357438 -0.024163393 -0.23790966 0.0613182
0.029837612 -0.08579195 0.050310485 0.10047702 -0.20384176 -0.066106625 0.014810245 0.08652666
0.045992225 0.015317559 0.03818799 -0.25415063 -0.10529708 -0.32287437 0.056036163 -0.14004883
-0.09136548 -0.08507299 0.07645994 0.039648023 0.051594365 0.06092164 0.08732234 -0.07507447
-0.017334653 -0.17699157 -0.27758953 0.029211305 -0.19174826 -0.014827645 0.008511219 0.09572488
0.066892155 0.0165405 -0.040447894 0.062227096 0.039884105 0.02937606 0.061801888 -0.10842101
0.05441539 -0.05452854 -0.07517281 -0.21105528 -0.3233018 0.01645446 -0.18099685 -0.18880376
0.027355885 -0.1771666 -0.05664308 0.030620353 -0.30045313 -0.16880338 0.038978107 0.07922517
-0.23230657 -0.0452699 -0.1404112 -0.25623927 0.05569232 -0.3101083 -0.24271844 0.0006298243
-0.08016109 0.032719605 0.014672358 0.07811353 0.10517801 0.0704295 -0.26505023 0.001675668
-0.10520352 0.012142991 -0.019640079 0.024105543 -0.026420234 -0.085338004 -0.15321591 -0.018564304
0.0754271 0.06375042 0.02976135 0.042089254 -0.12763086 -0.093194306 0.10353465 -0.05070511
-0.09699195 0.050866608 -0.2119944 -0.22328015 -0.12934795 -0.20573781 0.043795247 -0.06622854
0.047815993 0.09164499 -0.20563124 -0.018792497 0.03840305 0.034030292 -0.28776467 -0.0086003775
-0.08498652 -0.0057421937 0.08516524 -0.22440222 -0.056807056 -0.028671753 0.037394933 -0.080880456
-0.02704674 -0.13503262 -0.009171576 0.009366675 -0.117427394 0.019393183 0.053241186 -0.12820153
-0.19168496 -0.14487085 -0.0625302 -0.3006063 0.034745943 0.064721465 -0.2109481 0.04417813
-0.055390317 -0.0186487 0.008065041 0.08920486 -0.028403087 -0.12349324 0.0014147054 -0.046842694
-0.23655698 0.034502875 -0.018127115 -0.27641624 0.09645529 -0.07792556 -0.033653617 0.05358871
0.0011076354 0.023386095 -0.021291763 -0.20634721 -0.30801648 -0.36713445 -0.24151118 -0.110214174
00000000: 73bf 02be b6d6 57be 0cba 60be d7db 45be
00000010: 216a b23a 688d adbd 8788 563a 2f81 62be
00000020: 26a8 54be b52c 91be 75de 3dbe 26d1 1a3b
00000030: e7d6 ad3c f599 88be 794e c83b ed56 903d
00000040: 094a 8d3c edff 30bc cb60 c8bc 72f9 59be
00000050: 964e 01be 2ec3 a8bd 1cbf 50be cff5 d939
00000060: b8a3 a1bd 6033 97bb 9245 81be a83d 73be
00000070: 9299 b13b 97f4 533c 77b3 8abe e09f 30be
00000080: 63cf e23c ef67 60bb d44b 83bd 7843 113d
00000090: fd4b 6ebe 89ad 08bd 8b30 5abe 8f1f 57be
000000a0: de8e b53d e86a 94bd b689 43be 3a97 983d
000000b0: ca07 54be 6ec7 64be 7cd6 403d ed24 053d
000000c0: ef37 48bc e9e1 273d c816 2ebe 11f1 013d
000000d0: 8b6f 3a3d 353d bfbc 86f9 75be c02c 983b
000000e0: 2ed7 1dbd e425 57bd 4709 fe39 f30d 243d
000000f0: 293f 19be 267d f8bd d3a2 443d 0d44 b9bd
00000100: 6760 83bd a463 22bd 4b9f 65be 9f73 52bd
00000110: c10b 80be 993c 643d 4e39 25be 8ff7 8bbd
00000120: db95 463c 49dc 51bd f73d 8ebe fd29 9a3d
00000130: e967 b83c 73aa 24bd 3982 6b3d b8c1 d03d
00000140: 3988 a33d 5373 58bd e7b7 9c3d 174a 92bd
00000150: f619 cf3c e113 f2bc 6ee3 59be 9582 3cbe
00000160: 6a99 35be a27a 153d 8d2c 5abc 048b 8dbd
00000170: f7b4 0bbd d3ea 04bc 5a9d 7a3b 6090 93bd
00000180: 1afa 513d 3cda 67be 24c8 8ebc 78ef 1a3d
00000190: 6c00 0bbe 4ff2 c5bc 979e 73be cb28 7b3d
000001a0: 026e f43c b1b3 afbd 5e12 4e3d e5c6 cd3d
000001b0: e5bb 50be e962 87bd aba6 723c e434 b13d
000001c0: 5862 3c3d 80f6 7a3c 036b 1c3d 0820 82be
000001d0: ffa5 d7bd ca4f a5be 2d86 653d f668 0fbe
000001e0: d31d bbbd bf3a aebd 0797 9c3d f765 223d
000001f0: 9d54 533d f888 793d 0ed6 b23d a5c0 99bd
00000200: 6701 8ebc 473d 35be 3720 8ebe 8c4c ef3c
00000210: a859 44be a7ef 72bc a472 0b3c 680b c43d
00000220: c1fe 883d f17f 873c b1ac 25bd d7e1 7e3d
00000230: 845d 233d 10a6 f03c fa23 7d3d d60b debd
00000240: ace2 5e3d 5159 5fbd 34f4 99bd e01e 58be
00000250: d087 a5be 81cb 863c 3d57 39be c655 41be
00000260: 7319 e03c 296b 35be 9302 68bd 89d7 fa3c
00000270: fed4 99be cbda 2cbe 82a7 1f3d ce40 a23d
00000280: c6e1 6dbe ee6c 39bd f4c7 0fbe cb31 83be
00000290: a11d 643d 84c6 9ebe 2f8b 78be cb1a 253a
000002a0: 7f2b a4bd fe04 063d 5464 703c fdf9 9f3d
000002b0: 9267 d73d 573d 903d aab4 87be 17a2 db3a
000002c0: f174 d7bd 65f3 463c 3be4 a0bc fd78 c53c
000002d0: 3f6f d8bc b1c5 aebd a2e4 1cbe 2b14 98bc
000002e0: 8679 9a3d 958f 823d 13ce f33c c865 2c3d
000002f0: aab1 02be a8dc bebd f909 d43d 29b0 4fbd
00000300: b7a3 c6bd 8159 503d 0f15 59be 8da3 64be
00000310: ca73 04be efac 52be a562 333d d4a2 87bd
00000320: b4da 433d 5eb0 bb3d ff90 52be b9f2 99bc
00000330: 844c 1d3d 5963 0b3d e455 93be 99e8 0cbc
00000340: 6a0d aebd 0329 bcbb 1d6b ae3d b2c9 65be
00000350: 84ae 68bd 06e1 eabc 6e2b 193d a7a4 a5bd
00000360: 2091 ddbc fe45 0abe 6144 16bc af76 193c
00000370: c67d f0bd 74de 9e3c 6e13 5a3d 4347 03be
00000380: 1049 44be 0659 14be d50f 80bd 12e9 99be
00000390: c351 0e3d b08c 843d c702 58be 20f4 343d
000003a0: f5e0 62bd 29c5 98bc 3c23 043c 0ab1 b63d
000003b0: 97ad e8bc 06ea fcbd a36d b93a 20de 3fbd
000003c0: fe3b 72be e352 0d3d 517f 94bc 6e86 8dbe
000003d0: 5a8a c53d 7097 9fbd 60d8 09bd d67f 5b3d
000003e0: 142e 913a 3294 bf3c 106c aebc af4c 53be
000003f0: 56b4 9dbe 0cf9 bbbe b54e 77be f8b7 e1bd

out_layer.weight f4 [1, 256]
-0.040881194 -0.10033887 -0.07913588 -0.11654103 -0.041449893 -0.054262217 0.03035567 0.36119947
-0.009996106 0.1333504 -0.07905312 -0.047648422 -0.031569198 0.09696244 -0.040787313 -0.037791096
0.042598277 0.05969254 0.04896775 0.05953815 0.05906873 -0.04131619 -0.0035151043 0.028901085
0.044394806 0.051615197 0.05327835 0.092835166 -0.033501342 0.05773679 0.010172665 0.06971272
0.042099338 0.042848464 -0.041525666 -0.039733704 0.14397697 0.038131725 -0.002544492 0.009899336
-0.05149623 -0.05929266 -0.074745804 -0.047379665 0.04465048 0.06375364 0.051522538 0.047181394
0.05581144 -0.03654548 -0.030015713 -0.052971445 0.038990416 0.034105167 0.024872346 -0.037587695
0.0663526 0.060780726 0.054091536 -0.03703567 -0.07311449 -0.037325222 0.04382199 -0.058471303
-0.03990762 0.04272614 -0.016756082 -0.04327474 -0.25049156 0.052005246 0.050282616 -0.045482922
-0.030592313 -0.042590827 -0.13473837 0.04192973 0.031458523 0.067399085 -0.04605224 -0.03330097
-0.04307213 0.035293452 -0.045981072 -0.040673308 0.036515955 0.052606802 -0.0073364037 0.0018886992
-0.056650348 0.051008705 0.045656428 -0.04789284 -0.03779786 0.057448316 -0.03175527 -0.05697274
-0.04843945 0.0016386786 0.04582063 0.052244857 -0.04453007 0.044394713 0.0011019182 -0.041867763
-0.041754175 -0.059350304 -0.037068225 -0.02771934 -0.023100264 0.042799328 0.04186408 -0.049292322
-0.039470438 -0.03992168 -0.043956935 0.02670461 0.04827075 0.13427487 0.03550607 0.061926585
0.072625235 -0.047717106 0.04581004 -0.027875774 0.030125864 -0.048404194 -0.038828 -0.049106825
0.05693513 -0.11420828 0.025870703 0.04829649 0.0047940835 0.037564248 0.036828853 -0.031129813
-0.05335822 0.037779532 0.04309319 -0.027755564 0.043647286 0.03783712 -0.03731801 -0.04236569
-0.038312715 0.06088273 -0.050212506 0.103079766 0.3814989 0.05226066 0.003902872 0.059669938
-0.052159905 -0.0021102114 0.033536315 0.04443728 0.12757187 -0.12862478 -0.043605823 -0.04346177
-0.01781521 0.07874955 0.07812914 0.090435795 -0.041993797 0.15619183 0.054256458 0.030819833
0.07542579 -0.031207522 0.03970891 -0.03548725 -0.045420166 -0.039106898 0.007673453 -0.036157757
0.08174891 -0.048160847 0.05851829 0.04972942 -0.04623743 -0.059203852 -0.04886083 -0.024682412
-0.035545737 -0.049131297 0.030440861 0.051135596 -0.043424863 -0.056494124 -0.033832636 0.06209786
0.047263395 -0.04005914 0.026047997 0.0040606763 -0.06358685 0.017429076 -0.03953395 -0.03985626
0.0520055 -0.046612114 0.018846283 0.046664704 0.06467918 0.03270599 -0.16654827 -0.03675356
0.05370604 0.04166355 -0.04932602 -0.020120269 -0.07147223 0.040391054 0.03355052 0.06416789
-0.047971267 0.044263702 -0.029039359 0.05577497 -0.08899497 0.040665124 -0.045949843 -0.041020602
0.062065862 -0.06688629 -0.037239864 0.20291257 0.03139572 0.03458563 0.06636472 0.04616422
-0.03918056 0.04648573 0.040119875 -0.032860506 0.037701923 -0.05461814 0.042433746 0.0460396
-0.012380248 0.027830023 -0.04625574 0.1181674 -0.04948685 -0.05414065 0.04183227 0.060310807
0.06676939 -0.021625116 0.034228142 0.014677163 -0.15829194 0.30241808 0.002879502 -0.046609484
00000000: 0a73 27bd 777e cdbd fe11 a2bd 10ad eebd
00000010: 5dc7 29bd 0f42 5ebd 74ac f83c 23ef b83e
00000020: b5c6 23bc 028d 083e 9ae6 a1bd fe2a 43bd
00000030: b44e 01bd 3e94 c63d 9910 27bd d6ca 1abd
00000040: 887b 2e3d 2a80 743d 6892 483d 46de 733d
00000050: 0df2 713d 2a3b 29bd aa5d 66bb f8c1 ec3c
00000060: 54d7 353d 756a 533d 663a 5a3d 5d20 be3d
00000070: b438 09bd 6a7d 6c3d 40ab 263c 8bc5 8e3d
00000080: 5b70 2c3d df81 2f3d d116 2abd cfbf 22bd
00000090: b36e 133e 0330 1c3d 7ec1 26bb d330 223c
000000a0: b6ed 52bd dcdc 72bd 5414 99bd 2e11 42bd
000000b0: 6ce3 363d 4591 823d 4c09 533d 4741 413d
000000c0: 899a 643d b7b0 15bd 83e3 f5bc 96f8 58bd
000000d0: 6ab4 1f3d dcb1 0b3d 17c1 cb3c 8ef5 19bd
000000e0: dfe3 873d 36f5 783d 168f 5d3d b7b2 17bd
000000f0: 0dbd 95bd 55e2 18bd b07e 333d 9b7f 6fbd
00000100: 2c76 23bd 9b01 2f3d 0d44 89bc db40 31bd
00000110: 6e40 80be 7403 553d 25f5 4d3d 4d4c 3abd
00000120: bb9c fabc b873 2ebd dbf8 09be 82be 2b3d
00000130: a7da 003d 8808 8a3d 46a1 3cbd 9966 08bd
00000140: 676c 30bd de8f 103d a656 3cbd 0e99 26bd
00000150: c191 153d 3b7a 573d 3766 f0bb 3b8e f73a
00000160: 320a 68bd 81ee 503d 3c02 3b3d 482b 44bd
00000170: eed1 1abd ed4e 6b3d d011 02bd 3f5c 69bd
00000180: 7268 46bd eec8 d63a 6aae 3b3d b4fe 553d
00000190: 2a65 36bd 3bd7 353d 3d6e 903a 887d 2bbd
000001a0: 6d06 2bbd 4e19 73bd dad4 17bd ab13 e3bc
000001b0: c43c bdbc 594e 2f3d ab79 2b3d bfe6 49bd
000001c0: c1ab 21bd ea84 23bd 300c 34bd a0c3 da3c
000001d0: 8db7 453d 5a7f 093e d06e 113d bba6 7d3d
000001e0: 8abc 943d 0373 43bd 4fa3 3b3d bc5b e4bc
000001f0: 84ca f63c 7a43 46bd 1c0a 1fbd 3d24 49bd
00000200: d034 693d 08e6 e9bd ccee d33c 8ad2 453d
00000210: b017 9d3b f8dc 193d dad9 163d f303 ffbc
00000220: 268e 5abd b6be 1a3d 7c82 303d a35f e3bc
00000230: 7fc7 323d 19fb 1a3d c5da 18bd a587 2dbd
00000240: cbed 1cbd 2b60 793d a1ab 4dbd 7c1b d33d
00000250: d353 c33e 460f 563d 54c7 7f3b 7768 743d
00000260: a0a5 55bd 794b 0abb 605d 093d de03 363d
00000270: 33a2 023e 37b6 03be 059c 32bd f804 32bd
00000280: 34f1 91bc 7247 a13d 2c02 a03d 6736 b93d
00000290: b001 2cbd c0f0 1f3e 053c 5e3d e079 fc3c
000002a0: d678 9a3d eba6 ffbc cfa5 223d 145b 11bd
000002b0: 7f0a 3abd 8e2e 20bd 9771 fb3b 281a 14bd
000002c0: f96b a73d 4f44 45bd e0b0 6f3d 14b1 4b3d
000002d0: 7663 3dbd bd7f 72bd 4b22 48bd c532 cabc
000002e0: 6898 11bd e63d 49bd 1d5f f93c 8f73 513d
000002f0: 45de 31bd 6266 67bd 1794 0abd 535a 7e3d
00000300: 4397 413d 0e15 24bd 9c62 d53c 6c0f 853b
00000310: d339 82bd 6cc7 8e3c 5aee 21bd 5140 23bd
00000320: b803 553d 58ec 3ebd 8563 9a3c 7d23 3f3d
00000330: 8576 843d b7f6 053d a18b 2abe e78a 16bd
00000340: ddfa 5b3d 66a7 2a3d 150a 4abd 43d3 a4bc
00000350: 0860 92bd 1771 253d 456c 093d 746a 833d
00000360: 857d 44bd db4d 353d f3e3 edbc 4c74 643d
00000370: ff42 b6bd 7990 263d e735 3cbd 3805 28bd
00000380: c638 7e3d aefb 88bd d488 18bd 50c8 4f3e
00000390: cc98 003d a9a9 0d3d 3aea 873d b116 3d3d
000003a0: cb7b 20bd d267 3e3d bd54 243d bd98 06bd
000003b0: 556d 1a3d 45b7 5fbd 02cf 2d3d 0594 3c3d
000003c0: 86d6 4abc cafb e33c a976 3dbd c001 f23d
000003d0: b9b2 4abd 96c2 5dbd 5058 2b3d 7708 773d
000003e0: 64be 883d 2827 b1bc cf32 0c3d 7c78 703c
000003f0: 4817 22be 8bd6 9a3e 07b6 3c3b 96e9 3ebd
