model/lstm/models/lstm_model_20250604.pth (torch, 58549 bytes, 7 tensors)

lstm.weight_ih_l0 f4 [128, 5]
-0.15100895 -0.040374834 0.2503873 0.003553223 0.20665428 0.31269112 0.08003162 0.47284755
-0.31056693 0.18065979 0.316229 0.09311394 -0.40479574 0.12512344 -0.1250798 0.033104543
0.29496738 -0.14677034 -0.22258937 -0.1804972 -0.31956702 -0.026735539 0.06947139 -0.3011736
-0.40514192 -0.18508871 -0.20605402 -0.15517549 0.039521683 -0.14036103 -0.27619478 0.16898489
0.11430407 0.09160809 0.097701184 -0.26385105 -0.064554594 -0.3927516 -0.043623514 0.25051236
-0.2080395 -0.36593947 0.12861885 0.50410104 0.5208183 0.15625852 0.37835237 0.27841404
-0.082784854 -0.507223 -0.2967907 -0.16071428 0.019305196 -0.4312277 0.4110553 0.016719114
0.06865944 0.33480307 -0.12622955 -0.019606963 0.20813188 0.45972237 0.121584274 -0.022635272
0.38118425 -0.24237356 -0.09924551 0.3079362 0.07507378 -0.2681472 0.42736223 -0.14247389
0.019729594 0.37572134 0.14743672 0.05013797 0.2301294 0.16916497 0.32196432 0.16148001
0.4890987 0.3126735 0.31739122 -0.09926727 0.1861458 0.08906837 -0.13688347 -0.11198607
0.002667756 0.024611782 -0.2022293 0.17475818 -0.050716825 -0.31979355 0.117826 -0.25145072
0.10776706 -0.27527317 0.056137316 -0.11710259 0.06332585 0.1986951 -0.068751216 0.4583367
-0.1192226 -0.29037407 -0.014117357 -0.20052256 0.09105277 -0.16651718 0.2033349 -0.13931231
0.0094682025 -0.23397757 0.17372194 0.31684545 -0.14034712 0.009100592 -0.16014414 -0.012664498
-0.29547563 -0.39567536 -0.037035964 -0.17104392 0.011276908 -0.075011924 0.48588914 0.05716409
-0.13169825 -0.27123192 0.21759503 -0.38289097 -0.01465667 -0.3465082 -0.6216041 0.030522725
-0.28072375 -0.29790646 -0.12746146 -0.19269334 -0.22357738 0.31374374 0.13348335 0.28652188
0.30170715 0.098371886 0.108936094 0.16451217 0.13631822 0.9144164 0.3323949 -0.19173591
0.011451465 0.058277864 0.14265297 0.0012381054 -0.05589629 -0.26868045 0.22531734 -0.8976752
0.36273587 0.1098866 0.18426926 0.043289106 0.04195394 -0.5280482 -0.51546943 -0.18492879
0.32471985 -0.1959641 -0.028034516 0.096791826 -0.02284207 0.17013645 0.23683539 -0.0931987
-0.05995161 0.21197036 0.023413561 0.0065787015 0.05395868 0.056477185 0.06256032 0.28237483
-0.030130869 -0.40079844 -0.11024721 0.15702313 0.18420687 -0.14509694 -0.1407187 -0.21036823
-0.13338467 0.1583506 0.0070014955 -0.42009073 -0.14535497 -0.16427015 0.16791344 -0.021430893
-0.301516 0.18134768 0.49576074 -0.32044733 -0.24274564 0.45543006 -0.06957631 -0.022628924
0.06453316 0.063655674 -0.21460237 0.23146078 -0.061229523 -0.21123828 -0.4330302 0.19285372
-0.24118122 -0.2533757 -0.09129995 -0.12859504 -0.051387817 -0.32253495 0.1677082 0.049939744
-0.040007964 0.17740265 0.079791404 0.06081071 -0.06354198 -0.00419925 0.18744017 -0.27614954
-0.03141649 0.3815352 -0.07797246 0.2597217 -0.21476921 -0.047643732 -0.16058679 -0.59859186
0.118750714 0.10245432 -0.122976646 -0.5914564 -0.24108751 0.5488826 0.25086156 -0.07898949
-0.18007655 0.014080686 -0.20338382 -0.1933709 -0.28817472 -0.017836358 0.31833702 -0.07595268
00000000: 17a2 1abe 1560 25bd c432 803e 31dd 683b
00000010: 2e9d 533e 0d19 a03e 9ee7 a33d 1319 f23e
00000020: a102 9fbe e1fe 383e c4e8 a13e 85b2 be3d
00000030: 6341 cfbe 5c20 003e eb14 00be a198 073d
00000040: f705 973e f74a 16be 78ee 63be 42d4 38be
00000050: 4a9e a3be 7d04 dbbc 0447 8e3d 6d33 9abe
00000060: c36e cfbe e587 3dbe d3ff 52be 53e6 1ebe
00000070: 7de1 213d cdba 0fbe 6769 8dbe 600a 2d3e
00000080: 4118 ea3d 069d bb3d 8f17 c83d 7c17 87be
00000090: 3335 84bd bd16 c9be 92ae 32bd 2843 803e
000000a0: 4f08 55be 6b5c bbbe a9b4 033e c40c 013f
000000b0: 5954 053f 3c02 203e 67b7 c13e 498c 8e3e
000000c0: 1b8b a9bd 5ed9 01bf f3f4 97be 4992 24be
000000d0: ee25 9e3c e1c9 dcbe d775 d23e 86f6 883c
000000e0: 529d 8c3d 4f6b ab3e 5242 01be c89e a0bc
000000f0: 8620 553e bb60 eb3e 2d01 f93d 9b6d b9bc
00000100: 952a c33e c630 78be 3b41 cbbd d0a9 9d3e
00000110: 48c0 993d 974a 89be 39cf da3e ade4 11be
00000120: f59f a13c 8c5e c03e a7f9 163e 795d 4d3d
00000130: 0ba7 6b3e 9539 2d3e 82d8 a43e 045b 253e
00000140: 256b fa3e be16 a03e 1a81 a23e a34c cbbd
00000150: 019d 3e3e 7a69 b63d 2e2b 0cbe f458 e5bd
00000160: 85d5 2e3b a69e c93c 3315 4fbe cff3 323e
00000170: 72bc 4fbd fbbb a3be c24e f13d 26be 80be
00000180: fab4 dc3d 9bf0 8cbe 3ef0 653d 7cd3 efbd
00000190: fcb0 813d ba76 4b3e 70cd 8cbd 1cab ea3e
000001a0: fa2a f4bd e9ab 94be 7d4c 67bc c955 4dbe
000001b0: e079 ba3d 7b83 2abe 0637 503e e3a7 0ebe
000001c0: 8520 1b3c d197 6fbe 2ae4 313e 9139 a23e
000001d0: 28b7 0fbe a61a 153c d3fc 23be c17e 4fbc
000001e0: 9548 97be f695 cabe 06b3 17bd 2326 2fbe
000001f0: c8c2 383c da9f 99bd 76c6 f83e e524 6a3d
00000200: e8db 06be e9de 8abe 3bd1 5e3e 490a c4be
00000210: 8822 70bc 8669 b1be 7221 1fbf cb0a fa3c
00000220: 06bb 8fbe 3287 98be 4285 02be 6751 45be
00000230: 78f1 64be 05a3 a03e dcaf 083e ffb2 923e
00000240: 5c79 9a3e 3377 c93d e319 df3d e175 283e
00000250: 0197 0b3e 3117 6a3f aa2f aa3e 6b56 44be
00000260: ed9e 3b3c c5b4 6e3d 9f13 123e ec47 a23a
00000270: 82f3 64bd 7c90 89be 97b9 663e 0bce 65bf
00000280: 84b8 b93e 3a0c e13d 15b1 3c3e eb4f 313d
00000290: e5d7 2b3d 2b2e 07bf cef5 03bf f95d 3dbe
000002a0: ae41 a63e d0aa 48be a4a8 e5bc cb3a c63d
000002b0: 4b1f bbbc 4038 2e3e fa84 723e f6de bebd
000002c0: d28f 75bd c20e 593e cccd bf3c 2692 d73b
000002d0: c703 5d3d 9f54 673d a01f 803d 6f93 903e
000002e0: 03d5 f6bc 7435 cdbe 4ac9 e1bd acca 203e
000002f0: baa0 3c3e 4b94 14be 9018 10be c56a 57be
00000300: fe95 08be a926 223e cd6c e53b 2216 d7be
00000310: efd7 14be 6f36 28be 80f1 2b3e d78f afbc
00000320: 4e60 9abe 35b3 393e 5ad4 fd3e ac11 a4be
00000330: 5092 78be 212e e93e 067e 8ebd 4b60 b9bc
00000340: f629 843d e85d 823d b9c0 5bbe 0e04 6d3e
00000350: cfcb 7abd d94e 58be 22b6 ddbe 727b 453e
00000360: 36f8 76be 76ba 81be 78fb babd 6bae 03be
00000370: 087c 52bd 4d23 a5be b3bb 2b3e 9e8d 4c3d
00000380: 64df 23bd 0aa9 353e ad69 a33d a714 793d
00000390: 4c22 82bd dd99 89bb 51f0 3f3e 7963 8dbe
000003a0: 94ae 00bd 9558 c33e 06b0 9fbd 3efa 843e
000003b0: 76ec 5bbe 1326 43bd dd70 24be 513d 19bf
000003c0: 9333 f33d 92d3 d13d 2edb fbbd b069 17bf
000003d0: a5df 76be 9283 0c3f ed70 803e 3ec5 a1bd
000003e0: fd65 38be adb2 663c d943 50be 0503 46be
000003f0: a38b 93be 8e1d 92bc 12fd a23e 148d 9bbd

lstm.weight_hh_l0 f4 [128, 32]
-1.2354741 0.27544057 0.99895173 0.25025526 0.1829765 0.14329262 0.6959088 0.43427065
-0.16060713 0.32477987 0.18467723 -0.3684385 -0.3873081 -1.5231098 -0.8547109 0.32810906
-0.21928316 -0.021570021 0.7102627 1.1951685 0.8241681 1.2576287 -0.106181294 -0.76180124
0.0030279425 -0.78905797 -0.81060904 -0.20166722 -0.11787725 -0.4178451 -0.3378932 0.4291122
-0.46666047 0.23348413 -0.34080705 -0.5558579 -0.14615194 -0.11699791 0.081309125 -0.047952894
0.13404417 0.04262637 -0.2692705 -0.016140066 0.34267962 -0.12623882 0.1804002 0.2683653
0.9536526 -0.3552293 -0.1823792 -0.09495449 0.32257995 0.26462612 0.7036454 0.28671342
0.13290703 -0.2528425 0.71294445 -0.27451256 -0.24532989 -0.16904122 -0.008745477 -0.023123084
-0.41550818 -0.059295982 -0.06468401 -0.6132056 -0.5330434 0.48660114 -0.32982504 0.24034785
0.054289754 0.8389828 0.42512462 0.042459175 -0.29951212 -0.2024502 -0.004558996 0.24291801
-0.32109782 0.090627104 0.31803203 -0.101831585 -0.395731 0.017174589 0.084435195 0.07079566
0.5145199 -0.49216115 -0.12676676 -0.48307016 0.56026083 -0.38164306 0.27984366 0.16867685
-0.84120375 0.22008184 -0.017198425 -0.20214383 -0.037998375 0.77050835 0.10688301 -0.16583925
-0.48654813 -0.11892532 -0.22299388 0.22182354 -0.16230823 -0.203855 0.21688604 0.18883717
-0.081504025 -0.15420203 0.30329564 -0.20576248 -0.45746619 0.29918703 0.07709566 -0.022486422
0.23717909 -0.09651082 -0.47003296 -0.13263357 -0.2471497 -0.20899709 -0.023226444 0.37405384
-1.3708955 0.76025563 0.23600715 0.36781928 0.33718127 0.33781868 0.89846337 0.1628866
-0.03646879 -0.32922137 0.30716184 -0.0862576 -0.4031993 -0.36838722 -0.19458692 0.17383693
-0.6643941 0.36784443 0.8441457 0.4614449 0.15253933 0.27479383 -0.70646894 -0.75505644
0.17150107 -0.22126545 -0.27466753 -0.20828995 -0.5694377 0.052999966 0.72152996 0.3724984
1.0819163 0.4984209 0.16040231 0.66777146 1.139316 0.41909766 -0.30265605 -0.3041155
-0.4435108 -0.26768014 0.27119374 -0.039883018 -0.17959335 0.2234054 0.41800746 0.06477923
-0.54066586 0.14159255 0.37174878 -0.54346305 -0.31355497 -0.3717266 -0.4794054 -0.6530891
-0.38090298 -0.117657445 -0.03056925 -0.7267257 -0.04401555 -0.07028143 0.36788595 -0.015489967
0.07562963 -0.2882109 0.23849006 0.21275605 0.6445864 0.2740601 -0.20793843 0.38244176
0.054024085 -0.20241395 0.23934625 -0.26921913 -0.09157738 -0.16750848 0.07141175 0.38322642
-0.25563422 -0.12929523 0.5860662 -0.17728354 0.60671645 0.07371414 -0.289063 -0.08521371
-0.70417833 -0.014657977 -0.0769719 -0.19700788 0.14527754 -0.46111354 0.011849473 0.35965514
-0.18524912 -0.21994467 -0.14244443 -0.09943159 0.13046132 -0.01138342 -0.34762147 -0.21809003
-0.3339671 0.1559494 -0.2552697 0.16198511 -0.21248485 0.20605542 -0.22199313 0.053018257
-0.13893239 -0.07497975 -0.017055437 -0.10106625 -0.24623586 -0.0868517 -0.03667269 0.08608617
-0.09713091 0.050477266 0.0029820187 -0.18431002 0.3829014 -0.29021117 -0.16288908 0.039403357
00000000: 0424 9ebf 8c06 8d3e 4dbb 7f3f 7521 803e
00000010: 315e 3b3e 4dbb 123e 1427 323f b958 de3e
00000020: 3276 24be 8c49 a63e 071c 3d3e f9a3 bcbe
00000030: 3f4d c6be 43f5 c2bf 55ce 5abf e9fd a73e
00000040: c48b 60be 9db3 b0bc c7d3 353f 48fb 983f
00000050: aefc 523f faf9 a03f 9475 d9bd 6805 43bf
00000060: 7270 463b b4ff 49bf 1384 4fbf da81 4ebe
00000070: a169 f1bd cbef d5be 5600 adbe 98b4 db3e
00000080: 1fee eebe 7716 6f3e 437e aebe b44c 0ebf
00000090: dba8 15be 9a9c efbd 6685 a63d 416a 44bd
000000a0: e042 093e fd98 2e3d d3dd 89be 2c38 84bc
000000b0: b473 af3e c044 01be d4ba 383e 2d67 893e
000000c0: 9422 743f 9de0 b5be 9dc1 3abe 8077 c2bd
000000d0: 3329 a53e 137d 873e 1b22 343f 1acc 923e
000000e0: c818 083e 9274 81be 8783 363f e98c 8cbe
000000f0: c237 7bbe 2419 2dbe 3049 0fbc 9f6c bdbc
00000100: 7dbd d4be 58e0 72bd 0d79 84bd 0bfb 1cbf
00000110: 8875 08bf c923 f93e d4de a8be bf1d 763e
00000120: ef5e 5e3d 94c7 563f efa9 d93e ace9 2d3d
00000130: a759 99be 1b4f 4fbe a163 95bb 80bf 783e
00000140: ef66 a4be b49a b93d 18d5 a23e 148d d0bd
00000150: 419d cabe b9b1 8c3c 5cec ac3d 51fd 903d
00000160: 93b7 033f 8cfc fbbe 25cf 01be f954 f7be
00000170: 416d 0f3f b866 c3be ab47 8f3e a0b9 2c3e
00000180: 2159 57bf 225d 613e b6e3 8cbc cbfe 4ebe
00000190: 2fa4 1bbd 0940 453f 7be5 da3d c4d1 29be
000001a0: d61c f9be 1e8f f3bd 8258 64be b625 633e
000001b0: 2134 26be 5dbf 50be 6017 5e3e 885e 413e
000001c0: 95eb a6bd 23e7 1dbe 9149 9b3e 66b3 52be
000001d0: 0239 eabe 0b2f 993e 54e4 9d3d 7235 b8bc
000001e0: 13df 723e 77a7 c5bd 29a8 f0be 18d1 07be
000001f0: d014 7dbe 5503 56be 6245 bebc fc83 bf3e
00000200: 8179 afbf 1da0 423f dcab 713e cf52 bc3e
00000210: 06a3 ac3e 92f6 ac3e b201 663f bfcb 263e
00000220: 4c60 15bd b48f a8be 5144 9d3e d3a7 b0bd
00000230: 2370 cebe 409d bcbe cb41 47be 4f02 323e
00000240: bb15 2abf 1b56 bc3e ef19 583f 8242 ec3e
00000250: 4533 1c3e c7b1 8c3e 26db 34bf 614b 41bf
00000260: fa9d 2f3e 6993 62be 39a1 8cbe f649 55be
00000270: abc6 11bf 7e16 593d 30b6 383f 1cb8 be3e
00000280: 3c7c 8a3f 0631 ff3e 8140 243e 12f3 2a3f
00000290: 1bd5 913f f893 d63e bcf5 9abe 07b5 9bbe
000002a0: d913 e3be 5f0d 89be e8d9 8a3e 605c 23bd
000002b0: 52e7 37be 63c4 643e 1305 d63e f9aa 843d
000002c0: 1469 0abf a3fd 103e db55 be3e 6520 0bbf
000002d0: 478a a0be f352 bebe a074 f5be d930 27bf
000002e0: b705 c3be 63f6 f0bd 5d6c fabc b20a 3abf
000002f0: a649 34bd b6ef 8fbd 8c5b bc3e a1c9 7dbc
00000300: b5e3 9a3d 6190 93be bd36 743e b9dc 593e
00000310: 9d03 253f 9b51 8c3e d0ed 54be 68cf c33e
00000320: 5c48 5d3d 9a45 4fbe 2f17 753e 17d7 89be
00000330: ec8c bbbd 5887 2bbe 5340 923d 4136 c43e
00000340: 7de2 82be f865 04be 6f08 163f d189 35be
00000350: c551 1b3f 70f7 963d 1100 94be 8784 aebd
00000360: 0845 34bf 0328 70bc 72a3 9dbd 6fbc 49be
00000370: a3c3 143e 1317 ecbe 4b24 423c b824 b83e
00000380: f2b1 3dbe 2d39 61be f4dc 11be caa2 cbbd
00000390: a797 053e 8681 3abc 71fb b1be fe52 5fbe
000003a0: bcfd aabe 33b1 1f3e b6b2 82be 6ddf 253e
000003b0: a195 59be 3100 533e 2b52 63be ac29 593d
000003c0: 4b44 0ebe fc8e 99bd d8b7 8bbc d2fb cebd
000003d0: 4125 7cbe 4edf b1bd 1a36 16bd f24d b03d
000003e0: 92ec c6bd 40c1 4e3d f96d 433b c4bb 3cbe
000003f0: a70b c43e 8f96 94be 65cc 26be 6a65 213d

lstm.bias_ih_l0 f4 [128]
0.6148908 -0.15867077 -0.30004892 -0.2697216 0.15810329 0.17233762 -0.105515905 -0.17808007
-0.02413464 -0.12486997 -0.04530769 -0.20738761 -0.1667374 -0.044153456 0.23655419 -0.040786907
0.05978814 -0.0041687186 0.25934002 -0.07173746 0.14510424 0.10092261 0.32631645 0.003926168
-0.027374266 -0.17536488 -0.115828834 0.494156 -0.26153982 -0.048787244 0.094775416 -0.1858811
-0.33541012 0.17729823 0.016922276 -0.03156155 0.047648255 -0.27039576 -0.050127797 0.07024448
-0.23323691 0.14938265 0.21494368 0.09395283 0.23145488 -0.06113928 -0.16222098 0.311209
0.033936664 0.3156231 -0.15319614 0.2544264 -0.35855246 -0.15367393 -0.06832958 0.05235014
0.03445675 0.11907777 0.20558426 -0.09691949 -0.05121619 0.12505618 -0.48116666 0.0037891085
0.20978846 0.1402924 0.25157553 0.10763813 -0.05296733 -0.24058086 0.048502836 -0.010302706
0.10037215 -0.04470296 -0.025207067 -0.14806427 0.12653789 0.10961677 0.06369583 0.02191947
0.08294402 0.11715659 -0.1350603 -0.054909054 -0.004600641 0.11403861 0.23855327 0.22816955
0.12977107 -0.08902719 0.24547894 0.0041807173 -0.080848694 0.15016566 -0.033735204 0.10360064
0.8383774 0.016623192 -0.12606564 -0.09665744 0.09159976 0.015407391 -0.2767708 -0.36174405
-0.009354999 -0.25613874 0.083302684 0.09234634 -0.2464218 -0.26207927 0.19598979 -0.06316779
0.24492253 -0.11807111 0.34320796 0.15435025 -0.025381705 0.02331892 0.27939847 0.17909527
-0.09253723 -0.123284325 0.09113211 0.19362879 -0.11924433 -0.25964954 0.12128948 -0.18939699
00000000: 7c69 1d3f 977a 22be 03a0 99be f318 8abe
00000010: d4e5 213e 4679 303e b918 d8bd 9f5a 36be
00000020: 02b6 c5bc d4bb ffbd 8e94 39bd 6b5d 54be
00000030: 36bd 2abe 41da 34bd 433b 723e 2c10 27bd
00000040: 69e4 743d bf99 88bb 37c8 843e 17eb 92bd
00000050: 3596 143e 83b0 ce3d f312 a73e 16a7 803b
00000060: ff3f e0bc da92 33be ab37 edbd 0402 fd3e
00000070: 8ce8 85be 22d5 47bd 9d19 c23d 9d57 3ebe
00000080: e0ba abbe ab8d 353e 96a0 8a3c af46 01bd
00000090: d12a 433d 5071 8abe ce52 4dbd 57dc 8f3d
000000a0: a8d5 6ebe c4f7 183e 321a 5c3e 576a c03d
000000b0: 8202 6d3e 2f6d 7abd 421d 26be c956 9f3e
000000c0: 2c01 0b3d 5a99 a13e 73df 1cbe 2d44 823e
000000d0: 3094 b7be b35c 1dbe 61f0 8bbd 1a6d 563d
000000e0: 8522 0d3d 0cdf f33d ae84 523e ba7d c6bd
000000f0: 11c8 51bd ba0e 003e 7a5b f6be b152 783b
00000100: c9d2 563e d0a8 0f3e 82ce 803e 6171 dc3d
00000110: 45f4 58bd d45a 76be e9aa 463d aecc 28bc
00000120: ea8f cd3d 731a 37bd 0d7f cebc 299e 17be
00000130: 2693 013e c27e e03d f672 823d 7690 b33c
00000140: 8ede a93d cbef ef3d 3f4d 0abe 51e8 60bd
00000150: f9c0 96bb 138d e93d 4f47 743e 47a5 693e
00000160: b5e2 043e e353 b6bd d55e 7b3e 66fe 883b
00000170: 0094 a5bd 07c5 193e ed2d 0abd 932c d43d
00000180: e79f 563f 5c2d 883c 5a17 01be 56f4 c5bd
00000190: a898 bb3d 486f 7c3c e7b4 8dbe 8436 b9be
000001a0: b645 19bc 9e24 83be 999a aa3d 1420 bd3d
000001b0: ff55 7cbe 412f 86be 8cb1 483e 1d5e 81bd
000001c0: f9cc 7a3e 44cf f1bd f4b8 af3e fe0d 1e3e
000001d0: 4bed cfbc 5207 bf3c 510d 8f3e c064 373e
000001e0: 2984 bdbd 7e7c fcbd 79a3 ba3d a046 463e
000001f0: 5f36 f4bd c9f0 84be 9e66 f83d 49f1 41be

lstm.bias_hh_l0 f4 [128]
0.68098736 -0.036543533 -0.11053906 0.0035192636 0.27844876 0.16129118 -0.23403981 -0.2356476
-0.2788153 -0.21639839 -0.06906121 -0.06999357 -0.41182077 -0.21175633 0.47080624 -0.12513217
-0.0038789837 0.09291022 0.18135214 -0.013633789 -0.008069185 0.115190335 0.19519615 0.057709027
0.04609891 -0.0953288 -0.043229815 0.3641979 -0.4361649 -0.27469832 0.17900646 -0.19448344
-0.61346006 0.17918177 -0.016181529 0.0769573 0.19628362 -0.26851106 0.07449841 -0.03507943
-0.22281969 -0.090459146 0.26955703 0.09257466 0.080529675 -0.2366997 0.06599327 0.1058415
-0.014852512 0.2656362 -0.24119739 0.08266393 -0.14063981 0.08537507 0.22077644 0.020406343
0.11904052 -0.06871718 0.35829517 -0.22667408 -0.12099595 0.027362354 -0.3503977 -0.09233848
0.045440845 0.010173475 -0.09277247 -0.12217865 0.05990644 -0.1140118 0.041632887 -0.07993205
0.024714414 -0.08735966 0.03466379 0.056935005 -0.13991533 -0.13209723 0.13121602 -0.10551744
0.0848494 0.1266513 0.040117554 0.079553075 -0.022103561 0.054974608 0.043109424 -0.02570555
-0.01739151 -0.146996 -0.001190703 0.09353166 -0.08830255 0.07618646 -0.043250445 -0.038429167
0.6809657 -0.19970919 -0.24770118 0.037200347 0.16547516 -0.10119026 -0.24030596 -0.1862367
0.04545617 -0.07785559 -0.09458877 -0.22862862 -0.044181887 -0.0398268 0.46469074 0.0036913848
0.20672525 -0.100754514 0.3445078 0.16874841 0.19061889 0.025335927 0.08933666 0.1169538
0.13372299 -0.06848932 0.042227607 0.1300793 -0.1808493 -0.11156417 0.19203275 0.070951425
00000000: 3055 2e3f acae 15bd 4d62 e2bd 72a3 663b
00000010: d690 8e3e 8429 253e 22a8 6fbe 9b4d 71be
00000020: e1c0 8ebe 8a97 5dbe f76f 8dbd ca58 8fbd
00000030: 2cda d2be a7d6 58be 840d f13e a622 00be
00000040: 8c36 7ebb b747 be3d 60b4 393e 4160 5fbc
00000050: 9d34 04bc e9e8 eb3d 80e1 473e 4d60 6c3d
00000060: 36d2 3c3d bf3b c3bd bf11 31bd 2678 ba3e
00000070: 0151 dfbe 42a5 8cbe 784d 373e ab26 47be
00000080: b80b 1dbf 6d7b 373e 208f 84bc ca9b 9d3d
00000090: 93fe 483e 487a 89be 9f92 983d 73af 0fbd
000000a0: d82a 64be a542 b9bd 6103 8a3e c997 bd3d
000000b0: beec a43d 6861 72be 7b27 873d 6ec3 d83d
000000c0: f357 73bc 7801 883e 73fc 76be b54b a93d
000000d0: e203 10be 20d9 ae3d 3813 623e 342b a73c
000000e0: 84cb f33d 98bb 8cbd 7772 b73e 401d 68be
000000f0: bacc f7bd 0427 e03c 5467 b3be f51b bdbd
00000100: 2e20 3a3d a6ae 263c 7eff bdbd cd38 fabd
00000110: 7560 753d 057f e9bd 3f87 2a3d 6ab3 a3bd
00000120: e275 ca3c 9fe9 b2bd 9efb 0d3d ae34 693d
00000130: f745 0fbe 7f44 07be 7e5d 063e 8719 d8bd
00000140: 86c5 ad3d e1b0 013e 4e52 243d b9ec a23d
00000150: 8712 b5bc 0e2d 613d 8293 303d 7294 d2bc
00000160: a478 8ebc 1f86 16be 5d11 9cba 878d bf3d
00000170: f8d7 b4bd a607 9c3d 6127 31bd e767 1dbd
00000180: c553 2e3f 9180 4cbe 61a5 7dbe 645f 183d
00000190: 5272 293e d73c cfbd c412 76be d5b4 3ebe
000001a0: 4030 3a3d c072 9fbd c2b7 c1bd 9f1d 6abe
000001b0: 11f8 34bd 6d21 23bd f2eb ed3e 29eb 713b
000001c0: c9af 533e 6258 cebd 5463 b03e 62cc 2c3e
000001d0: 9931 433e 4a8d cf3c 24f6 b63d 7985 ef3d
000001e0: aeee 083e 2144 8cbd dbf6 2c3d 8233 053e
000001f0: 8f30 39be c17b e4bd 3ca4 443e fb4e 913d

fc1.weight f4 [256, 32]
0.07398796 -0.03270331 0.28710407 0.10709222 0.07244409 -0.37328598 -0.054956988 0.23526916
0.17324947 0.08050569 0.29370582 -0.044226553 -0.116403736 -0.17333084 -0.14415914 -0.14473513
0.22129744 0.046733666 0.058198035 0.18707365 0.15942764 0.265863 0.1857436 0.0038996472
-0.14476264 -0.30479705 0.28846195 0.09418286 -0.061031807 -0.16796249 0.011971221 -0.11114194
-0.3062292 -0.034194708 0.074301586 -0.067990966 0.10886916 0.025402905 0.2380127 0.1561527
0.06888343 -0.14373368 -0.23954354 -0.1438962 0.21599399 -0.04636605 0.4231604 0.21279177
0.3487621 0.038627952 0.1884593 -0.09701823 0.25591278 0.22152475 0.09728198 -0.0862246
0.2076328 -0.2002583 -0.24545272 -0.82273173 0.025853513 -0.0033197694 0.078563385 -0.07700896
0.17325369 -0.4182474 -0.008193733 -0.059724428 -0.2482508 -0.14715235 -0.11867609 0.15868606
-0.21674095 0.0074923127 0.3286814 -0.13635528 0.09687613 0.17042772 -0.24225447 0.19276766
-0.25357002 0.3100729 0.008641115 0.27700838 0.08879782 0.07664971 -0.062971056 -0.1686968
-0.33492187 -0.1293264 0.20908268 -0.04175517 -0.13643537 -0.23536602 -0.13274467 0.031478684
-0.4199904 -0.007570448 0.33848748 -0.09832312 -0.07872503 0.046947844 0.13435782 0.10763046
0.22641626 0.14250611 -0.0011680619 -0.08995757 -0.058918975 0.006287611 0.32253084 0.19083615
0.14881195 0.050433587 0.4855026 -0.24389783 0.048804678 0.24678223 0.26325586 0.0041376567
0.28210494 -0.32361707 -0.00520732 -0.7944379 -0.012431109 -0.19356857 0.122480825 0.009110448
0.12231026 -0.17437719 0.2282501 0.0055781845 -0.037340917 -0.1521324 0.2854796 -0.007046106
-0.121252894 -0.24238442 -0.06790873 0.010541972 0.1492523 -0.13360818 -0.044210173 0.11176576
0.0479608 0.11823908 0.057963736 0.0584395 0.07253659 0.16293807 -0.09808568 -0.03582395
0.0509525 -0.2530899 0.07271322 0.05759535 -0.20818642 -0.0075365985 -0.10365947 -0.055984832
0.21170825 0.107354745 0.3357593 0.055267006 0.1340608 0.16011868 0.2131002 0.18545341
0.025679655 0.02612024 0.11514073 -0.16644073 0.09920948 -0.092542194 0.09336533 -0.027990408
0.35729915 0.12035162 -0.22045873 0.17747387 0.14696454 0.28812233 -0.051089004 -0.102334045
-0.09105754 -0.08727757 0.1542598 0.17184246 -0.15125813 -0.07186639 -0.059053063 -0.16883187
-0.074937165 0.13542698 -0.050630182 0.11707375 0.048279017 0.084467985 -0.10042742 -0.019425167
0.12980317 -0.0002357745 0.009879823 -0.05397639 0.08513108 0.07173633 -0.008997073 -0.29775643
0.12308674 -0.13202232 -0.06268354 -0.19838782 -0.26461533 -0.2112281 0.005185408 0.11514866
0.03466513 0.051013112 -0.018585611 -0.0051334924 0.0028737257 0.1384913 -0.06732483 -0.11791457
-0.018811192 -0.11882233 -0.2730156 0.0829225 0.073792264 0.16495839 -0.22464257 -0.17842631
0.1844514 0.16254638 0.15237284 0.08690393 0.021811385 -0.10616734 0.051457938 0.026533319
-0.16575986 0.28217855 0.3246502 -0.23792279 0.40077043 -0.04788484 -0.122376576 -0.21161821
0.4592451 -0.09101186 0.28375393 -0.9094016 0.29103258 -0.24108009 -0.08728098 -0.1911036
00000000: 0087 973d e8f3 05bd 4eff 923e 2a53 db3d
00000010: 915d 943d 571f bfbe 941a 61bd 66ea 703e
00000020: 4f68 313e 2be0 a43d 9c60 963e e726 35bd
00000030: 1565 eebd a47d 31be 749e 13be 7235 14be
00000040: cc9b 623e cd6b 3f3d 1061 6e3d 3c90 3f3e
00000050: 0041 233e 321f 883e 9233 3e3e 3991 7f3b
00000060: a83c 14be 5c0e 9cbe 49b1 933e f1e2 c03d
00000070: 7dfc 79bd 5cfe 2bbe f122 443c 639e e3bd
00000080: 13ca 9cbe c00f 0cbd 6e2b 983d d93e 8bbd
00000090: cbf6 de3d c119 d03c 9ab9 733e 7ee6 1f3e
000000a0: c112 8d3d ec2e 13be e74a 75be 8759 13be
000000b0: 872d 5d3e 54ea 3dbd 7ba8 d83e 16e6 593e
000000c0: f290 b23e 5838 1e3d 7afb 403e 7eb1 c6bd
000000d0: 0007 833e 62d7 623e c63b c73d 8696 b0bd
000000e0: b19d 543e 8310 4dbe f557 7bbe 8c9e 52bf
000000f0: bfca d33c 7d90 59bb d7e5 a03d e0b6 9dbd
00000100: 6a69 313e 8624 d6be 023f 06bc 9aa1 74bd
00000110: 7535 7ebe 1baf 16be 730c f3bd 997e 223e
00000120: 57f1 5dbe 1382 f53b ee48 a83e b8a0 0bbe
00000130: fe66 c63d 9b84 2e3e 8e11 78be e364 453e
00000140: eed3 81be e0c1 9e3e 7793 0d3c 0bd4 8d3e
00000150: a2db b53d 86fa 9c3d f8f6 80bd dbbe 2cbe
00000160: e17a abbe 246e 04be c519 563e 7807 2bbd
00000170: b7b5 0bbe ca03 71be 38ee 07be cbef 003d
00000180: fb08 d7be 8511 f8bb 3b4e ad3e a25d c9bd
00000190: 973a a1bd 624c 403d 1995 093e 5c6d dc3d
000001a0: aad9 673e 1fed 113e a719 99ba ad3b b8bd
000001b0: 0655 71bd 4e08 ce3b c322 a53e 8d6a 433e
000001c0: 2962 183e 7393 4e3d cc93 f83e 5ac0 79be
000001d0: 6ae7 473d 7bb4 7c3e 79c9 863e 2e95 873b
000001e0: 0f70 903e 23b1 a5be 2ba2 aabb 4860 4bbf
000001f0: daab 4bbc d736 46be 3ad7 fa3d fd43 153c
00000200: cd7d fa3d ef8f 32be 65ba 693e 34c9 b63b
00000210: caf2 18bd 99c8 1bbe 622a 923e 05e3 e6bb
00000220: 7053 f8bd 9f33 78be bb13 8bbd 3cb8 2c3c
00000230: 98d5 183e 95d0 08be ba15 35bd 72e5 e43d
00000240: 8b72 443d 5527 f23d 626b 6d3d 425e 6f3d
00000250: 108e 943d 3dd9 263e 25e1 c8bd 22bc 12bd
00000260: 92b3 503d 0095 81be abea 943d 1ae9 6b3d
00000270: d22e 55be 92f5 f6bb 6b4b d4bd 5a50 65bd
00000280: 0cca 583e cedc db3d a5e8 ab3e a85f 623d
00000290: 3c47 093e 27f6 233e f036 5a3e 80e7 3d3e
000002a0: 245e d23c 1dfa d53c e7ce eb3d 706f 2abe
000002b0: 572e cb3d c386 bdbd 5236 bf3d 244c e5bc
000002c0: eaef b63e e97a f63d efbf 61be b6bb 353e
000002d0: df7d 163e c584 933e b442 51bd 8394 d1bd
000002e0: 607c babd 95be b2bd 48f6 1d3e 78f7 2f3e
000002f0: 69e3 1abe b02e 93bd a0e1 71bd 43e2 2cbe
00000300: a878 99bd 5fad 0a3e 9861 4fbd 5dc4 ef3d
00000310: 38c0 453d 8dfd ac3d e4ac cdbd 8721 9fbc
00000320: 1feb 043e 3c3a 77b9 fbde 213c 5916 5dbd
00000330: 3459 ae3d 7fea 923d 7668 13bc 8873 98be
00000340: e714 fc3d dc30 07be 3a60 80bd 2d26 4bbe
00000350: a97b 87be 2e4c 58be 5bea a93b 10d3 eb3d
00000360: 06fd 0d3d 20f3 503d da40 98bc db36 a8bb
00000370: 1e55 3c3b aad0 0d3e 9ae1 89bd 327d f1bd
00000380: ee19 9abc 1f59 f3bd b3c8 8bbe 46d3 a93d
00000390: 6620 973d daea 283e b408 66be 63b5 36be
000003a0: d4e0 3c3e 8f72 263e a007 1c3e b0fa b13d
000003b0: caad b23c 436e d9bd 8fc5 523d 675c d93c
000003c0: f4bc 29be b579 903e 8d38 a63e 08a2 73be
000003d0: c831 cd3e e522 44bd 92a0 fabd 72b2 58be
000003e0: 2c22 eb3e 6d64 babd 3248 913e 8bce 68bf
000003f0: 3902 953e b3dd 76be 5fc0 b2bd aab0 43be

fc1.bias f4 [256]
-0.09273064 -0.23350859 -0.21945971 -0.20387909 0.028295586 -0.088499896 0.011516287 -0.19531311
-0.20767269 -0.26949406 -0.15647797 0.0020663696 0.03659746 -0.311634 0.010829222 0.09967379
0.024725983 -0.016714854 -0.025123373 -0.20253271 -0.12574945 -0.07632776 -0.20385402 -0.0031216624
-0.093212865 0.00246747 -0.28267 -0.27257523 0.036219165 0.0053573907 -0.27090046 -0.1632586
0.018543417 -0.009802304 -0.030112552 0.06281936 -0.22191408 -0.030596605 -0.2130758 -0.21008132
0.070851125 -0.08770843 -0.16994824 0.06950439 -0.23485087 -0.24238549 0.051306497 0.038698927
-0.0054532364 0.0099755535 -0.17000878 0.016434338 0.043860905 -0.020780072 -0.24020967 -0.00200762
-0.033700384 -0.047517136 -0.016476305 0.06654123 -0.13879228 -0.09544162 0.054998025 -0.09767468
-0.07155318 -0.033621687 -0.22424047 -0.05718272 -0.2663928 0.056625504 -0.18852948 -0.07132834
0.006328887 -0.038316976 -0.27697867 0.074481234 0.019105336 -0.041165706 0.034033228 0.08717947
0.103799835 -0.05379248 0.051791202 -0.07949674 0.04273374 -0.026188064 -0.21278164 -0.18409188
-0.18221772 0.04522318 0.0002309096 -0.044852544 -0.018388709 -0.0031384132 -0.010059919 -0.06295444
0.061961062 -0.22641844 0.0021338826 0.042030737 -0.11641944 -0.0027276897 -0.23790966 0.056438386
0.03784562 -0.08996128 0.041139938 0.110248916 -0.20384176 -0.058964517 0.019747209 0.07833989
0.053726044 0.021496775 0.04130786 -0.25415063 -0.084563434 -0.33548504 0.06828269 -0.12778248
-0.092738084 -0.10607151 0.081411205 0.040342994 0.053425804 0.03805174 0.07424929 -0.070452034
-0.017224703 -0.18630138 -0.27758953 0.03944897 -0.19174826 -0.01076562 -0.009323969 0.09103546
0.061554093 0.033076808 -0.025753856 0.07885092 0.053737175 0.041193377 0.049814712 -0.114846714
0.04093518 -0.05099772 -0.068384714 -0.2643025 -0.33135357 0.020959653 -0.18099685 -0.22713014
0.055061612 -0.1771666 -0.060430568 0.02944031 -0.312212 -0.16263416 0.023100486 0.03276793
-0.23230657 -0.039741673 -0.12463297 -0.2640808 0.060365077 -0.32122535 -0.25687897 0.015518431
-0.08889065 0.011291463 0.0036292563 0.0819831 0.11237969 0.07733598 -0.2633827 -0.0007044473
-0.07899956 0.027750324 -0.012561348 0.030649481 -0.04093967 -0.09747595 -0.14796896 -0.036765788
0.062125612 0.074027434 0.026531296 0.050013527 -0.15021147 -0.06977341 0.10957258 -0.044588596
-0.10156389 0.06808602 -0.2119944 -0.22328015 -0.100983314 -0.20573781 0.054608934 -0.082659304
0.04845174 0.0881399 -0.20563124 -0.016362308 0.03402437 0.033985376 -0.32054943 -0.012416461
-0.09206348 -0.0226783 0.10947999 -0.22440222 -0.06328132 -0.0045021498 0.048285376 -0.069198065
-0.03437948 -0.14159457 -0.008391344 0.001429147 -0.12283984 0.034801766 0.040458243 -0.15009457
-0.23678598 -0.12399847 -0.033020373 -0.29741487 0.04729388 0.07351231 -0.21282552 0.05449207
-0.058712292 -0.04211243 0.010178359 0.07879552 -0.013432007 -0.12196831 0.0009125635 -0.05288796
-0.23655698 0.02833971 0.0039649587 -0.2886167 0.124490306 -0.10446654 -0.0234008 0.0482446
-0.006720514 0.051289827 -0.021169018 -0.20634721 -0.3427976 -0.40082714 -0.24151118 -0.13740969
00000000: 90e9 bdbd e01c 6fbe 0cba 60be aec5 50be
00000010: 25cc e73c 6f3f b5bd cfae 3c3c 2900 48be
00000020: 26a8 54be 20fb 89be c33b 20be ee6b 073b
00000030: 38e7 153d 7e8e 9fbe 0d6d 313c c621 cc3d
00000040: 258e ca3c 97ed 88bc 88cf cdbc bc64 4fbe
00000050: 77c4 00be bb51 9cbd 1cbf 50be ce94 4cbb
00000060: 63e6 bebd 47b5 213b 1fba 90be fb8e 8bbe
00000070: 8c5a 143d 0d8d af3b 77b3 8abe 432d 27be
00000080: 5de8 973c d899 20bc 99ae f6bc 70a7 803d
00000090: 723d 63be bba5 fabc 8b30 5abe 8f1f 57be
000000a0: 651a 913d 7aa0 b3bd e906 2ebe 5158 8e3d
000000b0: bf7c 70be e733 78be c326 523d c482 1e3d
000000c0: 10b1 b2bb 8170 233c c816 2ebe 4ea1 863c
000000d0: 7ea7 333d f83a aabc 86f9 75be 4692 03bb
000000e0: 6a09 0abd 54a1 42bd 51f9 86bc c546 883d
000000f0: 901f 0ebe e576 c3bd 9c45 613d aa09 c8bd
00000100: 798a 92bd e5b6 09bd 4b9f 65be 6e38 6abd
00000110: a364 88be 25f0 673d df0d 41be 9814 92bd
00000120: 8d62 cf3b 43f2 1cbd 26d0 8dbe 9e89 983d
00000130: cb82 9c3c 5f9d 28bd 6d66 0b3d 268b b23d
00000140: 0295 d43d 8155 5cbd 0323 543d 30cf a2bd
00000150: 9309 2f3d 5a88 d6bc 6ee3 59be 9582 3cbe
00000160: 4897 3abe f13b 393d 5320 7239 4db7 37bd
00000170: eba3 96bc d6ad 4dbb 5cd2 24bc 42ee 80bd
00000180: e2ca 7d3d 3cda 67be 9cd8 0b3b 6c28 2c3d
00000190: 516d eebd 0ac3 32bb 979e 73be f02b 673d
000001a0: 0204 1b3d 9f3d b8bd 5a82 283d 2fca e13d
000001b0: e5bb 50be c784 71bd e6c4 a13c aa70 a03d
000001c0: d70f 5c3d 011a b03c 6e32 293d 0820 82be
000001d0: 982f adbd b2c4 abbe ccd7 8b3d 69d9 02be
000001e0: 77ed bdbd 053c d9bd ebba a63d b23e 253d
000001f0: 04d5 5a3d 24dc 1b3d 0310 983d 2849 90bd
00000200: d21a 8dbc cac5 3ebe 3720 8ebe 3e95 213d
00000210: a859 44be 4862 30bc 8fc3 18bc cd70 ba3d
00000220: 2520 7c3d 8c7b 073d c0f9 d2bc 977c a13d
00000230: 831b 5c3d 63ba 283d 830a 4c3d c134 ebbd
00000240: a6ab 273d fce2 50bd 490d 8cbd a852 87be
00000250: 2da7 a9be 94b3 ab3c 3d57 39be ce94 68be
00000260: 4988 613d 296b 35be 0b86 77bd ce2c f13c
00000270: 40da 9fbe 9289 26be 3b3d bd3c aa37 063d
00000280: c6e1 6dbe 2ac8 22bd 923f ffbd 9935 87be
00000290: 5f41 773d a677 a4be a485 83be 0441 7e3c
000002a0: 4d0c b6bd d4ff 383c d1d8 6d3b c1e6 a73d
000002b0: 5327 e63d 5462 9e3d 19da 86be a8aa 38ba
000002c0: 85ca a1bd a654 e33c 1dce 4dbc 9f14 fb3c
000002d0: 5bb0 27bd 79a1 c7bd 2d85 17be b997 16bd
000002e0: 6d77 7e3d b29b 973d 2958 d93c fcda 4c3d
000002f0: 09d1 19be 5de5 8ebd 9767 e03d 88a2 36bd
00000300: bb00 d0bd af70 8b3d 0f15 59be 8da3 64be
00000310: 57d0 cebd efac 52be 9ead 5f3d 4849 a9bd
00000320: 5575 463d b182 b43d ff90 52be 3f0a 86bc
00000330: 235d 0b3d 4034 0b3d 0e1f a4be 696e 4bbc
00000340: c78b bcbd d8c7 b9bc 0c37 e03d b2c9 65be
00000350: a399 81bd c586 93bb e3c6 453d b7b7 8dbd
00000360: 7fd1 0cbd 2bfe 10be d97b 09bc 3752 bb3a
00000370: 7493 fbbd 4c8c 0e3d 8bb7 253d 64b2 19be
00000380: 0678 72be e9f2 fdbd 5f40 07bd c346 98be
00000390: 3ab7 413d 9f8d 963d efee 59be 1433 5f3d
000003a0: 4d7c 70bd 157e 2cbd 22c3 263c 8c5f a13d
000003b0: ec11 5cbc 85ca f9bd 1a39 6f3a 0ca1 58bd
000003c0: fe3b 72be ae28 e83c 7cec 813b 91c5 93be
000003d0: c6f4 fe3d 8ef2 d5bd 09b3 bfbc 219c 453d
000003e0: c237 dcbb 4815 523d a66a adbc af4c 53be
000003f0: 2b83 afbe 3739 cdbe b54e 77be 20b5 0cbe

out_layer.weight f4 [1, 256]
-0.034295622 -0.12505995 -0.07913588 -0.1479827 -0.034188494 -0.0479859 0.030718869 0.41074938
-0.009996106 0.1431904 -0.11870745 -0.035347726 -0.033233676 0.05381942 -0.0332717 -0.04973409
0.033211555 0.0534798 0.042287692 0.08609769 0.07308222 -0.01876029 -0.0035151043 0.028254395
0.017894214 0.06657332 0.014804947 0.096883394 -0.038654167 0.058862768 0.010172665 0.08133579
0.040374607 0.040512595 -0.024986913 -0.02164448 0.16144314 0.032470662 -0.002544492 0.009899336
-0.033067357 -0.050153185 -0.1269088 -0.052190058 0.034458216 0.06480195 0.058099218 0.032998554
0.042330377 -0.027124085 -0.030015713 -0.001511677 0.021551227 0.03269272 0.024872346 -0.0053730486
0.07512188 0.07248455 0.02717855 -0.029477285 -0.08762239 -0.05511457 0.035400603 -0.043383244
-0.025045486 0.042269938 -0.016756082 -0.058663316 -0.2617796 0.05434819 0.05123797 -0.03032301
-0.03402888 -0.0450622 -0.17672728 0.0376356 0.029182361 0.06571774 -0.031466972 -0.021193761
-0.1119251 0.029553121 -0.015874308 -0.0582663 0.047990177 0.048490997 -0.0073364037 0.0018886992
-0.08183728 0.048839025 0.05199292 -0.046627376 -0.035798427 0.048087206 -0.018416677 -0.043971892
-0.034879714 0.0016386786 0.040071007 0.04351449 -0.031918395 0.045562875 0.0011019182 -0.04010699
-0.034978233 -0.0600428 -0.026378814 -0.036751986 -0.023100264 0.021880932 0.051012788 -0.045574747
-0.036590777 -0.060823064 -0.017614776 0.02670461 0.026025686 0.12825952 0.037642792 0.0657165
0.052135542 -0.038206983 0.037883922 -0.055662714 0.02453233 -0.05068587 -0.05034299 -0.048592832
0.051980123 -0.14459956 0.025870703 0.050936818 0.0047940835 0.0347984 0.037392233 -0.040668253
-0.04229911 0.030675968 0.035617024 -0.014728621 0.052587543 0.049638737 -0.018628655 -0.04513121
-0.055947185 0.06911715 -0.031091444 0.059761185 0.3731011 0.033070877 0.003902872 0.037156157
-0.068998106 -0.0021102114 0.03524695 0.050107207 0.11681529 -0.18629383 -0.016055878 -0.016692607
-0.01781521 0.08579615 0.080437556 0.1248116 -0.025887802 0.14639647 0.083453156 0.043780606
0.05858211 -0.010142012 0.022240596 -0.049001496 -0.051152896 -0.016218476 0.04219703 -0.051014427
0.109268785 -0.039189525 0.05294344 0.05686196 -0.0197487 -0.046548963 -0.016153285 -0.028286695
-0.008809291 -0.041537475 0.03473763 0.041432854 -0.03520039 -0.059479702 -0.019146811 0.062687844
0.038434464 -0.056504495 0.026047997 0.0040606763 -0.04753571 0.017429076 -0.05182561 -0.03641472
0.05349748 -0.030373348 0.018846283 0.037562497 0.07267707 0.027562683 -0.1386245 -0.04373364
0.06931969 0.03873976 -0.055402413 -0.020120269 -0.07203955 0.04086655 0.04512664 0.06677228
-0.033733357 0.03140137 -0.043213792 0.060509518 -0.06381185 0.058362275 -0.025423003 -0.013008637
0.012432286 -0.048436724 -0.04274597 0.18894628 0.047366377 0.030081024 0.057527624 0.05125119
-0.016778976 0.045036014 0.02885774 -0.042492583 0.027082125 -0.040627725 0.05367939 0.04686969
-0.012380248 0.035466522 -0.045517407 0.12658828 -0.04084483 -0.019168014 0.039062258 0.060494445
0.06949848 -0.07408633 0.022071034 0.014677163 -0.12937862 0.3114583 0.002879502 -0.018296544
00000000: 9179 0cbd b70f 00be fe11 a2bd c788 17be
00000010: 3c09 0cbd dd8c 44bd 23a6 fb3c be4d d23e
00000020: b5c6 23bc 81a0 123e e41c f3bd c7c8 10bd
00000030: 0920 08bd c171 5c3d e847 08bd f9b5 4bbd
00000040: d708 083d a20d 5b3d dc35 2d3d fc53 b03d
00000050: 22ac 953d 2eaf 99bc aa5d 66bb c375 e73c
00000060: e396 923c 9857 883d 7390 723c cd6a c63d
00000070: d553 1ebd 161a 713d 40ab 263c 6193 a63d
00000080: d85f 253d 89f0 253d 5bb1 ccbc c44f b1bc
00000090: 5a51 253e f5ff 043d 7ec1 26bb d330 223c
000000a0: a371 07bd 6d6d 4dbd 61f4 01be 3ec5 55bd
000000b0: 0f24 0d3d e2b6 843d 72f9 6d3d 7e29 073d
000000c0: 9e62 2d3d 5433 debc 83e3 f5bc 7723 c6ba
000000d0: 338c b03c cde8 053d 17c1 cb3c 6610 b0bb
000000e0: 80d9 993d c872 943d 8da5 de3c 597a f1bc
000000f0: 5e73 b3bd d1bf 61bd 3900 113d a1b2 31bd
00000100: 312c cdbc 3e23 2d3d 0d44 89bc f248 70bd
00000110: fa07 86be 359c 5e3d e8de 513d f667 f8bc
00000120: de61 0bbd 2493 38bd fff7 34be c927 1a3d
00000130: d90f ef3c 0697 863d 83e3 00bd 8a9e adbc
00000140: fd38 e5bd 6319 f23c d60a 82bc a5a8 6ebd
00000150: 5991 443d 7f9e 463d 3766 f0bb 3b8e f73a
00000160: 4e9a a7bd 6e0b 483d 87f6 543d 59fc 3ebd
00000170: 5fa1 12bd 17f7 443d 92de 96bc df1b 34bd
00000180: 08de 0ebd eec8 d63a 7f21 243d 403c 323d
00000190: ddbc 02bd 23a0 3a3d 3d6e 903a 3a47 24bd
000001a0: 5645 0fbd 70ef 75bd 6218 d8bc 4089 16bd
000001b0: c43c bdbc a43f b33c c9f2 503d 96ac 3abd
000001c0: 36e0 15bd 9b21 79bd dd4c 90bc a0c3 da3c
000001d0: d233 d53c 7756 033e 542f 1a3d 5f96 863d
000001e0: 148c 553d ed7e 1cbd 2c2c 1b3d 96fe 63bd
000001f0: 06f8 c83c fd9b 4fbd 7334 4ebd 4709 47bd
00000200: 1ce9 543d e811 14be ccee d33c 20a3 503d
00000210: b017 9d3b c488 0e3d 9928 193d c193 26bd
00000220: d541 2dbd 2b4c fb3c 28e3 113d 5050 71bc
00000230: 0966 573d fd51 4b3d 1f9b 98bc 81db 38bd
00000240: e028 65bd 4b8d 8d3d 7cb3 febc 25c8 743d
00000250: 1b07 bf3e 5475 073d 54c7 7f3b 0e31 183d
00000260: e14e 8dbd 794b 0abb 1b5f 103d 373d 4d3d
00000270: db3c ef3d cfc3 3ebe 9e87 83bc efbe 88bc
00000280: 34f1 91bc e4b5 af3d 72bc a43d 399d ff3d
00000290: a812 d4bc f5e8 153e 7de9 aa3d 4b53 333d
000002a0: cbf3 6f3d ae2a 26bc e931 b63c cbb5 48bd
000002b0: b385 51bd 9cdc 84bc cbd6 2c3d 81f4 50bd
000002c0: 50c8 df3d 3285 20bd 38db 583d 16e8 683d
000002d0: 07c8 a1bc 20aa 3ebd e553 84bc 80b9 e7bc
000002e0: d854 10bc 3323 2abd 0c49 0e3d 7fb5 293d
000002f0: 492e 10bd fda0 73bd c6d9 9cbc 7c62 803d
00000300: 756d 1d3d 4271 67bd 9c62 d53c 6c0f 853b
00000310: ceb4 42bd 6cc7 8e3c 1747 54bd 9a27 15bd
00000320: 2c20 5b3d 87d1 f8bc 8563 9a3c 22db 193d
00000330: b7d7 943d 23cb e13c 95f3 0dbe 0c22 33bd
00000340: 7bf7 8d3d 95ad 1e3d a4ed 62bd 43d3 a4bc
00000350: 7989 93bd af63 273d b6d6 383d e8bf 883d
00000360: fd2b 0abd b99e 003d f200 31bd d4d8 773d
00000370: caaf 82bd 480d 6f3d e743 d0bc 2e22 55bc
00000380: c9b0 4b3c 9665 46bd 6616 2fbd 227b 413e
00000390: 3f03 423d 7b6c f63c 16a2 6b3d c5ec 513d
000003a0: 1074 89bc af77 383d 1167 ec3c b40c 2ebd
000003b0: 55db dd3c 4269 26bd ecde 5b3d 6ffa 3f3d
000003c0: 86d6 4abc 5845 113d 7670 3abd 5ca0 013e
000003d0: e94c 27bd 3d06 9dbc bfff 1f3d 06c9 773d
000003e0: 3855 8e3d 93ba 97bd 50ce b43c 7c78 703c
000003f0: d47b 04be 7677 9f3e 07b6 3c3b a2e2 95bc
