model/lstm/models/lstm_model_20250603.pth (torch, 58549 bytes, 7 tensors)

lstm.weight_ih_l0 f4 [128, 5]
0	0xbe234e0a	-0.15947738
1	0xbd4e8765	-0.05042209
2	0x3e81997f	0.2531242
3	0x3bfda1d3	0.007740238
4	0x3e5c354a	0.21504703
5	0x3e9f3620	0.31095982
6	0x3d65656a	0.05600492
7	0x3eeac81a	0.4585579
8	0xbe97c867	-0.29645082
9	0x3e52250e	0.20521948
10	0x3e94d756	0.29070538
11	0x3dba216b	0.09088405
12	0xbed1e928	-0.40998197
13	0x3e083acc	0.13303679
14	0xbdfa8e2d	-0.12234149
15	0x3c1fceab	0.009753863
16	0x3e94b4d9	0.29044226
17	0xbe13f06b	-0.14447181
18	0xbe60d3be	-0.21955773
19	0xbe435c05	-0.19078071
20	0xbeaf3e97	-0.3422744
21	0xbcbee6c9	-0.023303406
22	0x3d93abc3	0.07210495
23	0xbe98dde1	-0.2985678
24	0xbed440a2	-0.4145556
25	0xbe307b29	-0.17234482
26	0xbe579276	-0.21051964
27	0xbe3b0d24	-0.18266732
28	0x3d3c23e1	0.045932654
29	0xbe0e5425	-0.13899286
30	0xbe856098	-0.26050258
31	0x3e20fac9	0.15720667
32	0x3df56117	0.11981409
33	0x3db18315	0.0866758
34	0x3dbcc525	0.0921729
35	0xbe8a57d1	-0.27020124
36	0xbdc6124d	-0.09671459
37	0xbec7df80	-0.39037704
38	0xbd162cf1	-0.036663953
39	0x3e82d578	0.2555349
40	0xbe501da4	-0.20323807
41	0xbec407e6	-0.38287276
42	0x3e14aeac	0.14519757
43	0x3effa937	0.49933788
44	0x3f098bb1	0.5372878
45	0x3e22ff67	0.15917741
46	0x3eba4c15	0.3638617
47	0x3e887231	0.2664962
48	0xbda33ee8	-0.07970983
49	0xbf0067ae	-0.501582
50	0xbe975665	-0.295581
51	0xbe31685a	-0.17324963
52	0xbb6ecd9a	-0.0036438466
53	0xbed2f3c0	-0.41201591
54	0x3ed862c8	0.42262864
55	0x3d147fda	0.03625474
56	0x3dc8f0be	0.09811543
57	0x3eabe49f	0.33572862
58	0xbdff96ba	-0.12479921
59	0xbcf2850d	-0.02960446
60	0x3e446da6	0.19182453
61	0x3ee130ad	0.4398245
62	0x3de1f365	0.11032752
63	0xbcbdb8c3	-0.02315939
64	0x3ebc33dd	0.3675832
65	0xbe780337	-0.24219976
66	0xbe09b5bb	-0.13448231
67	0x3ea25f58	0.31713367
68	0x3d8a88a0	0.067643404
69	0xbe6e1778	-0.2325114
70	0x3ee41421	0.44546607
71	0xbe1495d3	-0.14510278
72	0x3c2c1fbe	0.010505615
73	0x3ebcf0b3	0.3690239
74	0x3e14b6d8	0.14522874
75	0x3d91821e	0.07104896
76	0x3e629c43	0.22129922
77	0x3e1bb329	0.15205063
78	0x3ea4caa3	0.3218585
79	0x3e1e4a79	0.15458097
80	0x3ef342d9	0.47511938
81	0x3eab3cf2	0.33444935
82	0x3eb43c85	0.35202423
83	0xbdbf4e42	-0.09341098
84	0x3e3c3425	0.18379267
85	0x3ddde1cb	0.10834082
86	0xbdf3a2da	-0.11896296
87	0xbe013ae6	-0.12620124
88	0xbc0e48da	-0.008684361
89	0xb8f4d79f	-0.00011674989
90	0xbe5aa7c7	-0.21353064
91	0x3e2bded4	0.16784221
92	0xbd540dd1	-0.05177099
93	0xbea0d346	-0.3141119
94	0x3de283fa	0.11060329
95	0xbe80f9ff	-0.25190732
96	0x3da68849	0.08131463
97	0xbe86c5e9	-0.26322868
98	0x3d66939d	0.05629312
99	0xbde3ceb4	-0.1112341
100	0x3d62a79d	0.05533563
101	0x3e241d71	0.16026856
102	0xbd198650	-0.037481606
103	0x3ee9ff85	0.45702758
104	0xbdde5594	-0.108561665
105	0xbe98b204	-0.29823315
106	0xbd1d4498	-0.038395494
107	0xbe6a71a8	-0.22894919
108	0x3db46d45	0.08809904
109	0xbe181d3e	-0.14854905
110	0x3e355c08	0.17710888
111	0xbe08c24c	-0.13355368
112	0x3d09722b	0.033556145
113	0xbe5f7f7f	-0.2182598
114	0x3e26634f	0.1624882
115	0x3ea29c39	0.31759813
116	0xbdf44dde	-0.119289145
117	0x3bd53b48	0.006507311
118	0xbe220141	-0.15820791
119	0xbca8f09f	-0.02062255
120	0xbe92e460	-0.2868986
121	0xbecc2305	-0.39870468
122	0xbd68ac4b	-0.056804936
123	0xbe27525c	-0.16340011
124	0x3c9256f2	0.017863724
125	0xbd9206e0	-0.071302176
126	0x3efc6d19	0.49301985
127	0x3d4a4c6b	0.049389284
128	0xbe08ac70	-0.1334703
129	0xbe8e35ca	-0.27775413
130	0x3e712362	0.23548654
131	0xbeb9d6e7	-0.3629677
132	0x3b41bf3b	0.0029563445
133	0xbeb4b9f1	-0.35298112
134	0xbf20fb12	-0.628831
135	0x3ca60845	0.020267615
136	0xbe9b063d	-0.30278197
137	0xbea09240	-0.3136158
138	0xbdf6487d	-0.12025545
139	0xbe453375	-0.1925791
140	0xbe6199b0	-0.22031283
141	0x3ea6a469	0.3254731
142	0x3dee665b	0.116406165
143	0x3e94df38	0.29076552
144	0x3e8eca87	0.2788889
145	0x3dbc79b9	0.09202904
146	0x3dc5a2bc	0.0965018
147	0x3e2262bb	0.15857975
148	0x3e01fefc	0.12694925
149	0x3f675be5	0.90374595
150	0x3eb222f2	0.34792286
151	0xbe2e9022	-0.1704717
152	0x3c6139ac	0.01374666
153	0x3d69d452	0.05708725
154	0x3dffb76d	0.124861576
155	0x3c50a89a	0.01273551
156	0xbd529adf	-0.051417228
157	0xbe855243	-0.26039323
158	0x3e660792	0.22463825
159	0xbf674366	-0.90337217
160	0x3eb91734	0.36150515
161	0x3dce6b5c	0.10079071
162	0x3e358d9b	0.177298
163	0x3d7b2e32	0.061323352
164	0x3d0b276e	0.03397315
165	0xbf042a87	-0.5162739
166	0xbf098401	-0.53717047
167	0xbe50df95	-0.2039779
168	0x3ea624d1	0.32449964
169	0xbe2c5669	-0.16829838
170	0xbd57b837	-0.052665915
171	0x3dc5b1bb	0.0965304
172	0xbd27d968	-0.04097882
173	0x3e2e0115	0.169926
174	0x3e755c78	0.23961055
175	0xbdd1f40e	-0.10251628
176	0xbd96ebf3	-0.073692225
177	0x3e53a542	0.2066851
178	0x3d38ce36	0.045118533
179	0x3ca98573	0.020693516
180	0x3d573a38	0.052545756
181	0x3d288242	0.04113985
182	0x3d22c639	0.03973982
183	0x3e8de1b2	0.27711254
184	0xbc8bab0e	-0.017049339
185	0xbec58b78	-0.3858297
186	0xbdeee9e0	-0.11665702
187	0x3e22c8cb	0.15896909
188	0x3e440050	0.19140744
189	0xbe191bd8	-0.14952028
190	0xbdf662cc	-0.12030563
191	0xbe6412e8	-0.22272837
192	0xbdf356d9	-0.11881799
193	0x3e14f183	0.14545254
194	0x3aa9cc60	0.0012954585
195	0xbed8d334	-0.42348635
196	0xbe397aaf	-0.18113206
197	0xbe29ad7f	-0.1657009
198	0x3e354079	0.17700376
199	0xbc19a732	-0.009378241
200	0xbea0878d	-0.31353417
201	0x3e2c98b4	0.16855127
202	0x3efd78c9	0.49506214
203	0xbea47726	-0.32122153
204	0xbe5eaa8e	-0.21744749
205	0x3ee7e0aa	0.45288593
206	0xbda0651c	-0.07831785
207	0xbd389ca9	-0.045071278
208	0x3d9868eb	0.074418865
209	0x3d77369e	0.06035482
210	0xbe6251a3	-0.22101454
211	0x3e5c8367	0.21534501
212	0xbdb1e863	-0.086869024
213	0xbe49e817	-0.19717441
214	0xbed914fc	-0.42398822
215	0x3e39eab2	0.18155935
216	0xbe787e97	-0.2426704
217	0xbe847ad8	-0.25874972
218	0xbdecbdcd	-0.11559639
219	0xbe0e4f80	-0.13897514
220	0xbd49d6d0	-0.049277127
221	0xbeaba16d	-0.33521596
222	0x3e3dfcab	0.18553416
223	0x3d61111c	0.054947957
224	0xbcff1c00	-0.031141281
225	0x3e2ed9f3	0.17075329
226	0x3d0c68f2	0.03427977
227	0x3d684e15	0.05671509
228	0xbda861ae	-0.08221756
229	0x3c8da798	0.017291829
230	0x3e7fe283	0.24988751
231	0xbe8f7cd4	-0.28024924
232	0xbcfccad0	-0.030858427
233	0x3eb34be5	0.3501884
234	0xbd6a460c	-0.05719571
235	0x3e87315b	0.26404843
236	0xbe630906	-0.22171411
237	0xbd675590	-0.056478083
238	0xbe281f87	-0.16418277
239	0xbf19b4f8	-0.6004176
240	0x3db508f8	0.08839601
241	0x3dcbf3d5	0.09958617
242	0xbe0139dc	-0.12619728
243	0xbf11c40f	-0.56939787
244	0xbe77e5ab	-0.24208705
245	0x3f10c6a7	0.5655312
246	0x3e811453	0.2521082
247	0xbda7a4fb	-0.081857644
248	0xbe350f9b	-0.17681734
249	0xb9ce328d	-0.00039329045
250	0xbe5add1e	-0.21373412
251	0xbe3f4368	-0.18678057
252	0xbe979d97	-0.2961242
253	0xbc4147ae	-0.011796875
254	0x3e9bec6f	0.30453822
255	0xbd6b91f1	-0.057512227

lstm.weight_hh_l0 f4 [128, 32]
0	0xbfa0f593	-1.2574943
1	0x3e8a43b2	0.27004772
2	0x3f7f68c8	0.9976926
3	0x3e649102	0.22320941
4	0x3e258514	0.16164047
5	0x3e180449	0.14845385
6	0x3f31ab0c	0.6940162
7	0x3edf4ad7	0.43611786
8	0xbe081a94	-0.13291389
9	0x3ea8129d	0.328267
10	0x3e24eba6	0.16105518
11	0xbeb5ebd8	-0.35531497
12	0xbecab7a6	-0.39593238
13	0xbfc36cd7	-1.526759
14	0xbf5ec92d	-0.8702572
15	0x3e9d9c9b	0.30783543
16	0xbe51b72f	-0.20480035
17	0xbd8bce09	-0.068264075
18	0x3f342584	0.70369744
19	0x3f9a688c	1.2063155
20	0x3f532854	0.8248341
21	0x3f9e6b3a	1.2376473
22	0xbdbd8b0f	-0.09255039
23	0xbf3e631c	-0.7436998
24	0x3b34729a	0.0027534128
25	0xbf447e99	-0.7675567
26	0xbf4c6d8a	-0.79854643
27	0xbe3392b6	-0.17536435
28	0xbdc3ee6d	-0.095669605
29	0xbecaee7f	-0.39635083
30	0xbeab1e56	-0.33421582
31	0x3edde98a	0.4334224
32	0xbefd4064	-0.4946319
33	0x3e604eb7	0.21905027
34	0xbeb53a5e	-0.35396093
35	0xbf12a1fa	-0.57278407
36	0xbe2b1a35	-0.16709216
37	0xbdc861c1	-0.0978427
38	0x3db9f116	0.090791866
39	0xbcabe050	-0.020980984
40	0x3e0e9761	0.13924934
41	0x3d6358d8	0.05550465
42	0xbe87cfd4	-0.26525748
43	0x3c11e335	0.008904268
44	0x3ebabbac	0.36471307
45	0xbe13f9c0	-0.14450741
46	0x3e3bf01a	0.1835331
47	0x3e8aaf97	0.2708709
48	0x3f755fb8	0.9584918
49	0xbebe066c	-0.37114275
50	0xbe432da8	-0.19060385
51	0xbdb95245	-0.09048895
52	0x3ea1e881	0.316227
53	0x3e80e624	0.25175583
54	0x3f3ad32d	0.7297848
55	0x3e99ee68	0.30064702
56	0x3e17a903	0.14810567
57	0xbe66e3f7	-0.22547899
58	0x3f319378	0.69365644
59	0xbe8adc1d	-0.27121058
60	0xbe63c745	-0.22243984
61	0xbe351154	-0.17682391
62	0xbd15722c	-0.036485836
63	0xbd0d9e44	-0.034574762
64	0xbec3ddc0	-0.3825512
65	0xbd487b8f	-0.04894596
66	0xbd8fe846	-0.070267245
67	0xbf13f5fc	-0.5779722
68	0xbf03c9b9	-0.5147968
69	0x3ef40292	0.4765821
70	0xbeb0b588	-0.34513497
71	0x3e5fbf62	0.2185035
72	0x3d379310	0.044817984
73	0x3f55bdf0	0.83492947
74	0x3ed1ae10	0.40953112
75	0x3cc68bdc	0.024236612
76	0xbea28281	-0.31740192
77	0xbe3a4f72	-0.18194368
78	0xbc2e95d7	-0.010655842
79	0x3e6996f2	0.22811487
80	0xbeaa8db9	-0.3331125
81	0x3de83b22	0.11339404
82	0x3ea6cb98	0.32577205
83	0xbdb90b2c	-0.09035334
84	0xbeb76796	-0.35821217
85	0x3cbd3352	0.02309576
86	0x3d86188b	0.0654765
87	0x3d3b47fc	0.045722947
88	0x3ef9eaac	0.48811853
89	0xbefc6c36	-0.49301308
90	0xbe0c9266	-0.13727722
91	0xbef37e67	-0.47557375
92	0x3f0b30cf	0.5437135
93	0xbec1cecf	-0.37853095
94	0x3e98a3ce	0.29812473
95	0x3e37610e	0.17908117
96	0xbf56f694	-0.8397
97	0x3e6a3d44	0.22874933
98	0xbc9854ea	-0.018595178
99	0xbe392f96	-0.18084559
100	0xbcacc71b	-0.021091035
101	0x3f46183b	0.7738072
102	0x3de5da31	0.11223257
103	0xbe2a167e	-0.16610143
104	0xbefc11ec	-0.49232423
105	0xbe061026	-0.13092098
106	0xbe5ee88d	-0.21768399
107	0x3e6a4cf9	0.22880925
108	0xbe2e48da	-0.17019978
109	0xbe5b3c4c	-0.2140972
110	0x3e5fbfac	0.21850461
111	0x3e3c5e3c	0.18395323
112	0xbdeb55f1	-0.114910014
113	0xbe23c1a2	-0.15991834
114	0x3e9e0cf5	0.3086926
115	0xbe497729	-0.19674362
116	0xbee4a035	-0.44653478
117	0x3e9a382b	0.30120978
118	0x3d867f95	0.06567303
119	0xbd190758	-0.03736052
120	0x3e5f2c60	0.21794271
121	0xbd9d4691	-0.07679475
122	0xbeff013e	-0.49805635
123	0xbe049615	-0.12947877
124	0xbe7e3dae	-0.24828216
125	0xbe511549	-0.20418276
126	0xbd1037f5	-0.035209615
127	0x3ec3a486	0.3821146
128	0xbfb01911	-1.375765
129	0x3f452f41	0.7702523
130	0x3e8112b2	0.25209576
131	0x3eb493b2	0.35268933
132	0x3ea8353f	0.32853124
133	0x3eb3569f	0.35027024
134	0x3f65459e	0.8955935
135	0x3e349069	0.17633213
136	0xbcbe04e4	-0.023195691
137	0xbeaaa77e	-0.3333091
138	0x3e982661	0.2971678
139	0xbdc844e7	-0.09778767
140	0xbec8386e	-0.39105552
141	0xbebd4836	-0.36969155
142	0xbe4eec63	-0.20207362
143	0x3e1e5ee3	0.15465884
144	0xbf276fd7	-0.6540503
145	0x3eb8ee67	0.36119387
146	0x3f5a83b3	0.8535721
147	0x3ef12582	0.4709893
148	0x3e3501e6	0.17676505
149	0x3e9c259b	0.3049744
150	0xbf30b9e7	-0.69033664
151	0xbf3fba81	-0.7489396
152	0x3e2ae443	0.16688637
153	0xbe5c4403	-0.2151032
154	0xbe8985b1	-0.2685981
155	0xbe48a0c2	-0.19592574
156	0xbf113311	-0.56718546
157	0x3d80e2dd	0.06293271
158	0x3f3692ca	0.7131773
159	0x3ec908df	0.3926458
160	0x3f8ad003	1.084473
161	0x3eecc931	0.46247247
162	0x3e17f93f	0.14841174
163	0x3f2af2bc	0.66776633
164	0x3f8e1471	1.1099988
165	0x3ee537b9	0.44769076
166	0xbe9346bd	-0.28764907
167	0xbe8d748a	-0.27627975
168	0xbed2bd5b	-0.41160092
169	0xbe8018d1	-0.25018933
170	0x3e97df41	0.29662517
171	0xbcc0d905	-0.023540983
172	0xbe2fbf16	-0.17162737
173	0x3e59555e	0.21223971
174	0x3edb2bd7	0.42806885
175	0x3dc1ae01	0.09457017
176	0xbf0ac3e4	-0.54205155
177	0x3e13cf99	0.14434661
178	0x3eb82a21	0.35969642
179	0xbf0b3674	-0.54379964
180	0xbea9c561	-0.331584
181	0xbec8305d	-0.39099398
182	0xbef1a0e5	-0.47193065
183	0xbf236e8e	-0.6384057
184	0xbecd0ac6	-0.40047282
185	0xbdb4c124	-0.08825901
186	0xbd47d1fb	-0.048784237
187	0xbf3f16d2	-0.74644196
188	0xbd2bc5e2	-0.041936763
189	0xbd8998ed	-0.067186214
190	0x3ece84f3	0.40335807
191	0xbd04270e	-0.032263808
192	0x3d91e5f9	0.07123942
193	0xbe910d48	-0.28330445
194	0x3e735f97	0.23766933
195	0x3e491461	0.1963668
196	0x3f24ff77	0.6445231
197	0x3e89d1aa	0.26917773
198	0xbe5b27da	-0.21401921
199	0x3ec252ed	0.37953892
200	0x3d3112be	0.043230765
201	0xbe56a93c	-0.20962995
202	0x3e705ee3	0.23473696
203	0xbe818e56	-0.25303906
204	0xbdaba73a	-0.08381505
205	0xbe25d720	-0.16195345
206	0x3d7563cb	0.059909623
207	0x3ebfb142	0.37439924
208	0xbe77d378	-0.24201763
209	0xbe12a032	-0.14318922
210	0x3f12558c	0.57161784
211	0xbe31f5c3	-0.17378907
212	0x3f1c78e3	0.6112196
213	0x3d760a05	0.06006815
214	0xbe8ba586	-0.27274722
215	0xbd9fd0e2	-0.07803513
216	0xbf33eb3a	-0.702808
217	0xbc9889fe	-0.018620487
218	0xbd9853f4	-0.07437888
219	0xbe40c43e	-0.1882486
220	0x3e1c720a	0.15277877
221	0xbeea58a3	-0.4577075
222	0xbc1e32fe	-0.009655712
223	0x3ebaa122	0.3645106
224	0xbe4862c6	-0.19568929
225	0xbe609776	-0.21932778
226	0xbe19a913	-0.15005903
227	0xbdc7244c	-0.0972372
228	0x3e09a941	0.13443471
229	0xbc11e488	-0.008904584
230	0xbeb1db8e	-0.3473782
231	0xbe605b1d	-0.21909757
232	0xbeafe8ea	-0.34357387
233	0x3e1c6a58	0.15274942
234	0xbe85c949	-0.2613013
235	0x3e3ec817	0.18631016
236	0xbe57b70f	-0.21065925
237	0x3e497082	0.19671825
238	0xbe5cfcec	-0.21580857
239	0x3d556e32	0.052107044
240	0xbe1b066c	-0.15139169
241	0xbdaba132	-0.08380355
242	0xbc8355ab	-0.01603206
243	0xbdc9f9db	-0.09862109
244	0xbe7d2bd2	-0.24723747
245	0xbdb7786e	-0.08958517
246	0xbcfef219	-0.0311213
247	0x3db55094	0.0885326
248	0xbdd1ed5e	-0.10250352
249	0x3d6390ca	0.055558003
250	0xbbd57b09	-0.006514911
251	0xbe3c8c3e	-0.18412873
252	0x3ec44e80	0.3834114
253	0xbe988d8b	-0.2979549
254	0xbe42a553	-0.19008379
255	0x3d260e0a	0.040540732

lstm.bias_ih_l0 f4 [128]
0	0x3f1c4808	0.6104741
1	0xbe2de7f3	-0.16983013
2	0xbe99ed21	-0.30063727
3	0xbe87fa12	-0.26557976
4	0x3e2961e8	0.16541255
5	0x3e20033e	0.15626237
6	0xbdcccbd2	-0.09999813
7	0xbe37aaef	-0.179363
8	0xbc5426d8	-0.012948714
9	0xbe096369	-0.13416828
10	0xbd89687b	-0.06709381
11	0xbe53ebe4	-0.20695454
12	0xbe28e3ea	-0.16493192
13	0xbd291e58	-0.041288704
14	0x3e78224a	0.2423183
15	0xbd20b633	-0.03923626
16	0x3d7942f2	0.06085486
17	0x3bf9ba50	0.007621087
18	0x3e84e68b	0.2595714
19	0xbd89d2ac	-0.067296356
20	0x3e1af61e	0.15132949
21	0x3dd30644	0.103039294
22	0x3ea3af53	0.319697
23	0x3b3546ac	0.0027660532
24	0xbd0972cf	-0.033556756
25	0xbe3514fa	-0.17683783
26	0xbdedf89d	-0.11619685
27	0x3ef88d8f	0.485455
28	0xbe88262b	-0.2659162
29	0xbd110297	-0.03540286
30	0x3dc03a83	0.0938616
31	0xbe3fbcae	-0.1872432
32	0xbeb13b36	-0.34615487
33	0x3e2ff8b4	0.17184716
34	0x3ca07854	0.019588627
35	0xbd34412d	-0.04400747
36	0x3d506dd9	0.05088601
37	0xbe90a712	-0.28252465
38	0xbd11b528	-0.035573155
39	0x3d82d812	0.063888684
40	0xbe70cde4	-0.23516041
41	0x3e099a2a	0.13437715
42	0x3e48a391	0.19593646
43	0x3df59f47	0.1199327
44	0x3e66d4a9	0.22542061
45	0xbd5cdccf	-0.053921517
46	0xbe09fec8	-0.13476098
47	0x3ea21118	0.31653666
48	0x3c89f614	0.016840972
49	0x3e9f00bd	0.3105525
50	0xbe1dd6e0	-0.15414
51	0x3e805fdd	0.25073138
52	0xbeba0548	-0.36332154
53	0xbe0a0f1c	-0.13482326
54	0xbd990687	-0.07471948
55	0x3d332ec5	0.043745775
56	0x3c69f93a	0.014280612
57	0x3ddef3a2	0.10886313
58	0x3e4a9c18	0.19786108
59	0xbde5d52e	-0.112223014
60	0xbd3b72fc	-0.045763955
61	0x3e05f743	0.13082604
62	0xbef2d8c3	-0.47431
63	0x3bc4e487	0.006008688
64	0x3e59ea89	0.21280874
65	0x3dea1449	0.1142965
66	0x3e67773d	0.2260408
67	0x3dcd351c	0.100198954
68	0xbd275fbe	-0.04086279
69	0xbe72a05e	-0.23693988
70	0x3d4e06e0	0.050299525
71	0xbc2659ef	-0.010153278
72	0x3d927c23	0.071525835
73	0xbd0eda9d	-0.034876455
74	0xbcb3f923	-0.021969384
75	0xbe11aa7c	-0.14225191
76	0x3dffbd0e	0.12487231
77	0x3e074453	0.13209657
78	0x3d184c66	0.037182234
79	0x3cad4f99	0.02115612
80	0x3da6b532	0.08140029
81	0x3dea761d	0.114483096
82	0xbe0a38da	-0.1349825
83	0xbd72e7c7	-0.05930307
84	0xbc324a28	-0.010881938
85	0x3dca4230	0.098759055
86	0x3e74c9d5	0.23905118
87	0x3e5f2e33	0.21794967
88	0x3e0e69a3	0.13907485
89	0xbdb90295	-0.090336956
90	0x3e7412ec	0.23835343
91	0xba5a8cfe	-0.00083370495
92	0xbd9e9d66	-0.07744865
93	0x3e22792b	0.15866534
94	0xbd234c64	-0.039867774
95	0x3db5c960	0.088763
96	0x3f56f4cf	0.839673
97	0x3c61ed4e	0.013789488
98	0xbe07c9b1	-0.13260533
99	0xbdbd13f0	-0.092323184
100	0x3dbfc2a8	0.093632996
101	0x3b786d3e	0.003790691
102	0xbe8b8922	-0.27253062
103	0xbeb8dd73	-0.36106452
104	0xbab91c0a	-0.0014122736
105	0xbe8a3dbd	-0.27000228
106	0x3d879dc1	0.06621886
107	0x3db9f04d	0.09079037
108	0xbe7f823e	-0.24952027
109	0xbe8bdddd	-0.27317706
110	0x3e4d742f	0.20063852
111	0xbd725ed1	-0.059172455
112	0x3e7599fc	0.23984522
113	0xbded9184	-0.116000205
114	0x3eb0cb0a	0.34529907
115	0x3e20a4c6	0.15687856
116	0xbd27f934	-0.041009143
117	0x3ce6eb6a	0.028188426
118	0x3e8d9aac	0.27657068
119	0x3e3e6f22	0.18597081
120	0xbddcd3fb	-0.107826196
121	0xbde71e50	-0.112850785
122	0x3ddb035b	0.106939994
123	0x3e3fecc7	0.18742667
124	0xbdfbd3c7	-0.12296253
125	0xbe88df64	-0.26732934
126	0x3df3f715	0.119123615
127	0xbe3fe490	-0.18739533

lstm.bias_hh_l0 f4 [128]
0	0x3f2d33bc	0.67657065
1	0xbd436426	-0.04770293
2	0xbde396bf	-0.11112737
3	0x3bfb09bd	0.007661073
4	0x3e924ee2	0.28575808
5	0x3e14b37c	0.14521593
6	0xbe6a01ab	-0.22852199
7	0xbe729deb	-0.23693053
8	0xbe8906b6	-0.26762933
9	0xbe671d07	-0.22569667
10	0xbdba0e2b	-0.090847336
11	0xbd8e75b4	-0.06956044
12	0xbed1ed80	-0.4100151
13	0xbe55e7b0	-0.20889163
14	0x3ef40108	0.47657037
15	0xbdfd184b	-0.12358149
16	0xbb384dcc	-0.0028122542
17	0x3dd66cf9	0.10470004
18	0x3e39f10b	0.18158357
19	0xbc169cff	-0.009192704
20	0xbaf1b117	-0.0018439618
21	0x3df03eaa	0.11730702
22	0x3e411a36	0.18857655
23	0x3d679fd6	0.056548916
24	0x3d237f66	0.03991642
25	0xbdc64004	-0.09680179
26	0xbd3293ad	-0.043597866
27	0x3eb603b1	0.3554969
28	0xbee18ea0	-0.44054127
29	0xbe85caed	-0.26131383
30	0x3e365dee	0.17809269
31	0xbe488bbc	-0.19584554
32	0xbf1fcbd9	-0.6242042
33	0x3e31e676	0.1737307
34	0xbc5d6ebf	-0.013515173
35	0x3d841e8c	0.06451139
36	0x3e4c4f51	0.19952132
37	0xbe8fb00a	-0.28063995
38	0x3db66173	0.08905306
39	0xbd29b7f7	-0.04143521
40	0xbe662314	-0.22474319
41	0xbdd7fdd3	-0.1054646
42	0x3e804818	0.25055003
43	0x3df2ccb8	0.11855453
44	0x3d98910a	0.07449539
45	0xbe6afd53	-0.22948198
46	0x3dbf6468	0.09345323
47	0x3de3aca7	0.11116915
48	0xbd02dc1e	-0.0319482
49	0x3e8568db	0.2605656
50	0xbe77f3e0	-0.24214125
51	0x3da1ba77	0.078968935
52	0xbe14e60f	-0.14540885
53	0x3dd57456	0.1042258
54	0x3e5b8821	0.21438648
55	0x3c415d07	0.011801965
56	0x3dca7964	0.09886435
57	0xbda1a702	-0.07893182
58	0x3eb37e2a	0.35057193
59	0xbe77c8f9	-0.24197759
60	0xbdeca232	-0.11554374
61	0x3d07b5a0	0.033132195
62	0xbeafe49d	-0.34354106
63	0xbdb8903f	-0.09011888
64	0x3d467f34	0.048461154
65	0xbc819e13	-0.015822446
66	0xbdf24b10	-0.11830723
67	0xbe04ba87	-0.1296178
68	0x3d937a7c	0.072010964
69	0xbde20a22	-0.11037089
70	0x3d31e335	0.043429572
71	0xbda3651a	-0.07978268
72	0xbb876516	-0.0041319234
73	0xbd9ec9b2	-0.07753314
74	0x3d1b3e8f	0.037901457
75	0x3d8081ad	0.06274734
76	0xbe10fa96	-0.14158091
77	0xbde07f21	-0.10961748
78	0x3dd66e3a	0.10470243
79	0xbdd9a9bc	-0.106280774
80	0x3daa9c2a	0.08330567
81	0x3dfde821	0.12397791
82	0x3d24a3e7	0.040195372
83	0x3d99ecfd	0.07515905
84	0xbce88757	-0.028384848
85	0x3d22974d	0.039695073
86	0x3d329da8	0.043607384
87	0xbd13268e	-0.03592544
88	0xbc048251	-0.0080877105
89	0xbe17dd7a	-0.1483058
90	0xbc0840aa	-0.008316198
91	0x3db54889	0.088517256
92	0xbdade15e	-0.08490251
93	0x3dad6ff2	0.084686175
94	0xbd4a45d8	-0.049383014
95	0xbd5a2e48	-0.053266793
96	0x3f2ea8ad	0.6822613
97	0xbe4f6764	-0.20254284
98	0xbe822bdf	-0.25424096
99	0x3d2a2040	0.041534662
100	0x3e2b8755	0.16750844
101	0xbde70757	-0.11280697
102	0xbe71bb43	-0.23606591
103	0xbe3e02b1	-0.18555714
104	0x3d5ab8cf	0.053398903
105	0xbdbbd74a	-0.091719225
106	0xbde4b49a	-0.111672595
107	0xbe6bb589	-0.23018469
108	0xbd41a940	-0.04728055
109	0xbd509638	-0.05092451
110	0x3ef04d46	0.46933955
111	0x3bfbe11c	0.0076867472
112	0x3e4e7ccc	0.20164794
113	0xbdca1aa4	-0.098683625
114	0x3eb1756a	0.34659892
115	0x3e2f632a	0.17127672
116	0x3e3330f5	0.17499144
117	0x3cf77163	0.030205434
118	0x3db12b8f	0.08650886
119	0x3dfd9a48	0.123829424
120	0x3df28d7e	0.11843394
121	0xbd6dcbe0	-0.05805576
122	0x3d6db69c	0.058035478
123	0x3dfdb353	0.12387719
124	0xbe3cff43	-0.1845675
125	0xbdf43638	-0.11924404
126	0x3e426c7b	0.18986695
127	0x3d956863	0.07295301

fc1.weight f4 [256, 32]
0	0x3da9d677	0.08292859
1	0xbd315753	-0.04329617
2	0x3e8f2bf7	0.2796323
3	0x3e00888c	0.12552088
4	0x3d96191c	0.07329008
5	0xbec0d723	-0.37664136
6	0xbd0812c9	-0.03322104
7	0x3e82fa8b	0.25581774
8	0x3e40905d	0.1880507
9	0x3d9e1705	0.077192344
10	0x3ea29f65	0.31762233
11	0xbd254231	-0.04034633
12	0xbda81c4b	-0.082085215
13	0xbe38d844	-0.18051249
14	0xbe0f0927	-0.13968335
15	0xbdf066e9	-0.117383786
16	0x3e4909ef	0.19632696
17	0x3da3d6ef	0.0799998
18	0x3d6cfa69	0.057855997
19	0x3e2f71dd	0.17133279
20	0x3e478de9	0.19487728
21	0x3e85e494	0.26150954
22	0x3e44a021	0.1920171
23	0x39f99bca	0.00047609053
24	0xbe1f38fb	-0.1554908
25	0xbe9a580f	-0.30145308
26	0x3e889c24	0.26681626
27	0x3d91955a	0.07108565
28	0xbdb8f5dc	-0.09031269
29	0xbe3f14cf	-0.18660282
30	0x3ca8e565	0.020617196
31	0xbdd37b37	-0.10326236
32	0xbead9f9d	-0.33910838
33	0xbc3bf533	-0.011472034
34	0x3d9e3c41	0.07726336
35	0xbcc14e89	-0.023597019
36	0x3dec5658	0.11539906
37	0x3c62a7f6	0.01383399
38	0x3e5a7aa9	0.21335854
39	0x3e02da73	0.12778644
40	0x3d73f01d	0.05955516
41	0xbe179bed	-0.14805575
42	0xbe795aad	-0.24350996
43	0xbe2b4b65	-0.1672798
44	0x3e2d0c9c	0.16899341
45	0xbc722d34	-0.014781285
46	0x3ee394db	0.44449505
47	0x3e3f8933	0.18704681
48	0x3eb497ac	0.35271966
49	0x3d539637	0.051656928
50	0x3e32aabe	0.17447945
51	0xbdfb3a33	-0.1226696
52	0x3e6d5202	0.23175815
53	0x3e4c1239	0.19928826
54	0x3da7a9f1	0.081867106
55	0xbd93e60d	-0.07221613
56	0x3e3ecb28	0.18632185
57	0xbe5c12aa	-0.21491495
58	0xbe8128cb	-0.25226435
59	0xbf594d88	-0.8488393
60	0x3d166691	0.03671891
61	0x3cd0fc28	0.025510862
62	0x3dd8b80b	0.105819784
63	0xbd7485f5	-0.059698064
64	0x3e31696a	0.17325369
65	0xbed62486	-0.4182474
66	0xbc063f02	-0.008193733
67	0xbd74a19a	-0.059724428
68	0xbe7e3575	-0.2482508
69	0xbe16af1b	-0.14715235
70	0xbdf30c73	-0.11867609
71	0x3e227e99	0.15868606
72	0xbe5df157	-0.21674095
73	0x3bf58213	0.0074923127
74	0x3ea848ee	0.3286814
75	0xbe0ba0b8	-0.13635528
76	0x3dc666fe	0.09687613
77	0x3e2e849b	0.17042772
78	0xbe78118e	-0.24225447
79	0x3e4564e3	0.19276766
80	0xbe81d3ee	-0.25357002
81	0x3e9ec1e0	0.3100729
82	0x3c0d9377	0.008641115
83	0x3e8dd40b	0.27700838
84	0x3db5dba2	0.08879782
85	0x3d9cfa86	0.07664971
86	0xbd80f6f8	-0.062971056
87	0xbe2cbedb	-0.1686968
88	0xbeab7ae1	-0.33492187
89	0xbe046e24	-0.1293264
90	0x3e5619c5	0.20908268
91	0xbd2b0778	-0.04175517
92	0xbe0bb5b7	-0.13643537
93	0xbe7103ca	-0.23536602
94	0xbe07ee38	-0.13274467
95	0x3d00efcb	0.031478684
96	0xbee26231	-0.4421554
97	0xbb6089d3	-0.0034261837
98	0x3eaa2c41	0.33236888
99	0xbd789d8d	-0.060697127
100	0xbd9ce569	-0.07660944
101	0x3d0a7345	0.033801336
102	0x3df7c0ef	0.12097346
103	0x3dab1f74	0.083556086
104	0x3e6a87e8	0.22903407
105	0x3e189fd7	0.14904724
106	0x3b006274	0.0019589933
107	0xbde44420	-0.11145806
108	0xbdd50944	-0.10402158
109	0x3cd9728f	0.026543884
110	0x3eabe58a	0.33573562
111	0x3e31c4b1	0.17360188
112	0x3e15ee10	0.14641595
113	0x3d62e5b7	0.055394854
114	0x3ef0da5d	0.47041598
115	0xbe86c5e0	-0.26322842
116	0x3cf25abd	0.029584283
117	0x3e5756bd	0.21029182
118	0x3e7f0efa	0.24908057
119	0x3c1f7b94	0.009734053
120	0x3e89427b	0.26808533
121	0xbea94ea1	-0.33067802
122	0xbbcc193b	-0.0062285936
123	0xbf507b0e	-0.81437767
124	0x3b939710	0.004504092
125	0xbe304f06	-0.17217645
126	0x3e101561	0.14070655
127	0x3caca9a4	0.021076985
128	0x3e128468	0.14308321
129	0xbe3d76ba	-0.18502322
130	0x3e606608	0.21913922
131	0x3cf7120e	0.030159976
132	0xbd1d2e00	-0.038373947
133	0xbe365b02	-0.17808154
134	0x3e90ed45	0.28306022
135	0xbc141d93	-0.009040254
136	0xbdb41c3f	-0.0879445
137	0xbe785a8a	-0.24253288
138	0xbd79a20d	-0.06094556
139	0x3ccfc83f	0.02536404
140	0x3e33de0a	0.1756517
141	0xbe0390df	-0.12848233
142	0xbd71ae81	-0.05900431
143	0x3dfd2c1c	0.12361929
144	0x3ce9e156	0.028549831
145	0x3e0fbab8	0.14036071
146	0x3d0226e1	0.03177536
147	0x3d97c6eb	0.074109875
148	0x3dc8d676	0.0980653
149	0x3e13c1fe	0.14429471
150	0xbdb59fd2	-0.08868374
151	0xbd05d90b	-0.03267769
152	0x3c8e88cd	0.017399216
153	0xbe81a729	-0.25322846
154	0x3d627bf9	0.05529401
155	0x3d5446ce	0.051825337
156	0xbe545570	-0.20735717
157	0xbb4a87df	-0.003090374
158	0xbde588ef	-0.11207759
159	0xbd800843	-0.06251576
160	0x3e697c12	0.22801235
161	0x3dd76131	0.10516585
162	0x3eac52a1	0.3365679
163	0x3d8c13b1	0.06839693
164	0x3e09e3f6	0.13465866
165	0x3dfc99dd	0.123340346
166	0x3e4eb61b	0.20186655
167	0x3e38b037	0.1803597
168	0x3d8041c3	0.06262543
169	0x3ca458c2	0.020061854
170	0x3dd6ea13	0.10493865
171	0xbe1aaf8d	-0.1510603
172	0x3df21c7b	0.118218385
173	0xbdd3d40b	-0.10343178
174	0x3d44dccc	0.04806213
175	0xbcd77a04	-0.026303299
176	0x3eaedcda	0.3415287
177	0x3de17275	0.11008159
178	0xbe716d56	-0.23576865
179	0x3e5f51c0	0.21808529
180	0x3e44b37a	0.1920909
181	0x3e920271	0.28517488
182	0xbd635169	-0.05549756
183	0xbddb43a4	-0.10706261
184	0xbde58820	-0.112076044
185	0xbd9a4f96	-0.07534711
186	0x3e05a5f2	0.13051584
187	0x3e4a1a91	0.19736697
188	0xbe036c45	-0.1283427
189	0xbd71b4f4	-0.05901046
190	0xbdbd5957	-0.09245556
191	0xbe342f9d	-0.17596288
192	0xbd9422e7	-0.072332196
193	0x3e0d8ab7	0.13822447
194	0xbd7cd2e1	-0.061724547
195	0x3de1a462	0.11017682
196	0x3d56e6e1	0.052466277
197	0x3df99709	0.12187011
198	0xbdb9b924	-0.09068516
199	0xbc9b0757	-0.018924398
200	0x3dd9291b	0.10603543
201	0x3bc23d50	0.005927719
202	0x3c9abb32	0.01888809
203	0xbd3ba2ab	-0.04580943
204	0x3da7d690	0.081952214
205	0x3d8a4da6	0.067530915
206	0xbc9a4228	-0.018830374
207	0xbe96e0d0	-0.29468393
208	0x3dfad81d	0.122482516
209	0xbe131a64	-0.14365536
210	0xbd45a552	-0.048253365
211	0xbe472d10	-0.19450784
212	0xbe86e21a	-0.26344377
213	0xbe598d57	-0.21245323
214	0xbb556709	-0.0032562634
215	0x3ddd3e3e	0.108028874
216	0x3bb2a17d	0.00545138
217	0x3d849dd5	0.064754166
218	0xbcaebea4	-0.021331139
219	0x3c8a4055	0.016876379
220	0xbb95371d	-0.004553689
221	0x3e013a66	0.12619933
222	0xbd946d4a	-0.07247408
223	0xbde843f3	-0.11341085
224	0xbcb95a6a	-0.02262612
225	0xbdff5040	-0.12466478
226	0xbe9164de	-0.28397268
227	0x3da28380	0.07935238
228	0x3d872eb8	0.06600708
229	0x3e127958	0.14304101
230	0xbe64c7a5	-0.22341783
231	0xbe3434dd	-0.1759829
232	0x3e4b8670	0.19875503
233	0x3e3553d8	0.17707765
234	0x3e1a0fbc	0.15045065
235	0x3dd7b8f1	0.10533322
236	0x3ce47c4a	0.027891297
237	0xbdfdbb92	-0.12389292
238	0x3c71fab1	0.014769242
239	0x3d0488b3	0.03235693
240	0xbe283028	-0.1642462
241	0x3e89a14f	0.2688088
242	0x3ea923b3	0.3303505
243	0xbe6f12d6	-0.23347029
244	0x3ed66af5	0.41878477
245	0xbd5005a6	-0.050786637
246	0xbdfc59df	-0.12321829
247	0xbe5b2e0b	-0.21404283
248	0x3edd764c	0.43254316
249	0xbd9cd946	-0.07658629
250	0x3e86f076	0.26355332
251	0xbf64d210	-0.8938303
252	0x3e9fa9b7	0.3118417
253	0xbe759439	-0.23982324
254	0xbdc2b54e	-0.095072374
255	0xbe3fca4e	-0.18729517

fc1.bias f4 [256]
0	0xbdf6fe47	-0.12060218
1	0xbe587f28	-0.21142256
2	0xbe60ba0c	-0.21945971
3	0xbe4319ff	-0.19052885
4	0x3cacbebb	0.021087041
5	0xbda85bcf	-0.08220636
6	0x3c00292b	0.007822315
7	0xbe4fe585	-0.20302399
8	0xbe54a826	-0.20767269
9	0xbe87ef95	-0.26549974
10	0xbe3c9475	-0.18416007
11	0x3c293a3f	0.010328828
12	0x3cc7c2ac	0.024384819
13	0xbe96f7f8	-0.2948606
14	0x3b9ae303	0.004726769
15	0x3da9812d	0.082765914
16	0x3cb9f08c	0.02269771
17	0xbbab760d	-0.0052325786
18	0xbce16e33	-0.027518367
19	0xbe56a3df	-0.2096095
20	0xbdfdcb19	-0.123922534
21	0xbd9c5fbc	-0.076354474
22	0xbe50bf1c	-0.20385402
23	0x3adcf2a8	0.0016856985
24	0xbdb6c6f8	-0.08924669
25	0x3b8800ed	0.004150501
26	0xbe9067eb	-0.28204283
27	0xbe7ab478	-0.24482906
28	0x3cdae6a0	0.026721299
29	0x3c792ecc	0.015208911
30	0xbe8ab377	-0.27090046
31	0xbe1c632f	-0.1527221
32	0x3caf4ba5	0.021398375
33	0x3a866993	0.0010254852
34	0xbd72e4b9	-0.05930016
35	0x3d060cd6	0.032727085
36	0xbe705b29	-0.23472275
37	0xbcbb9e63	-0.022902673
38	0xbe5a308b	-0.2130758
39	0xbe571f8f	-0.21008132
40	0x3d993d11	0.074823506
41	0xbd9ee610	-0.07758725
42	0xbe28f622	-0.16500142
43	0x3d8cff59	0.06884641
44	0xbe686fad	-0.22698851
45	0xbe6a9955	-0.22910054
46	0x3d5deb2a	0.054179348
47	0x3d2e9e8d	0.042631675
48	0xbb301e06	-0.0026873364
49	0x3d15f627	0.036611702
50	0xbe2e16c8	-0.17000878
51	0x3d19885d	0.03748356
52	0x3d42e606	0.04758265
53	0xbc48084d	-0.01220901
54	0xbe75f986	-0.24020967
55	0x3ab403a9	0.0013734001
56	0xbce37824	-0.027767248
57	0xbd2eb628	-0.042654186
58	0x36b60780	5.424896e-06
59	0x3d559e65	0.05215301
60	0xbe193f29	-0.149655
61	0xbde2ebb2	-0.110801116
62	0x3d6a4544	0.057194963
63	0xbdbc81aa	-0.09204419
64	0xbd8dea52	-0.06929459
65	0xbce38d7e	-0.02777743
66	0xbe659f4b	-0.22424047
67	0xbd43cbdc	-0.047801837
68	0xbe7c380d	-0.24630757
69	0x3d82e699	0.06391639
70	0xbe30dae2	-0.17270997
71	0xbd9753be	-0.073890194
72	0x3ca7efa0	0.020500004
73	0xbd11acde	-0.03556525
74	0xbe89b40a	-0.2689517
75	0x3da46ebe	0.08028935
76	0x3cc3d9f1	0.023907633
77	0xbd1500c5	-0.036377687
78	0x3d3ba912	0.045815535
79	0x3dc3dc8d	0.09563551
80	0x3db55afb	0.08855244
81	0xbd832008	-0.06402594
82	0x3d89cc3f	0.0672841
83	0xbd8e2365	-0.06940345
84	0x3d240757	0.040046062
85	0xbcce67ea	-0.025196034
86	0xbe59e36e	-0.21278164
87	0xbe3c8295	-0.18409188
88	0xbe39d15b	-0.18146269
89	0x3d3dfa01	0.046381
90	0xba994e97	-0.0011696395
91	0xbd63226e	-0.055452757
92	0xbd04d17f	-0.032426354
93	0x3be42000	0.0069618225
94	0xbc24d25c	-0.010059919
95	0xbd6c9813	-0.057762217
96	0x3d6c7967	0.057732966
97	0xbe67da3c	-0.22641844
98	0xbbc8a5f7	-0.0061233
99	0x3d509195	0.050920088
100	0xbe015b1a	-0.12632409
101	0xbbde38ac	-0.006781658
102	0xbe739e97	-0.23790966
103	0x3d6210e2	0.055191882
104	0x3d1bd068	0.03804055
105	0xbdb57efc	-0.08862111
106	0x3d36e04e	0.044647507
107	0x3dbbb20f	0.09164821
108	0xbe50bbe5	-0.20384176
109	0xbd692c93	-0.056927275
110	0x3caf21f1	0.02137849
111	0x3d981896	0.074265644
112	0x3d31a90c	0.043374106
113	0x3caeec31	0.02135286
114	0x3cfe3675	0.031031827
115	0xbe822008	-0.25415063
116	0xbdb7a6ac	-0.08967337
117	0xbeb2a1c9	-0.34889057
118	0x3d878e65	0.066189565
119	0xbe06c4f9	-0.13161077
120	0xbdc3b8aa	-0.09556706
121	0xbdc4ec05	-0.0961533
122	0x3db1aac2	0.086751476
123	0x3ceb0c92	0.028692517
124	0x3d773eba	0.060362555
125	0x3d4494c1	0.047993425
126	0x3dc38c19	0.09548206
127	0xbd966593	-0.073435925
128	0xbc328373	-0.010895598
129	0xbe38bfb1	-0.18041874
130	0xbe8e2037	-0.27758953
131	0x3d1c18cf	0.038109597
132	0xbe4459a8	-0.19174826
133	0xbbb8b324	-0.0056365896
134	0x3b37545c	0.0027973866
135	0x3da8516b	0.08218654
136	0x3d69d8c5	0.057091493
137	0x3c7a5a78	0.0152803585
138	0xbce95909	-0.028484838
139	0x3d81e2ba	0.06342073
140	0x3d6150d6	0.05500873
141	0x3d3b94c1	0.04579616
142	0x3d59bb01	0.053156856
143	0xbdf6e1f9	-0.120548196
144	0x3d0f87bf	0.035041567
145	0xbd454bff	-0.04816818
146	0xbd6b6f3b	-0.057479125
147	0xbe7921bb	-0.24329273
148	0xbea9a72d	-0.33135357
149	0x3cec126c	0.028817378
150	0xbe39573d	-0.18099685
151	0xbe4f979f	-0.20272683
152	0x3d5546fd	0.052069653
153	0xbe356b29	-0.1771666
154	0xbd5e8abe	-0.054331534
155	0x3d28d209	0.04121593
156	0xbe99f06a	-0.30066234
157	0xbe26d2dc	-0.16291374
158	0x3ccb28ba	0.024799693
159	0x3d8bf10d	0.06833086
160	0xbe6de1c6	-0.23230657
161	0xbd1ea1d9	-0.03872857
162	0xbe032a0e	-0.12809011
163	0xbe866e24	-0.26255906
164	0x3d841619	0.06449527
165	0xbea477a6	-0.32122535
166	0xbe7c2c42	-0.24626258
167	0x3c88fc92	0.016721997
168	0xbde45098	-0.111481845
169	0x3c794791	0.015214817
170	0x3a98787f	0.001163259
171	0x3d9acbe5	0.07558421
172	0x3dee0d56	0.116236374
173	0x3d9d8752	0.07691826
174	0xbe832512	-0.2561422
175	0x3b882af1	0.0041555096
176	0xbdab1cc5	-0.08355097
177	0x3cc286b6	0.023745876
178	0xbbe047e7	-0.006844509
179	0x3d0395fe	0.032125466
180	0xbd09c1da	-0.033632137
181	0xbdc43b27	-0.09581595
182	0xbe204a85	-0.15653427
183	0xbcaf6e48	-0.02141489
184	0x3da443b5	0.080207266
185	0x3d853108	0.065034926
186	0x3cf632aa	0.030053455
187	0x3d3dc189	0.046327148
188	0xbdf5215b	-0.11969253
189	0xbdc2b4c1	-0.09507132
190	0x3dda18b8	0.10649246
191	0xbd27ab76	-0.040935002
192	0xbdc1f03e	-0.09469651
193	0x3d9b40dc	0.0758073
194	0xbe59150f	-0.2119944
195	0xbe64a38d	-0.22328015
196	0xbded4fdd	-0.11587498
197	0xbe52acef	-0.20573781
198	0x3d77132d	0.06032102
199	0xbd961c5d	-0.073296286
200	0x3d41150e	0.04713922
201	0x3daea64e	0.08527814
202	0xbe5290ff	-0.20563124
203	0xbc261126	-0.010135924
204	0x3d38ae80	0.04508829
205	0x3d1899b3	0.037255954
206	0xbe9d1d93	-0.30686626
207	0xbbeabeda	-0.0071638646
208	0xbd9f7023	-0.0778506
209	0xbc8590b6	-0.016304355
210	0x3dbe402e	0.09289585
211	0xbe65c9b2	-0.22440222
212	0xbd67057d	-0.05640172
213	0xbcdd5d8a	-0.027022142
214	0x3d3f137d	0.046649445
215	0xbd9bbe10	-0.07604611
216	0xbd0ec06b	-0.034851473
217	0xbe106255	-0.1410001
218	0xbcb3bb00	-0.021939754
219	0x3c4d207b	0.012519951
220	0xbde3ac4d	-0.11116848
221	0x3cd42e4a	0.025900979
222	0x3d1c0715	0.03809269
223	0xbe0d2b78	-0.13786113
224	0xbe5c085d	-0.21487565
225	0xbe0802a7	-0.13282262
226	0xbd2e0c36	-0.042492114
227	0xbe971132	-0.29505306
228	0x3d1ae332	0.037814327
229	0x3d856215	0.06512848
230	0xbe5b98f4	-0.21445066
231	0x3d4c721b	0.049913507
232	0xbd4c6ece	-0.04991036
233	0xbd095dc1	-0.033536676
234	0x3c37f163	0.011226985
235	0x3da61548	0.08109528
236	0xbc5f50fe	-0.01363015
237	0xbe03841b	-0.12843363
238	0x3c4f1329	0.0126388455
239	0xbd47c9cc	-0.048776433
240	0xbe723bfe	-0.23655698
241	0x3d20fba3	0.03930248
242	0xbc2e5bcf	-0.010642006
243	0xbe8dcdf0	-0.2769618
244	0x3ddc0bae	0.10744415
245	0xbdbee78e	-0.09321509
246	0xbd027fac	-0.03186004
247	0x3d652d85	0.055951614
248	0x3be3af86	0.0069484143
249	0x3d1faf87	0.038985755
250	0xbc06ac58	-0.008219801
251	0xbe534caf	-0.20634721
252	0xbea9c11c	-0.33155143
253	0xbec91ab2	-0.3927818
254	0xbe774eb5	-0.24151118
255	0xbe0cb520	-0.13740969

out_layer.weight f4 [1, 256]
0	0xbcfff8c3	-0.031246549
1	0xbdfdc50e	-0.12391101
2	0xbda211fe	-0.07913588
3	0xbe10ab97	-0.14127956
4	0xbd3ad0d4	-0.04560931
5	0xbd7467d0	-0.059669316
6	0x3ceaa438	0.028642759
7	0x3ec4b7c8	0.38421464
8	0xbc23c6b5	-0.009996106
9	0x3e161cf3	0.14659481
10	0xbda9b7f5	-0.0828704
11	0xbd387af7	-0.045039143
12	0xbc81eb4c	-0.015859269
13	0x3d8f38c5	0.0699325
14	0xbd2040fc	-0.039124474
15	0xbd23bfdc	-0.039977893
16	0x3d0a9683	0.033834945
17	0x3d7f4fab	0.062331837
18	0x3d4114ef	0.047139104
19	0x3d2d838e	0.04236179
20	0x3d9c5bbf	0.07634687
21	0xbd1cc9a3	-0.038278233
22	0xbb665daa	-0.0035151043
23	0x3d0b188c	0.033958957
24	0x3d047066	0.032333754
25	0x3d652299	0.055941198
26	0x3cb4c4a4	0.022066422
27	0x3dcb9e16	0.09942262
28	0xbd197aa1	-0.037470464
29	0x3d5a391c	0.05327712
30	0x3c26ab40	0.010172665
31	0x3dc0212a	0.093813255
32	0x3d22cfd5	0.039748985
33	0x3d123fbb	0.03570531
34	0xbd041e60	-0.03225553
35	0xbce6e97b	-0.028187504
36	0x3e086e83	0.13323407
37	0x3cf26f3c	0.029594056
38	0xbb26c17e	-0.002544492
39	0x3c2230d3	0.009899336
40	0xbd2366d0	-0.03989297
41	0xbd78fb77	-0.06078669
42	0xbdd4006c	-0.10351643
43	0xbd2da86e	-0.042396955
44	0x3d09e3e4	0.0336646
45	0x3d8ac213	0.06775298
46	0x3d6587d4	0.05603774
47	0x3d2721ca	0.040803708
48	0x3d50774f	0.05089503
49	0xbd1dff1d	-0.038573373
50	0xbcf5e383	-0.030015713
51	0xbd25c71b	-0.040473085
52	0x3d0aa583	0.03384925
53	0x3d0bfc3f	0.034176107
54	0x3ccbc117	0.024872346
55	0xbd0ce885	-0.034401435
56	0x3d924cfb	0.07143589
57	0x3d6492cb	0.055804055
58	0x3d28ea71	0.041239206
59	0xbcf1d9d0	-0.029522806
60	0xbd95bd0d	-0.07311449
61	0xbd4825dc	-0.04886423
62	0x3d0f4744	0.034980074
63	0xbd7a7ef3	-0.061156224
64	0xbd125242	-0.03572298
65	0x3d5cdc45	0.053921003
66	0xbc89440d	-0.016756082
67	0xbd852bfe	-0.065025315
68	0xbe8a1f58	-0.26977038
69	0x3d5c417d	0.053773392
70	0x3d801116	0.06253259
71	0xbd3a1261	-0.045427684
72	0xbd23b317	-0.039965715
73	0xbd28ef91	-0.041244093
74	0xbe282434	-0.1642006
75	0x3d3377c5	0.043815393
76	0x3cedd41d	0.029031808
77	0x3d854866	0.065079495
78	0xbd0daf55	-0.034591038
79	0xbce858cc	-0.028362654
80	0xbd8439d8	-0.06456345
81	0x3c7367df	0.014856308
82	0xbcf83bbd	-0.030301923
83	0xbd5e001c	-0.054199323
84	0x3d30d746	0.04317405
85	0x3d612d0d	0.054974604
86	0xbbf06637	-0.0073364037
87	0x3af78e3b	0.0018886992
88	0xbd85c9f9	-0.06532664
89	0x3d4a373c	0.04936908
90	0x3d69e671	0.05710453
91	0xbd55d58c	-0.052205607
92	0xbd1966b1	-0.03745145
93	0x3d7ffb0b	0.062495273
94	0xbc96de92	-0.018416677
95	0xbd796540	-0.060887575
96	0xbd31319e	-0.04326021
97	0x3ad6c8ee	0.0016386786
98	0x3cfaecfa	0.030630577
99	0x3d715f5a	0.058928825
100	0xbd42fc41	-0.04760385
101	0x3d526fff	0.05137634
102	0x3a906e3d	0.0011019182
103	0xbd0b9dbe	-0.03408598
104	0xbd274c8f	-0.040844496
105	0xbd82aae8	-0.06380254
106	0xbd0f0b9e	-0.03492319
107	0xbc34bf92	-0.011032002
108	0xbcbd3cc4	-0.023100264
109	0x3cfeabe5	0.031087825
110	0x3d3d1940	0.04616666
111	0xbd0c1eef	-0.034209188
112	0xbd0bf21f	-0.03416645
113	0xbd1bb6fe	-0.03801631
114	0xbce16974	-0.027516104
115	0x3cdac3a0	0.02670461
116	0x3cfd022e	0.030884828
117	0x3de3d3e6	0.11124401
118	0x3d1c2cb6	0.038128577
119	0x3d881eca	0.066464975
120	0x3d6f2d8f	0.058393057
121	0xbcfd8e4d	-0.030951643
122	0x3d48581f	0.048912164
123	0xbd117353	-0.035510372
124	0x3cf10eda	0.029426027
125	0xbd2bef0c	-0.04197602
126	0xbd39a060	-0.04531896
127	0xbd35e6cf	-0.04440957
128	0x3d5ecf66	0.05439701
129	0xbe07a208	-0.13245404
130	0x3cd3eecc	0.025870703
131	0x3d33d320	0.043902516
132	0x3b9d17b0	0.0047940835
133	0x3d11b732	0.0355751
134	0x3d2eb925	0.042657036
135	0xbc9613d6	-0.018320005
136	0xbd228b2a	-0.0396835
137	0x3cc3a085	0.023880253
138	0x3d152b11	0.036418024
139	0xbc98206f	-0.018570153
140	0x3d67d1c2	0.056596525
141	0x3d4e632f	0.050387558
142	0xbcc63164	-0.024193473
143	0xbcd62765	-0.026141832
144	0xbd2add18	-0.041714758
145	0x3d80f228	0.06296188
146	0xbd61e740	-0.055152178
147	0x3d9cdf57	0.07659786
148	0x3ebf071b	0.3731011
149	0x3d3edd24	0.046597615
150	0x3b7fc754	0.003902872
151	0x3d65ab86	0.05607178
152	0xbd8a7cf8	-0.06762117
153	0xbb0a4b79	-0.0021102114
154	0x3d199e66	0.037504576
155	0x3d4a7c91	0.049435202
156	0x3e037221	0.12836505
157	0xbe1d20d0	-0.15344548
158	0xbd1163a0	-0.0354954
159	0xbd0a6138	-0.03378412
160	0xbc91f134	-0.01781521
161	0x3da0f966	0.07860069
162	0x3d9adc4e	0.07561551
163	0x3debdf7f	0.11517238
164	0xbd28e321	-0.041232232
165	0x3e15e8f5	0.14639647
166	0x3da853a5	0.08219079
167	0x3d469181	0.048478607
168	0x3d3b4a87	0.04572537
169	0xbc3eeb43	-0.01165277
170	0x3c9ca8a1	0.019123377
171	0xbcf8231c	-0.030290179
172	0xbd696578	-0.056981534
173	0xbd0ced3f	-0.034405943
174	0x3cbb6d43	0.022879248
175	0xbd169cc0	-0.036770582
176	0x3dc45b0a	0.09587677
177	0xbd409ffe	-0.04702758
178	0x3d97e8bb	0.07417437
179	0x3d525775	0.051352937
180	0xbcffc97f	-0.03122401
181	0xbcf8c38a	-0.030366678
182	0xbcde0f26	-0.027106833
183	0xbcce85b2	-0.025210235
184	0xbc945b54	-0.018109955
185	0xbd3353b8	-0.043781012
186	0x3d11bd7a	0.03558109
187	0x3d22a954	0.039712265
188	0xbd7167f8	-0.058937043
189	0xbd231c2d	-0.039821792
190	0xbcaa4fc5	-0.02078999
191	0x3d7935f5	0.060842473
192	0x3d25911a	0.040421583
193	0xbd843a28	-0.06456405
194	0x3cd5629c	0.026047997
195	0x3b850f6c	0.0040606763
196	0xbd7db28f	-0.061937865
197	0x3c8ec76c	0.017429076
198	0xbd73d21a	-0.05952654
199	0xbd016bb7	-0.031596866
200	0x3d66f538	0.056386203
201	0xbd0f45f1	-0.03497881
202	0x3c9a6385	0.018846283
203	0x3d23d9d7	0.04000267
204	0x3d896d74	0.0671033
205	0x3ce89b68	0.028394416
206	0xbe1bfa72	-0.15232256
207	0xbd19917e	-0.037492268
208	0x3d8269c6	0.06367831
209	0x3cf645b2	0.03006253
210	0xbd588341	-0.05285955
211	0xbca4d343	-0.020120269
212	0xbd902ed9	-0.070401855
213	0x3cf3dd32	0.02976856
214	0x3d28419c	0.041078195
215	0x3d5e9d32	0.054349132
216	0xbd2040c6	-0.039124273
217	0x3d02eed0	0.03196603
218	0xbcba231e	-0.022721823
219	0x3d6dc122	0.058045514
220	0xbdafff55	-0.085936226
221	0x3d24b372	0.040210195
222	0xbd03ae47	-0.032148626
223	0xbcb849ff	-0.022496222
224	0x3d103982	0.035211094
225	0xbd8c982c	-0.06864962
226	0xbd1452f2	-0.036211915
227	0x3e52c0b8	0.20581329
228	0x3d0ad68f	0.033896025
229	0x3cdd6faf	0.027030794
230	0x3d47b1f6	0.0487537
231	0x3d3c2bfe	0.04594039
232	0xbce904e4	-0.028444715
233	0x3d1f43cb	0.03888301
234	0x3cfd545e	0.030924018
235	0xbd0df2f4	-0.034655526
236	0x3d0f647f	0.03500795
237	0xbd5ad1fc	-0.053422913
238	0x3d553d6a	0.052060522
239	0x3d2c977e	0.04213666
240	0xbc4ad686	-0.012380248
241	0x3ce5bf01	0.02804518
242	0xbd507c80	-0.050899982
243	0x3e0d1252	0.1377652
244	0xbd2cbe24	-0.04217352
245	0xbd1c2b26	-0.038127087
246	0x3d03f35f	0.03221452
247	0x3d6b331e	0.057421796
248	0x3d90f131	0.070772536
249	0xbd2473bf	-0.040149447
250	0x3d08abb8	0.03336689
251	0x3c70787c	0.014677163
252	0xbe10a515	-0.14125474
253	0x3e919659	0.2843502
254	0x3b3cb607	0.002879502
255	0xbc95e2a2	-0.018296544
