model/lstm/models/lstm_model_20250611.pth (torch, 58549 bytes, 7 tensors)

lstm.weight_ih_l0 f4 [128, 5]
000000 9b 4b 16 be 85 8f 1c bd f6 7b 84 3e c5 25 5b bc
       -0.14677279 -0.03822281 0.25875825 -0.013375704
000010 c6 92 3f 3e 72 0e 92 3e 48 e2 70 3d 24 6b f2 3e
       0.18708333 0.28526646 0.05880955 0.47347367
000020 a3 e6 9a be 5a cf 3d 3e 62 46 a5 3e 01 bc b7 3d
       -0.30254087 0.1853613 0.3228026 0.08971406
000030 01 b1 d5 be 83 a0 fb 3d 32 ed f7 bd 17 8c 07 3d
       -0.41736606 0.122864746 -0.12105788 0.033092584
000040 57 5d 93 3e 6e d0 14 be 06 6f 6a be e5 fd 55 be
       0.2878215 -0.14532635 -0.22893915 -0.20897634
000050 53 8d a6 be 07 4b cd bc 1d 6c 8a 3d 0d 0c 9e be
       -0.32529697 -0.02506019 0.06758902 -0.3086857
000060 87 1a da be a9 eb 48 be 93 c8 41 be ce 2b 17 be
       -0.42598364 -0.19621147 -0.18924169 -0.14762804
000070 40 56 26 3d 8d a4 13 be e0 3f 83 be 69 ae 30 3e
       0.0406096 -0.1441824 -0.2563467 0.17254032
000080 0f 9e b7 3d 76 2e 9e 3d 9b e4 a9 3d 1c 98 8b be
       0.08965694 0.077237055 0.08295556 -0.27264488
000090 6d 8a b5 bd 75 85 c4 be 1f ff 91 bc 34 ec 88 3e
       -0.08864293 -0.3838307 -0.017821847 0.2674271
0000a0 9a 14 39 be 37 2a dc be 57 61 06 3e 06 d9 03 3f
       -0.18074265 -0.43000957 0.1312307 0.51503026
0000b0 d8 fc 11 3f b5 a4 13 3e c1 e9 cc 3e 1f c9 82 3e
       0.57026434 0.144183 0.4002209 0.25544068
0000c0 eb 08 ab bd d0 25 ff be 55 06 9a be 3f 02 26 be
       -0.0835131 -0.49833536 -0.30082956 -0.16211794
0000d0 57 9e d4 3c 09 f0 d6 be d6 b0 d6 3e 75 b6 3d 3d
       0.025954409 -0.41980007 0.4193179 0.046316583
0000e0 08 ab ef 3d a9 9e ac 3e ce c7 22 be 0f 13 60 bd
       0.117025435 0.33714798 -0.15896532 -0.054705676
0000f0 51 15 65 3e e1 14 fe 3e 07 63 0f 3e b8 e8 12 bd
       0.22371413 0.49625304 0.1400262 -0.03586647
000100 80 b1 aa 3e 9a fd 79 be 1d 4b 17 be 96 2e 9c 3e
       0.33338547 -0.24413148 -0.14774747 0.30504292
000110 1c 44 c1 3d 94 4b 75 be 36 b2 d0 3e 08 36 15 be
       0.09436819 -0.23954612 0.40760964 -0.14571393
000120 ae 16 0b 3d eb 95 c3 3e 4f 1b 15 3e a4 80 69 3d
       0.033957176 0.38200316 0.14561199 0.057007447
000130 2e 36 63 3e 67 64 44 3e 38 b5 ab 3e 1c 14 2d 3e
       0.22188637 0.19178925 0.33536696 0.16902202
000140 9b 09 ee 3e 82 ad 95 3e f6 ce 9a 3e 67 d1 b1 bd
       0.46491703 0.29233938 0.30236024 -0.086825185
000150 05 e4 4e 3e a2 f3 cb 3d 2f aa f2 bd a5 31 db bd
       0.2020417 0.09958579 -0.11848866 -0.10702828
000160 e8 a7 49 bc 32 7c 23 3b 6a 73 37 be 58 a3 21 3e
       -0.012308098 0.0024945852 -0.1791512 0.15784967
000170 7f 13 ec bc ed c5 a2 be 88 5c e9 3d 27 17 85 be
       -0.02881789 -0.3179163 0.11394602 -0.25994226
000180 64 d8 90 3d dc 81 88 be 25 b3 99 3d c4 43 c8 bd
       0.07072523 -0.26661575 0.07504872 -0.0977855
000190 52 31 ab 3d 8e 3c 10 3e 6c 2f 94 bd 2c e7 f2 3e
       0.083590165 0.140856 -0.072356075 0.47441995
0001a0 e5 57 b5 bd 3a f1 a2 be ae ee 69 bd 8a f1 5a be
       -0.08854655 -0.31824666 -0.05711239 -0.21381202
0001b0 bb 80 dc 3d 66 42 12 be 38 01 4d 3e 2c 43 0e be
       0.10766741 -0.14283141 0.20019996 -0.13892812
0001c0 42 c8 69 3b 3a fe 71 be d6 aa 21 3e 4d a7 a5 3e
       0.0035672341 -0.23632136 0.15787825 0.32354203
0001d0 16 c2 2b be a2 42 48 3c 69 72 24 be 4c dc 30 bc
       -0.16773257 0.012222918 -0.16059269 -0.01079471
0001e0 bc 06 81 be a0 35 ca be cb 5c 6f bc 61 c9 5b be
       -0.2520045 -0.39494038 -0.014609526 -0.21463539
0001f0 83 02 4c bc c9 e5 a4 bd 1b 35 04 3f ec fd ad 3d
       -0.012451771 -0.080516405 0.5164353 0.084956974
000200 e7 3a fe bd 36 6f 89 be d7 89 66 3e ec 2b c3 be
       -0.124135785 -0.2684266 0.22513519 -0.38119447
000210 32 a7 85 bc 3f 6e b4 be 23 55 1b bf 69 de e2 3c
       -0.016315077 -0.3524036 -0.60676783 0.027693944
000220 ab 8d a1 be fb 2d 90 be 37 79 e3 bd ed f5 38 be
       -0.31553397 -0.2816008 -0.11107104 -0.18062563
000230 77 dc 51 be c6 64 b3 3e 41 e8 de 3d 66 49 88 3e
       -0.20494257 0.35037822 0.10884143 0.266185
000240 d3 0c 84 3e dc 3a c9 3d 3e f8 82 3d e4 cd 26 3e
       0.25791034 0.0982568 0.06395005 0.16289479
000250 d6 2f 1a 3e cf ac 6d 3f c0 23 b1 3e 5e 4d 64 be
       0.1505731 0.9284181 0.34597588 -0.22295138
000260 a1 40 18 bc 2e 10 31 3d e1 87 0d 3e 1e 26 2b 3c
       -0.0092927525 0.04322832 0.13821365 0.0104461
000270 74 b8 89 bd 77 e1 87 be 4a 1c 6d 3e 1d 7a 64 bf
       -0.06724635 -0.26539204 0.23155323 -0.8924883
000280 71 b6 bf 3e 38 60 f9 3d 21 ef 44 3e 8b c9 fc 3c
       0.3744388 0.121765554 0.19231845 0.030857822
000290 68 f0 08 3b 19 af 0b bf a9 54 0e bf ae 41 46 be
       0.0020895246 -0.5456405 -0.5559793 -0.19360992
0002a0 74 12 b4 3e 3b e5 2c be 58 fa d4 bc 8d 75 ff 3d
       0.3517033 -0.1688432 -0.02599828 0.12473593
0002b0 cf 42 a8 bc 40 8c 18 3e 7e ed 5b 3e 82 a7 d3 bd
       -0.02053967 0.14897251 0.21477315 -0.10334684
0002c0 80 a9 c9 bd de 61 49 3e 51 1c 27 3d b1 db 92 3c
       -0.09846783 0.1966624 0.04079849 0.017927023
0002d0 45 af 04 3d e0 43 8a 3d 02 e8 8d 3d 00 08 95 3e
       0.032393713 0.067512274 0.069290176 0.29107666
0002e0 94 c1 f8 bc e5 ba db be 47 c1 1b be 83 7d 22 3e
       -0.030365743 -0.42916027 -0.15210448 0.15868191
0002f0 61 78 46 3e a9 ed 10 be 68 f7 0b be 91 7d 57 be
       0.19381858 -0.1415316 -0.13668597 -0.21043994
000300 f6 db 20 be dc 55 1c 3e b1 46 21 bc 59 65 de be
       -0.15708908 0.15267128 -0.009843514 -0.43436697
000310 5f 88 3e be 2b e8 2d be 12 04 4a 3e be 93 0b 3c
       -0.18606709 -0.16983096 0.19728115 0.008519111
000320 0f dc 9c be 28 39 05 3e 76 1d f1 3e 38 2e 9f be
       -0.3063664 0.13010085 0.4709279 -0.3108995
000330 e0 8b 5a be 4b 31 e5 3e 40 ab 38 bc 9c 85 f8 bc
       -0.2134242 0.4476417 -0.011271298 -0.030337147
000340 3e 95 6b 3d 7b 04 91 3d 63 99 35 be 5c c9 81 3e
       0.057515375 0.07080933 -0.17734294 0.25348938
000350 4a 5a 42 bd 5b 72 47 be c5 1f d5 be ec 15 70 3e
       -0.047449388 -0.19477217 -0.416258 0.23445863
000360 3a c3 3c be f2 96 5f be 0d e7 c1 bd 96 36 11 be
       -0.18433848 -0.21834925 -0.094678976 -0.14180979
000370 06 14 86 bd c8 ba bd be 8f 31 0e 3e d7 f1 8c 3d
       -0.06546788 -0.37056565 0.13886093 0.06882065
000380 68 31 a9 bc 8b db 37 3e 2c 72 1e 3d 9e 79 5e 3d
       -0.020653442 0.17954843 0.0386831 0.054315202
000390 98 5a 5b bd 65 18 d2 3c c7 d9 3c 3e 0c d3 8d be
       -0.053553194 0.025646398 0.1844245 -0.27700078
0003a0 cc 1d 65 bc 85 20 ce 3e af 70 98 bd 90 eb 8b 3e
       -0.013984155 0.40259185 -0.07443368 0.27328157
0003b0 5a 96 81 be 4e 82 33 bd d4 49 17 be 1d 4f 16 bf
       -0.25310022 -0.04382544 -0.14774257 -0.5871447
0003c0 c5 6d d1 3d 95 a8 00 3e 99 4c e6 bd d4 05 14 bf
       0.10226015 0.12564309 -0.112450786 -0.57821393
0003d0 a0 f8 6c be e2 7b 10 3f f9 df 82 3e e7 42 c7 bd
       -0.23141718 0.5643903 0.25561503 -0.097295575
0003e0 51 f3 36 be 58 b7 8e 3c 91 a1 4e be a3 a7 21 be
       -0.17866255 0.01742141 -0.2017882 -0.15786605
0003f0 57 6c 86 be 2c d3 f3 bb e5 67 9c 3e c6 a4 85 bd
       -0.26254532 -0.007440945 0.30548015 -0.06525569

lstm.weight_hh_l0 f4 [128, 32]
000000 e5 03 9c bf 70 7a 93 3e b6 ca 82 3f 74 10 70 3e
       -1.2188689 0.2880435 1.0218112 0.23443776
000010 a0 b4 3a 3e 53 20 03 3e 6b 0d 31 3f 0c 86 de 3e
       0.18232965 0.128053 0.691611 0.43461645
000020 fe 8a 44 be 99 48 9b 3e 1b b2 2f 3e 8e 9a cc be
       -0.19193646 0.30328825 0.17157786 -0.39961666
000030 74 c5 cc be b7 ac c0 bf 85 b0 5c bf e0 db 9f 3e
       -0.39994395 -1.5052708 -0.8620685 0.3122244
000040 34 88 4f be 51 1a f6 bc cd 5d 35 3f 34 8a 9a 3f
       -0.20266801 -0.030041846 0.70846254 1.2073426
000050 68 16 55 3f 39 29 a0 3f e1 23 d8 bd bd bc 42 bf
       0.83237314 1.251258 -0.10553718 -0.7606924
000060 af 63 03 3b 82 a8 4d bf b9 21 4a bf 85 44 42 be
       0.002004843 -0.8033525 -0.78957707 -0.1897145
000070 ab ef e5 bd d8 3c d2 be bf 3d b0 be dc bd e4 3e
       -0.11227354 -0.41062045 -0.3442211 0.446761
000080 79 89 00 bf a6 80 6b 3e 46 53 ab be 44 d8 0f bf
       -0.50209767 0.22998294 -0.3346197 -0.5618937
000090 a2 9d 24 be cf fd cd bd ab c0 b3 3d b0 d7 d9 bc
       -0.16075757 -0.10058176 0.08776983 -0.026592106
0000a0 07 9a 0a 3e 66 dc 08 3d eb 7a 8d be cc 7d 16 bd
       0.1353532 0.033413313 -0.2763284 -0.036741063
0000b0 5a 6b af 3e f0 21 19 be 43 45 2e 3e f3 36 89 3e
       0.3426159 -0.14954352 0.17018609 0.26799735
0000c0 6f aa 73 3f 49 a2 b7 be 6a b1 32 be 92 40 a9 bd
       0.95181936 -0.35866 -0.1745049 -0.08264269
0000d0 47 d4 b0 3e 5c 87 8f 3e f8 f9 36 3f c3 e6 95 3e
       0.34536955 0.28032959 0.7147517 0.2927762
0000e0 2f 76 19 3e ce 32 83 be aa 49 36 3f 58 55 88 be
       0.1498649 -0.25624698 0.7120615 -0.26627612
0000f0 22 91 7d be b0 90 31 be ad f3 89 bc 6c 00 41 bc
       -0.24762395 -0.1734035 -0.016839826 -0.011779886
000100 f3 3f cf be aa 8f 28 bd 82 fc 4f bd b2 c4 18 bf
       -0.40478477 -0.041152634 -0.05077792 -0.59675133
000110 02 65 01 bf 20 c4 f5 3e 5d c3 b5 be 33 07 59 3e
       -0.5054475 0.48001194 -0.35500613 0.21194153
000120 1d a3 93 3d a2 a6 4f 3f f1 82 da 3e ec ec c2 3b
       0.07208846 0.81113636 0.42678025 0.0059486534
000130 46 a5 95 be f2 6c 4d be 0a ba e0 bc 35 14 76 3e
       -0.29227656 -0.2006109 -0.02743246 0.24031146
000140 be c4 aa be de d3 ac 3d ed c8 bc 3e 4f 98 b6 bd
       -0.33353227 0.08438848 0.36872044 -0.08915769
000150 a6 e3 d2 be d6 10 33 bc 0b b7 7e 3d 80 9f 35 3d
       -0.41189307 -0.010929307 0.062186282 0.044341564
000160 71 1d f1 3e 9f 2a e7 be d4 a9 0e be 1c d6 f3 be
       0.47092775 -0.45149705 -0.13931972 -0.4762429
000170 fb 8a 14 3f 54 18 c9 be 11 59 92 3e 6f 0f 2c 3e
       0.5802457 -0.39276373 0.28583577 0.16802762
000180 d3 39 58 bf 76 07 6f 3e 62 c2 db 3b 7d 97 5b be
       -0.8446323 0.2334269 0.006706522 -0.21444507
000190 e0 a5 d0 bc 0b cb 40 3f 0e 95 bb 3d 96 f4 3a be
       -0.02546972 0.7530982 0.09159289 -0.18257365
0001a0 9d 64 f8 be b0 cf 07 be e9 fc 70 be 14 5b 45 3e
       -0.48514262 -0.1326282 -0.23533978 0.19273025
0001b0 c8 76 28 be b5 fd 59 be 1e 91 55 3e b4 5e 2c 3e
       -0.16451561 -0.21288188 0.20856139 0.16833001
0001c0 08 d7 8c bd ff cd 2d be 95 17 a3 3e 9f 0d 47 be
       -0.068769515 -0.16973113 0.3185393 -0.1943879
0001d0 fb 81 e8 be 7e 14 9f 3e 3b 0a 96 3d 32 a3 dd bc
       -0.45411667 0.31070322 0.0732617 -0.027055357
0001e0 85 ac 68 3e ae c5 ee bd 00 ac f1 be a4 8a f9 bd
       0.22722061 -0.11658798 -0.47201538 -0.12184647
0001f0 20 d5 6f be 5f ef 43 be 06 af 09 bd f3 ac c8 3e
       -0.23421144 -0.19134282 -0.03361418 0.3919445
000200 62 69 b0 bf fe ac 45 3f 9c 7d 79 3e 08 c7 b0 3e
       -1.378216 0.7721709 0.24364322 0.3452685
000210 1b c0 b0 3e 2e bf a5 3e 00 06 63 3f 8d dd 1b 3e
       0.34521565 0.3237242 0.8868103 0.15221234
000220 e5 a0 4f bd 20 1b b4 be d8 b4 98 3e 87 56 c8 bd
       -0.05069055 -0.35176945 0.29825473 -0.09782129
000230 8b cd cd be 13 02 bc be 6e f0 4a be 65 8d 24 3e
       -0.4019588 -0.36720333 -0.19818279 0.16069563
000240 96 a7 28 bf 01 41 bb 3e e9 5d 59 3f 51 07 ef 3e
       -0.65880716 0.36573032 0.8490892 0.4668527
000250 19 34 1a 3e bb d2 8d 3e 30 de 35 bf a8 e8 42 bf
       0.15058936 0.27699837 -0.71042156 -0.76136255
000260 d8 a7 27 3e 62 fb 7a be 37 b6 87 be 3f 30 50 be
       0.16372621 -0.24509957 -0.26506206 -0.20330904
000270 88 2c 11 bf 88 49 37 3d 8a fb 37 3f f1 c5 c2 3e
       -0.56708574 0.04474786 0.71868193 0.38041642
000280 04 c7 8f 3f 67 d9 fe 3e 77 d6 24 3e b4 cc 2c 3f
       1.123261 0.4977524 0.16097437 0.6749985
000290 52 29 93 3f e5 2d cc 3e d2 08 9e be bb dc 9a be
       1.1496985 0.39878765 -0.30866104 -0.3024653
0002a0 b0 60 e2 be 9b b4 8b be 8d 79 8c 3e af 88 1d bd
       -0.44214392 -0.2728623 0.27436486 -0.03846043
0002b0 23 07 27 be e2 ff 65 3e fd e9 d5 3e 82 2e 72 3d
       -0.16311316 0.22460893 0.4178008 0.059126385
0002c0 01 74 0b bf 62 21 1a 3e e0 bb bc 3e 2c 97 0c bf
       -0.5447388 0.15051797 0.36862087 -0.5491817
0002d0 ff fa 9d be 02 72 c2 be 42 d3 f5 be 35 39 27 bf
       -0.30855557 -0.37977606 -0.4801274 -0.65321666
0002e0 c5 b7 d0 be a2 46 12 be 39 c1 1a bd 6d 53 3a bf
       -0.40765205 -0.14284757 -0.037781928 -0.7278355
0002f0 55 c5 3a bd 48 9f 48 bd b7 e8 be 3e b3 36 82 bc
       -0.045598347 -0.048980027 0.37286922 -0.015895223
000300 5d f3 9a 3d c5 60 88 be ca 57 61 3e af d3 5b 3e
       0.07565949 -0.2663633 0.22006145 0.2146747
000310 6d c4 26 3f 9f 2d 7e 3e c4 25 6b be cb f7 b7 3e
       0.6514347 0.2482209 -0.22963625 0.3593124
000320 85 db 7a 3c c6 3c 4f be ba a9 6a 3e 77 56 7e be
       0.015311127 -0.20238027 0.22916308 -0.24837671
000330 93 9e f7 bd b5 84 2d be b7 e6 83 3d c0 e4 bd 3e
       -0.120907925 -0.16945155 0.0644049 0.37088585
000340 10 3e 80 be 3f e1 14 be f0 15 15 3f 32 92 25 be
       -0.2504735 -0.1453905 0.582366 -0.1616905
000350 67 02 0f 3f be 81 aa 3d 22 f7 98 be f4 fc b1 bd
       0.5586304 0.083255276 -0.29876047 -0.08690825
000360 af 6b 30 bf 26 d9 80 bc bd 8d 95 bd a1 ee 3e be
       -0.6891431 -0.015728544 -0.07302425 -0.18645717
000370 fb 0d 2c 3e 05 4d e5 be 2d ce 18 3a b3 c2 bd 3e
       0.16802208 -0.44785324 0.00058290624 0.37062606
000380 9d 54 55 be d7 7f 6a be 0f 48 04 be 0b d3 fe bd
       -0.20833059 -0.2290033 -0.12918113 -0.12442597
000390 13 d3 e7 3d f8 8f 1d 3b 4c bc ab be ba a7 52 be
       0.11319556 0.002404211 -0.33542097 -0.20571795
0003a0 f4 93 a8 be 3c 83 1b 3e b4 00 80 be 01 10 28 3e
       -0.3292538 0.1518678 -0.25000536 0.16412355
0003b0 1f 51 48 be 68 e8 55 3e b7 ed 5a be 78 01 83 3d
       -0.19562195 0.20889437 -0.21379744 0.063967645
0003c0 13 b3 04 be f7 30 88 bd 78 6a 61 bc 1f 30 d7 bd
       -0.12958936 -0.06649964 -0.013758294 -0.10507225
0003d0 82 68 73 be 31 05 aa bd 23 a9 95 bc 04 68 d7 3d
       -0.23770335 -0.083017714 -0.018269127 0.10517886
0003e0 be df 8f bd e8 80 d3 3c b2 e0 cd 3c 74 82 48 be
       -0.07025097 0.025818303 0.025131557 -0.19581014
0003f0 6d 26 bb 3e 8c 80 9e be 32 0d 20 be 6c db 25 3d
       0.36552754 -0.30957448 -0.15630034 0.04049246

lstm.bias_ih_l0 f4 [128]
000000 a5 0e 23 3f 13 40 26 be 17 fc 97 be a1 98 7e be
       0.6369422 -0.1623538 -0.29684517 -0.24862911
000010 0b e8 2b 3e e1 d4 32 3e a4 1b b5 bd 72 92 41 be
       0.16787736 0.1746402 -0.08843163 -0.1890352
000020 0d 24 a2 bc d0 10 10 be b9 8c 54 bd 7c 93 3e be
       -0.019792581 -0.14068913 -0.051892016 -0.18610948
000030 be 92 0f be 3f 3c 33 bd ac 16 71 3e 6d eb 25 bd
       -0.14020821 -0.043758627 0.23543805 -0.040507723
000040 61 f3 73 3d 61 5b 31 3c 36 e3 8d 3e 2a b4 9b bd
       0.059558276 0.010825009 0.2771241 -0.07602723
000050 2d 9c 1a 3e 9f 76 c5 3d 2e b9 ac 3e 65 08 41 3c
       0.15098639 0.09641766 0.3373503 0.011781787
000060 a2 e7 16 3c 70 fd 3f be ef 67 e1 bd 3e 4b fd 3e
       0.009210499 -0.18749022 -0.11006152 0.49471468
000070 21 f3 73 be 45 64 3e bd 4e f9 f0 3d 01 3c 3b be
       -0.23823215 -0.046482343 0.11766301 -0.18284608
000080 e4 22 a1 be f9 3f 2f 3e 4d 37 de 3c 05 cc 17 bd
       -0.31471932 0.17114247 0.027125979 -0.037059803
000090 f3 c0 17 3d 26 03 88 be 9c bb 1a bd e3 5c 5c 3d
       0.037049245 -0.26564902 -0.037776574 0.05379952
0000a0 9b 64 6a be 17 33 07 3e 6f 94 4e 3e 1b f7 a5 3d
       -0.2288994 0.13203083 0.2017381 0.08103772
0000b0 0e be 69 3e 9c ff 87 bd 94 cf 2c be 69 1b a1 3e
       0.22826406 -0.066405505 -0.1687606 0.31466225
0000c0 d2 e0 bd 3c f9 1c a3 3e fb 0a 21 be 1e 1d 80 3e
       0.023178492 0.31858042 -0.15726845 0.25022215
0000d0 d5 43 a8 be f4 b2 1a be e2 dd 93 bd 17 99 44 3d
       -0.32864252 -0.15107328 -0.07220055 0.04799756
0000e0 b3 ea 0e 3d 0d a5 c6 3d 73 66 40 3e 7b d6 d9 bd
       0.034891795 0.0969945 0.18789081 -0.10636612
0000f0 25 6c 18 bd 88 45 06 3e 25 16 f7 be d6 8e 92 bb
       -0.03721251 0.13112462 -0.48259082 -0.004472594
000100 a1 01 67 3e 24 6f 05 3e 37 12 79 3e 22 69 e4 3d
       0.22559215 0.13030678 0.24323355 0.11152865
000110 75 4c 55 bd 40 ff 78 be 49 1c 35 3d bf 62 ea b9
       -0.05207487 -0.2431612 0.044216428 -0.0004470553
000120 24 cf a4 3d 16 a1 02 bd d4 2b cb bb e6 56 1d be
       0.080473214 -0.031891905 -0.006200293 -0.1536518
000130 76 ad 04 3e 7b bf e3 3d 59 d0 9e 3d 8b 37 85 3c
       0.12956795 0.111205064 0.07754583 0.016261837
000140 76 a8 91 3d 38 be e3 3d d7 74 10 be 56 5e 73 bd
       0.071122095 0.11120266 -0.14107071 -0.059416138
000150 72 34 17 bc cb 76 df 3d f9 33 68 3e 6c da 69 3e
       -0.0092288125 0.1091133 0.22676076 0.22837228
000160 0c 98 08 3e 9d b8 a9 bd b2 65 74 3e 7c f9 4e bc
       0.13339251 -0.08287165 0.23866919 -0.012632724
000170 74 5e 80 bd 11 b9 30 3e eb f8 d4 bc 5f 41 b4 3d
       -0.062680155 0.17258097 -0.0259976 0.08801531
000180 1e 71 5c 3f f4 09 4f 3c 50 58 ee bd 60 42 95 bd
       0.86110103 0.01263665 -0.11637938 -0.07288051
000190 5c 91 f8 3d 52 fb 84 3c 1b af 85 be 7f 0b ba be
       0.121371 0.01623312 -0.26110157 -0.36336896
0001a0 f4 f7 2d 3c 6a 2b 83 be c5 51 9e 3d 6a 1a c0 3d
       0.010618199 -0.2561906 0.0773044 0.09380038
0001b0 d1 58 62 be 88 0f 8d be 11 f7 4a 3e df 9b 88 bd
       -0.22104193 -0.27550912 0.19820811 -0.06670355
0001c0 bf 79 6e 3e 85 77 cb bd f1 eb b6 3e ab b5 14 3e
       0.2328863 -0.09934906 0.35726884 0.14522426
0001d0 af 65 00 bd 1e e4 11 3c 98 58 8d 3e 4a 93 41 3e
       -0.031346973 0.008904485 0.27606654 0.18903843
0001e0 ef 73 6f bd 44 5d 0d be b3 90 b9 3d a3 4d 44 3e
       -0.058460172 -0.1380511 0.09060802 0.19170241
0001f0 7a 3f c2 bd 96 35 89 be 67 1b 19 3e 36 3f 41 be
       -0.094847634 -0.26798695 0.1495186 -0.1887177

lstm.bias_hh_l0 f4 [128]
000000 59 fa 33 3f ae c4 24 bd ba d2 db bd 63 9e c9 3c
       0.70303875 -0.04022663 -0.10733552 0.024611657
000010 f4 91 93 3e 1f 85 27 3e 9d 29 5e be 6e 85 7c be
       0.2882229 0.16359375 -0.21695562 -0.24660274
000020 bf 87 8c be 70 ca 6d be 10 ec 9a bd ef 89 47 bd
       -0.27447316 -0.23221755 -0.075645566 -0.048715528
000030 f1 44 c5 be 26 6f 58 be 3c 7b f0 3e e9 b2 ff bd
       -0.3852916 -0.2113615 0.4696902 -0.12485296
000040 92 a3 86 bb bd fc dc 3d 6a ea 4b 3e 75 d4 92 bc
       -0.0041088546 0.107903935 0.1991364 -0.017923573
000050 19 54 0f bb 05 af e2 3d ff 2d 53 3e be 46 86 3d
       -0.0021870194 0.110685386 0.20623015 0.06556462
000060 0c 56 a9 3d f5 10 dc bd 3f 72 19 bd 60 c1 ba 3e
       0.08268365 -0.10745422 -0.03746247 0.36475658
000070 01 62 d3 be 23 77 8b be 4b bd 4e 3e 0f 0b 44 be
       -0.4128571 -0.27239332 0.20189397 -0.19144844
000080 ba bf 17 bf bb 2d 31 3e ac e1 c3 bb 1e 59 92 3d
       -0.59276927 0.17302601 -0.00597783 0.07145904
000090 1c 24 3e 3e 1e 0c 87 be 38 de b1 3d 41 0b 53 bd
       0.18568462 -0.26376432 0.08684963 -0.051524404
0000a0 cb b9 5f be 07 cc dc bd 78 40 83 3e 8d 24 a3 3d
       -0.21848218 -0.10781103 0.25635123 0.07965956
0000b0 de 63 9e 3d e8 c5 77 be bb 85 73 3d e8 d5 df 3d
       0.07733892 -0.24196589 0.059453707 0.10929471
0000c0 80 cd d1 bc 17 85 89 3e fb 27 7b be 80 af a0 3d
       -0.025610685 0.26859352 -0.2452697 0.07845974
0000d0 3c c6 e2 bd 99 2c b4 3d 78 1c 5e 3e 26 83 83 3c
       -0.110729665 0.08797569 0.21690547 0.016053747
0000e0 9b af f4 3d 97 f5 b9 bd 58 63 ae 3e a4 c9 71 be
       0.119475566 -0.09080046 0.34060168 -0.23612076
0000f0 c5 1e db bd bc ee 08 3d ff 21 b4 be 78 07 ce bd
       -0.10699228 0.0334308 -0.35182187 -0.10060018
000100 90 db 7a 3d 5e f3 44 39 1d 15 cf bd 0c 41 f2 bd
       0.061244547 0.00018782678 -0.10111449 -0.11828813
000110 45 08 79 3d dd c7 ee bd 9f f8 18 3d 34 84 8f bd
       0.060798902 -0.11659215 0.03734648 -0.070076376
000120 1f cb 9d 3b f0 ac 98 bd a9 d5 5b 3d a7 51 52 3d
       0.0048154737 -0.0745486 0.05367056 0.0513474
000130 a6 2b 0c be 21 a4 05 be 33 8c 14 3e c1 af e3 bd
       -0.13688526 -0.13050891 0.14506607 -0.11117507
000140 6e 8f 95 3d 2f 30 f7 3d ee b3 0b 3d b3 b1 99 3d
       0.07302748 0.12069737 0.03410714 0.075045966
000150 82 fc da bc 7c 00 4d 3d 48 46 00 3d 38 eb d0 bc
       -0.026731733 0.05004929 0.031317025 -0.025502786
000160 ca 9b 61 bc 7a 38 10 be 5a 14 03 bc 6f 1e 9d 3d
       -0.013770053 -0.14084044 -0.008000458 0.0767182
000170 6c a2 8f bd c8 ef c9 3d ec 75 11 bd 4f 3e 5d bd
       -0.070134014 0.09860188 -0.03551285 -0.0540145
000180 fc 24 34 3f 9e 95 50 be 2d ba 73 be 56 c3 79 3d
       0.70368934 -0.20369574 -0.23801489 0.060977302
000190 af ee 47 3e ec 8b cd bd 29 07 66 be cb 5e 40 be
       0.19524644 -0.100364536 -0.22463669 -0.1878616
0001a0 d2 ff 85 3d eb 8d 9f bd 96 00 ce bd 6e a0 68 be
       0.065429345 -0.077907406 -0.100587055 -0.22717449
0001b0 90 06 9a bc 91 23 5a bd b1 0e ef 3e 50 20 23 39
       -0.018801957 -0.053256575 0.46690896 0.00015556929
0001c0 8f 5c 47 3e a3 00 a8 bd 51 96 b7 3e 0f 74 23 3e
       0.19468902 -0.082032464 0.3585687 0.15962242
0001d0 d5 15 3d 3e 0f f0 32 3c 3b 23 b0 3d 44 f1 01 3e
       0.1846536 0.010921492 0.0860047 0.12689692
0001e0 c3 d3 2b 3e 3a 82 aa bd 40 d1 2a 3d 84 3a 03 3e
       0.1678 -0.0832562 0.041703463 0.1281529
0001f0 14 35 20 be fc 8e f5 bd 55 8c 61 3e 1f b3 92 3d
       -0.15645248 -0.11990163 0.22026189 0.07163071

fc1.weight f4 [256, 32]
000000 99 a7 92 3d a9 50 7d bc b6 a5 96 3e 04 f9 02 3e
       0.07160873 -0.015461125 0.29423302 0.12790304
000010 cf 3c b0 3d 87 58 c5 be 98 a4 82 bd 2d a3 68 3e
       0.08605348 -0.38544104 -0.0637905 0.22718497
000020 6a 7c 44 3e e8 a8 9f 3d 53 14 94 3e 8f 6a 20 bd
       0.19188085 0.07795888 0.28921756 -0.039164122
000030 f7 05 27 be 23 94 44 be 9f a1 26 be 29 81 1d be
       -0.16310869 -0.19197135 -0.16272591 -0.15381302
000040 63 50 54 3e 5d d5 fb 3c d6 5c 94 3d eb ed 50 3e
       0.2073379 0.030741388 0.072442695 0.20403259
000050 18 8c 23 3e c0 22 8b 3e 8b 74 2e 3e 84 ca e1 ba
       0.1597141 0.2717495 0.17036645 -0.0017226492
000060 60 d2 22 be 07 0f 97 be b0 d7 8d 3e 6c 93 e7 3d
       -0.15900564 -0.29503652 0.2770362 0.11307415
000070 44 a7 55 bd 59 53 24 be 0c df e9 bb 66 98 c3 bd
       -0.05216147 -0.1604742 -0.007137185 -0.09550552
000080 98 dd 92 be f1 60 32 bd 77 3a 91 3d 1f 72 0b bd
       -0.28684688 -0.04354948 0.070912294 -0.03404438
000090 bc 8a a9 3d a5 73 18 ba ff 71 86 3e a8 65 37 3e
       0.082784146 -0.0005815572 0.26258847 0.17909873
0000a0 e2 fe 93 3d 25 ca eb bd 94 c8 5f be 1d 68 db bd
       0.072263494 -0.115131654 -0.21853858 -0.107132174
0000b0 84 c4 38 3e 05 f4 90 bd 6b dd cb 3e 49 f6 73 3e
       0.18043715 -0.07077793 0.39817366 0.23824419
0000c0 18 6e a5 3e 9d 6c c0 3b 95 aa 57 3e 75 84 98 bd
       0.32310557 0.0058723227 0.21061166 -0.07447139
0000d0 81 98 91 3e 07 6e 4a 3e 3e 33 97 3d 08 32 df bd
       0.28436664 0.19768535 0.073828205 -0.108982146
0000e0 f0 7d 3b 3e f0 fd 34 be 4b d1 89 be 92 3c 4d bf
       0.1830976 -0.17674994 -0.2691749 -0.8017055
0000f0 ef 76 5d 3c 1a 18 d7 bc 31 9a 74 3d b1 5a 7c bd
       0.0135171255 -0.02625661 0.05971736 -0.061609928
000100 6a 69 31 3e 86 24 d6 be 02 3f 06 bc 9a a1 74 bd
       0.17325369 -0.4182474 -0.008193733 -0.059724428
000110 75 35 7e be 1b af 16 be 73 0c f3 bd 99 7e 22 3e
       -0.2482508 -0.14715235 -0.11867609 0.15868606
000120 57 f1 5d be 13 82 f5 3b ee 48 a8 3e b8 a0 0b be
       -0.21674095 0.0074923127 0.3286814 -0.13635528
000130 fe 66 c6 3d 9b 84 2e 3e 8e 11 78 be e3 64 45 3e
       0.09687613 0.17042772 -0.24225447 0.19276766
000140 ee d3 81 be e0 c1 9e 3e 77 93 0d 3c 0b d4 8d 3e
       -0.25357002 0.3100729 0.008641115 0.27700838
000150 a2 db b5 3d 86 fa 9c 3d f8 f6 80 bd db be 2c be
       0.08879782 0.07664971 -0.062971056 -0.1686968
000160 e1 7a ab be 24 6e 04 be c5 19 56 3e 78 07 2b bd
       -0.33492187 -0.1293264 0.20908268 -0.04175517
000170 b7 b5 0b be ca 03 71 be 38 ee 07 be cb ef 00 3d
       -0.13643537 -0.23536602 -0.13274467 0.031478684
000180 d6 3e d0 be 37 50 ca bc af 48 a0 3e 69 e6 96 bd
       -0.4067294 -0.024696453 0.31305453 -0.07368166
000190 ae 3b d2 bd d9 b8 19 3d 85 ff 20 3e 07 07 fb 3d
       -0.10265289 0.0375298 0.15722473 0.122572
0001a0 f1 5e 81 3e 04 0a 44 3e bc 21 0b 3d d8 a9 ac bd
       0.25267747 0.19144446 0.03396772 -0.084308326
0001b0 04 b0 bc bd fe 8e 0f bc 6f f4 9d 3e cd 27 56 3e
       -0.0921326 -0.008762119 0.3085055 0.2091362
0001c0 96 cf 0c 3e 1d fb fa 3c 36 22 fc 3e 04 dd 6f be
       0.13751063 0.030637318 0.4924485 -0.23424155
0001d0 18 83 98 3d 3f f6 5e 3e ed 61 82 3e e2 93 36 3a
       0.07446879 0.21773623 0.25465336 0.0006964785
0001e0 3c f0 8b 3e 96 b1 98 be a5 4c ab bc e4 1a 48 bf
       0.27331722 -0.29822987 -0.02091057 -0.7816603
0001f0 ae 10 d4 ba 07 86 43 be fe da 02 3e 62 06 87 38
       -0.0016179287 -0.19094096 0.12778851 6.4384905e-05
000200 fa a9 fc 3d 25 46 23 be db 4e 7a 3e 13 0c f7 3c
       0.12337108 -0.15944727 0.24444143 0.030157125
000210 6e 22 b2 bc 27 91 24 be bb cf 90 3e 01 b6 44 bc
       -0.021744933 -0.16070996 0.28283486 -0.012006284
000220 7f 3e 03 be ad be 82 be 2e b4 67 bd 5a 79 60 3c
       -0.12816809 -0.255361 -0.056568317 0.0137008075
000230 e5 d1 f8 3d 5b 4c 16 be 6e 23 4a bd 17 92 e9 3d
       0.12149409 -0.14677565 -0.049350195 0.114048176
000240 da ae be 3c 85 52 fe 3d 0d 27 77 3d 6a 67 83 3d
       0.023276735 0.12418083 0.060339976 0.06416209
000250 ab c2 87 3d 02 27 1c 3e 51 65 ed bd 4b 25 46 bd
       0.06628927 0.15249255 -0.1159159 -0.04837541
000260 88 7a 21 3d b7 cd 85 be 89 ac 57 3d 40 16 78 3d
       0.039423496 -0.2613351 0.052654777 0.060568094
000270 ef 5b 5b be ed 9c 96 bc 32 27 cd bd 6e 1c 3b bd
       -0.21421789 -0.018385375 -0.100172415 -0.04568141
000280 05 e6 54 3e 46 5b f3 3d 8e 0c b6 3e 26 2d 8c 3d
       0.2079087 0.118826434 0.35556453 0.06844549
000290 68 75 14 3e b4 c2 24 3e f7 d7 59 3e d5 5d 37 3e
       0.14497912 0.16089898 0.2127379 0.17906888
0002a0 9a db f9 3c 8f 58 04 3d 1e bc 00 3e fe 8d 4c be
       0.030500222 0.03231102 0.12571761 -0.1997604
0002b0 ae 16 ac 3d 5a a6 a8 bd 55 0a c8 3d 70 9e 0b bd
       0.08402763 -0.08234854 0.09767596 -0.034086645
0002c0 b3 b5 b4 3e 3e 46 f2 3d 47 35 5a be 08 f2 35 3e
       0.35294876 0.11829804 -0.21309386 0.17768109
0002d0 bc 19 12 3e fa 9d 85 3e f1 69 78 bd 58 5b be bd
       0.1426763 0.2609709 -0.06064791 -0.09294766
0002e0 9b be cf bd 3a 61 ca bd e9 4c 1e 3e a1 f9 34 3e
       -0.10143777 -0.09881826 0.15459026 0.17673351
0002f0 5b 4b 28 be d2 5f 7e bd 18 e9 55 bd 81 45 17 be
       -0.16434996 -0.0621031 -0.05222425 -0.14772607
000300 3a 09 ae bd 7e d9 fc 3d db fc aa bd b6 84 e3 3d
       -0.084978536 0.12346171 -0.083490096 0.11109297
000310 a8 9c 11 3d c1 c0 aa 3d 78 0e b4 bd e4 5c 1b bc
       0.03554979 0.08337546 -0.08791822 -0.009482596
000320 ce c3 ed 3d 46 02 97 3c df e4 cb ba a7 98 c8 bc
       0.116096124 0.018433701 -0.001555588 -0.024486853
000330 d5 31 9e 3d 1b 2b 80 3d ef fb 77 bc d6 11 92 be
       0.077243485 0.06258222 -0.015135749 -0.28529233
000340 7a 16 f3 3d 69 ed f9 bd 33 94 b5 bd 42 da 47 be
       0.118695214 -0.122034855 -0.088661574 -0.19516852
000350 b1 1e 82 be a4 b0 47 be d3 79 85 3c fe eb f0 3d
       -0.2541404 -0.19500977 0.016293442 0.11763762
000360 54 8d 74 3d 62 3c 81 3d ce ca f1 bc f4 86 8f bc
       0.059705094 0.06310345 -0.02951565 -0.017520405
000370 2d 26 bf 3c cf 4f 06 3e ab 28 7b bd 01 9f 1b be
       0.023333633 0.13116382 -0.06131808 -0.15197374
000380 e9 71 23 bc 5d 66 ec bd 27 7a 7b be 60 81 af 3d
       -0.009975889 -0.11542962 -0.24558316 0.08569598
000390 39 1d 9d 3d af 8b 34 3e aa bc 68 be 3f 4b 36 be
       0.076715894 0.1763141 -0.2272822 -0.17802142
0003a0 90 d4 39 3e 96 d7 1b 3e ef 5a 1a 3e 58 f2 85 3d
       0.18147492 0.15218958 0.15073751 0.06540364
0003b0 6d 33 97 3c 04 e7 e5 bd eb b1 5b 3d ed 8c c0 3c
       0.018457139 -0.11225703 0.053636473 0.023504699
0003c0 a7 5b 2d be 82 57 95 3e 6a 7a aa 3e 1d 0c 73 be
       -0.16929494 0.29168326 0.3329652 -0.2373509
0003d0 93 22 cc 3e ca c5 29 bd c6 fe fa bd 2c 0d 58 be
       0.39870128 -0.041448392 -0.122556254 -0.21098775
0003e0 32 71 ea 3e 81 e0 dc bd 67 5b 99 3e 14 2c 69 bf
       0.45789486 -0.10785008 0.29952547 -0.9108288
0003f0 03 51 90 3e e0 4c 79 be 6d 0c b4 bd 93 29 39 be
       0.28186807 -0.24345732 -0.087914325 -0.18082266

fc1.bias f4 [256]
000000 b0 3b ae bd 27 3b 84 be 0c ba 60 be ce 75 60 be
       -0.08507478 -0.2582638 -0.21945971 -0.21919939
000010 da 38 bd 3c 27 c2 ae bd 47 be 5e 3b cc 07 45 be
       0.023098398 -0.08533125 0.0033987926 -0.19241256
000020 26 a8 54 be 73 5e 81 be 9e cf 20 be 8e aa 63 b9
       -0.20767269 -0.25267372 -0.157042 -0.00021711944
000030 9f 37 de 3c 09 c9 96 be e2 8e 0a 3c 40 0c ca 3d
       0.027126132 -0.29450253 0.0084569175 0.09865618
000040 76 76 9e 3c 5b 25 8e bc 47 32 c4 bc 33 ab 51 be
       0.019343596 -0.017351797 -0.023949755 -0.20475464
000050 56 41 06 be 2b 5a 69 bd 1c bf 50 be 75 2d a4 b9
       -0.13110861 -0.056970757 -0.20385402 -0.00031314386
000060 c5 89 9d bd 0e 8a 0a 3c dd e6 84 be 36 c1 8f be
       -0.07692293 0.008455766 -0.25957385 -0.28077096
000070 e2 d7 24 3d f1 82 6d 3a 77 b3 8a be 8c 30 2b be
       0.040244944 0.00090603443 -0.27090046 -0.16717738
000080 95 37 ad 3c fe 51 5a bc 2f 83 f6 bc 0c bd 51 3d
       0.021144668 -0.0133252125 -0.03009185 0.05120568
000090 27 98 5b be 9c a3 f1 bc 8b 30 5a be 8f 1f 57 be
       -0.2144476 -0.02949696 -0.2130758 -0.21008132
0000a0 1c 9f 96 3d ab 2a aa bd e9 06 2e be ca 0f 89 3d
       0.073545665 -0.083089195 -0.16994824 0.06692465
0000b0 cf 76 73 be ca 15 6b be af 53 4d 3d 98 5f 13 3d
       -0.2377579 -0.2295753 0.050128635 0.035979837
0000c0 12 9b 44 bc 2e bd a6 3b c8 16 2e be e5 03 3a bb
       -0.011999862 0.00508847 -0.17000878 -0.002838367
0000d0 ab ee 27 3d 2a a6 2c bb 86 f9 75 be 07 1c 03 3c
       0.040999096 -0.0026344159 -0.24020967 0.008002288
0000e0 8a ea 18 bd 7c ff 63 bc 83 e7 bb bc f1 ed 89 3d
       -0.03733305 -0.013915893 -0.022937542 0.06734837
0000f0 9d 25 22 be 6c f7 b9 bd 01 d0 6c 3d f1 b8 d4 bd
       -0.15834661 -0.09080395 0.057815555 -0.10386837
000100 64 92 84 bd cb 1d ff bc 4b 9f 65 be 6b 1f ac bd
       -0.06473234 -0.031142136 -0.22424047 -0.0840443
000110 bb 1b 8c be 8f 86 4b 3d e8 40 37 be 55 57 91 bd
       -0.27364907 0.049688872 -0.17895854 -0.070967354
000120 87 60 49 bb 7b aa 36 bd 40 d3 94 be d3 69 99 3d
       -0.00307277 -0.044596177 -0.2906742 0.074908875
000130 d9 da 9f 3c 10 5f 06 bc a9 2b 09 3d 2b 09 ab 3d
       0.019513534 -0.008201376 0.033488903 0.08351358
000140 fa 6b ca 3d cc 27 14 bd 03 23 54 3d 1d b9 b1 bd
       0.09883876 -0.036170766 0.051791202 -0.08677886
000150 6b c5 35 3d 9d e7 d6 bc 6e e3 59 be 95 82 3c be
       0.044377726 -0.026233489 -0.21278164 -0.18409188
000160 43 02 2b be 8c 5d 52 3d 44 f9 ab 3a 45 19 62 bd
       -0.16700082 0.051358745 0.0013120552 -0.05519988
000170 f1 d0 ba bc a2 19 9f 3a 5c d2 24 bc de 83 6e bd
       -0.02280471 0.0012138376 -0.010059919 -0.058231227
000180 96 2e 66 3d 3c da 67 be 1c a3 8d 3c e1 2c 12 3d
       0.05619677 -0.22641844 0.01728969 0.03568733
000190 03 78 f1 bd b4 a6 d5 bb 97 9e 73 be a6 b3 89 3d
       -0.117904685 -0.0065201167 -0.23790966 0.06723718
0001a0 34 59 29 3d 5b 32 c3 bd b5 f8 1d 3d a8 a5 be 3d
       0.041344836 -0.09531089 0.038567264 0.0930894
0001b0 e5 bb 50 be 59 fb 62 bd 16 df 9f 3c 24 a1 9e 3d
       -0.20384176 -0.055415485 0.019515555 0.07745579
0001c0 f3 c7 5c 3d 32 34 13 3c c5 6d 0b 3d 08 20 82 be
       0.053901624 0.008984612 0.03404023 -0.25415063
0001d0 73 25 a5 bd 6d 4e 9f be 68 43 90 3d 47 0f 09 be
       -0.080637835 -0.31114522 0.07044107 -0.13384734
0001e0 2c 9e c6 bd 7e 35 e0 bd 34 45 ab 3d 2f 8b 3f 3d
       -0.09698138 -0.10947703 0.08362809 0.046763595
0001f0 93 d2 58 3d 3a cc be 3c 03 10 98 3d 5a 0f a1 bd
       0.052935194 0.023290742 0.07424929 -0.07864256
000200 3c a1 a2 bc 7c 27 4b be 37 20 8e be 1d f4 28 3d
       -0.019852273 -0.19839281 -0.27758953 0.04124843
000210 a8 59 44 be ac 8d 2e bc 32 22 26 bb 68 d8 ab 3d
       -0.19174826 -0.010653894 -0.0025349972 0.083908856
000220 12 a7 30 3d bd c7 b7 3c 99 c1 64 bc 5f ad 98 3d
       0.04312808 0.02243411 -0.013962173 0.07454943
000230 b5 49 6a 3d 8d 00 0f 3d 70 d9 11 3d e8 80 f7 bd
       0.0571992 0.034912635 0.035607755 -0.12085134
000240 4a b5 05 3d 0e 21 6c bd 81 36 a5 bd a8 52 87 be
       0.032643594 -0.05764871 -0.080670364 -0.2643025
000250 2d a7 a9 be c9 70 0b 3d 3d 57 39 be d2 19 6e be
       -0.33135357 0.034043107 -0.18099685 -0.23252037
000260 cb 75 43 3d 29 6b 35 be 29 56 5b bd 52 80 fd 3c
       0.047719758 -0.1771666 -0.053548966 0.030944977
000270 ac 2b a1 be 21 a5 33 be 6b 79 7b 3c aa 37 06 3d
       -0.31478631 -0.1754346 0.0153487725 0.03276793
000280 c6 e1 6d be f9 fe 3f bd 89 8c 00 be 14 9b 89 be
       -0.23230657 -0.04687402 -0.1255361 -0.26876128
000290 30 c6 38 3d a6 77 a4 be 73 ec 81 be 87 a9 4b 3c
       0.04511088 -0.32122535 -0.2537571 0.012430555
0002a0 ee b8 a0 bd d4 ff 38 3c 9f 9c bb 3a ef 66 a3 3d
       -0.078477725 0.011291463 0.0014313644 0.079786174
0002b0 6d 18 c0 3d 08 34 92 3d 19 da 86 be 2f b8 96 bc
       0.09379659 0.071388304 -0.2633827 -0.018398372
0002c0 3d 5c ad bd 2f 2b c3 3c 7a c9 e1 bb 60 a0 d1 3c
       -0.08464859 0.023824302 -0.006890473 0.025589168
0002d0 26 b7 15 bd e2 a9 ef bd b3 c3 0c be f7 8d d7 bc
       -0.036551617 -0.117023245 -0.13746528 -0.026312811
0002e0 48 78 5e 3d c6 7a 8d 3d 54 41 0f 3d a7 0e 5c 3d
       0.054313928 0.06908183 0.03497441 0.05372491
0002f0 67 cb 21 be ab 21 83 bd 35 37 f0 3d b5 f8 42 bd
       -0.15800248 -0.06402906 0.1172928 -0.047600467
000300 1b f0 cd bd 70 08 7a 3d 0f 15 59 be 8d a3 64 be
       -0.10055562 0.061043203 -0.2119944 -0.22328015
000310 e1 b0 cd bd ef ac 52 be d4 a8 2c 3d c6 1c 92 bd
       -0.100435026 -0.20573781 0.042153195 -0.07134394
000320 48 95 20 3d 3d 80 85 3d ff 90 52 be 69 fc 8e bc
       0.039204866 0.065186 -0.20563124 -0.017454343
000330 e5 7b 1c 3d 6f ff 08 3d 0e 1f a4 be 18 b2 4f bb
       0.038204093 0.033446725 -0.32054943 -0.0031691846
000340 c7 cc b9 bd 49 8e be bc a0 63 de 3d 69 69 6e be
       -0.09072261 -0.023261206 0.10858846 -0.23282398
000350 7f 5a 75 bd 19 11 c0 bb 4a 7c 26 3d c8 22 68 bd
       -0.059900757 -0.005861413 0.040645875 -0.056673795
000360 21 79 07 bd 8d 8b 0f be d1 6f 16 bc e8 48 9a ba
       -0.033074502 -0.14018078 -0.009181933 -0.0011770995
000370 40 c0 04 be 28 58 eb 3c 5a dd 07 3d 55 34 05 be
       -0.12963963 0.02872856 0.03317008 -0.13008244
000380 d0 da 69 be 70 4e fc bd 91 85 21 bd b6 b2 92 be
       -0.22837377 -0.12319648 -0.03943402 -0.2865197
000390 e1 37 3f 3d f0 ce 96 3d aa 76 68 be 5b 9a 4c 3d
       0.04668415 0.07363689 -0.22701517 0.049951892
0003a0 e8 f2 6f bd f5 79 10 bd fb 6f c1 3b da 68 a4 3d
       -0.058581263 -0.035272557 0.0059032417 0.08027811
0003b0 c5 4d fb bb 74 c1 f8 bd 1c bc 35 bc 6c 55 6c bd
       -0.007669183 -0.12146273 -0.011092212 -0.057698652
0003c0 fe 3b 72 be 30 d7 e8 3c 5b fe 1e 3c a8 b5 95 be
       -0.23655698 0.028422922 0.009704198 -0.29240155
0003d0 20 a1 e7 3d 6a 3e e2 bd 2e 8f b2 bc 4f 54 3f 3d
       0.11310029 -0.11047061 -0.021796789 0.046711262
0003e0 64 31 33 bc 1d d5 15 3d 70 b5 95 bc af 4c 53 be
       -0.010937069 0.036580194 -0.018274993 -0.20634721
0003f0 2b 83 af be 8c 00 d0 be b5 4e 77 be 5c 4f 12 be
       -0.3427976 -0.40625417 -0.24151118 -0.14288086

out_layer.weight f4 [1, 256]
000000 cc a4 23 bd 3b 1d de bd fe 11 a2 bd e0 f7 09 be
       -0.039952084 -0.10845419 -0.07913588 -0.13473463
000010 b2 4c 06 bd 5b 48 39 bd eb 78 aa 3c 5a a8 d1 3e
       -0.032787986 -0.04523502 0.020809611 0.40948755
000020 b5 c6 23 bc 45 86 31 3e cc e8 07 be b7 d0 22 bd
       -0.009996106 0.17336376 -0.13272399 -0.039749827
000030 d0 06 12 bd ca a7 9a 3d 7e ba db bc 61 70 3f bd
       -0.03565103 0.075515345 -0.026822325 -0.046738032
000040 f8 7b f4 3c 13 b3 46 3d b1 79 20 3d f8 15 cd 3d
       0.02984427 0.048510622 0.039178554 0.10013956
000050 f4 47 80 3d 17 5c 3a bd aa 5d 66 bb 29 21 c3 3c
       0.06263724 -0.04549798 -0.0035151043 0.023819523
000060 3a 6a d0 3c 81 b9 ab 3d 83 0c e7 3c 6c d0 a9 3d
       0.025441278 0.083849914 0.028204208 0.082917064
000070 1c b2 83 bd 76 92 78 3d 40 ab 26 3c 9a 01 a6 3d
       -0.06430456 0.06068655 0.010172665 0.08105774
000080 07 39 28 3d e2 a2 16 3d 79 88 05 bd 8f fc b9 bc
       0.04107001 0.03677643 -0.032600854 -0.022703437
000090 9c 46 23 3e ac 1e e7 3c 7e c1 26 bb d3 30 22 3c
       0.15944904 0.028212868 -0.002544492 0.009899336
0000a0 eb fc fa bc bd 26 2a bd 61 f4 01 be dd d2 54 bd
       -0.030638179 -0.04154085 -0.1269088 -0.051958907
0000b0 72 80 a1 3c 02 1f 9d 3d 89 65 84 3d fd 5e ed 3c
       0.019714568 0.0767193 0.06464679 0.028975958
0000c0 09 4a 09 3d 08 a5 f6 bc 83 e3 f5 bc fe b1 4f 3c
       0.03351787 -0.03010799 -0.030015713 0.012676714
0000d0 17 4a 2f 3c b5 44 3b 3d 17 c1 cb 3c 79 c1 0b bd
       0.010698817 0.04571982 0.024872346 -0.034120057
0000e0 f6 64 a4 3d 0e 5c bc 3d 94 d6 f9 3c 1d bd 16 bd
       0.08027069 0.091972455 0.030497827 -0.036801446
0000f0 66 f5 92 bd f4 41 9f bd 31 6b 07 3d a2 44 76 bd
       -0.07175712 -0.077762514 0.03306121 -0.060124047
000100 12 73 23 bd f3 8a 14 3d 0d 44 89 bc b3 48 60 bd
       -0.03990466 0.036265325 -0.016756082 -0.05475683
000110 8e 11 7a be 6d d9 48 3d 3c f4 58 3d 56 26 05 bd
       -0.24420759 0.04903548 0.052967295 -0.032507263
000120 44 8b 2a bd fc 99 39 bd 1b b2 22 be 9b de 0c 3d
       -0.04163672 -0.045312867 -0.15888254 0.03439198
000130 e0 00 e6 3c 45 6e aa 3d e6 b5 2c bd 82 6a 90 bc
       0.02807659 0.083218135 -0.04216566 -0.017628912
000140 ba aa e6 bd 20 e4 3d 3d d6 0a 82 bc 75 da 97 bd
       -0.11263032 0.046360135 -0.015874308 -0.07414714
000150 11 da 3f 3d 1c bb 35 3d 37 66 f0 bb 3b 8e f7 3a
       0.046838824 0.044367895 -0.0073364037 0.0018886992
000160 e9 68 ea bd 39 25 60 3d 3c 7f 3b 3d 96 a3 3c bd
       -0.11445791 0.054723 0.045775637 -0.046054445
000170 ab 03 82 bd 96 33 36 3d 92 de 96 bc 89 68 a1 bd
       -0.06348356 0.04448279 -0.018416677 -0.078812666
000180 fc ef 09 bd ee c8 d6 3a 10 b5 54 3d dd 7d 09 3d
       -0.033676133 0.0016386786 0.051930487 0.0335673
000190 6e 3f 33 bd a3 b1 2e 3d 3d 6e 90 3a 33 4c 8b bd
       -0.043761663 0.042649876 0.0011019182 -0.06801643
0001a0 bf 88 16 bd 46 c7 84 bd ad f7 a6 bc 4b c3 00 bd
       -0.036751505 -0.06483321 -0.020381773 -0.031436246
0001b0 c4 3c bd bc 32 42 a8 3c d8 47 58 3d b1 3f da bc
       -0.023100264 0.020539377 0.05280289 -0.026641699
0001c0 b9 bd f0 bc c9 6f 9c bd 30 a4 bd bc a0 c3 da 3c
       -0.029387342 -0.07638509 -0.02314958 0.02670461
0001d0 b0 00 cc 3c 24 75 29 3e 83 b2 21 3d d2 2e 71 3d
       0.024902672 0.16548592 0.039476883 0.058882542
0001e0 e2 26 3a 3d 5e de 68 bd 29 07 1c 3d 47 c5 72 bd
       0.045447238 -0.05685269 0.038092766 -0.05927017
0001f0 ef 3b ca 3c ff d5 4c bd 73 34 4e bd fb 7a 28 bd
       0.024686782 -0.05000877 -0.05034299 -0.04113291
000200 2e b4 47 3d 41 89 fd bd cc ee d3 3c 5d 0b 66 3d
       0.048755817 -0.12379695 0.025870703 0.05616318
000210 b0 17 9d 3b 19 a6 01 3d 61 91 50 3d f7 14 d0 bc
       0.0047940835 0.031652544 0.050919894 -0.025400622
000220 9c a0 36 bd 1a e7 0d 3d 8e eb 10 3d 6d b8 36 bc
       -0.044586763 0.034644224 0.035380892 -0.011152369
000230 38 82 3d 3d 6b 8a 83 3d 4a d6 0c bc 5f 44 20 bd
       0.046266764 0.064228855 -0.008596012 -0.039127704
000240 0e 97 47 bd 7c ec 8d 3d 27 76 bb bc 25 c8 74 3d
       -0.04872804 0.069298714 -0.022883488 0.059761185
000250 1b 07 bf 3e 9f 60 19 3d 54 c7 7f 3b 24 1f cc 3c
       0.3731011 0.03744566 0.003902872 0.024917193
000260 05 46 9a bd 79 4b 0a bb a0 f4 3e 3d 70 3a 59 3d
       -0.075328864 -0.0021102114 0.04662001 0.053034246
000270 cb 79 0b 3e ec d2 27 be 6a 2a 41 bc ef be 88 bc
       0.13620679 -0.16389054 -0.011789897 -0.016692607
000280 34 f1 91 bc 84 1d ae 3d 95 3f 9f 3d 1a 26 f8 3d
       -0.01781521 0.085017234 0.07775799 0.12116642
000290 e1 56 c3 bc f5 e8 15 3e f9 82 ab 3d 9e f9 21 3d
       -0.023845138 0.14639647 0.083745904 0.039544694
0002a0 ab c5 7a 3d ae 2a 26 bc ac c5 04 3d 0a 12 4e bd
       0.061223667 -0.010142012 0.032415077 -0.050310172
0002b0 41 67 12 bd ca 34 79 bc cb d6 2c 3d 75 ad 1a bd
       -0.035743 -0.01521034 0.04219703 -0.037763078
0002c0 8f bd d3 3d 4c ba 49 bd cb 62 39 3d 95 91 60 3d
       0.1033889 -0.049249932 0.045260232 0.054826338
0002d0 08 06 42 bd 57 9e 57 bd 6c 41 29 bd 65 bc 3c bd
       -0.047369033 -0.05264124 -0.041322157 -0.046078105
0002e0 b3 4f c2 bb 16 f8 2a bd 96 2b 25 3d 88 b3 51 3d
       -0.005929911 -0.0417405 0.04032477 0.051196605
0002f0 e6 f1 e1 bc c4 a5 b6 bd ec 9c 9f bc 47 f0 8e 3d
       -0.027581166 -0.08918336 -0.019484006 0.06979423
000300 4c 0e 39 3d 83 72 48 bd 9c 62 d5 3c 6c 0f 85 3b
       0.04517965 -0.048937332 0.026047997 0.0040606763
000310 82 75 83 bd 6c c7 8e 3c 04 13 0f bd d9 a1 74 bd
       -0.06418897 0.017429076 -0.034930244 -0.059724662
000320 cc f8 1f 3d 68 39 9b bc 85 63 9a 3c f0 e1 09 3d
       0.03905563 -0.018948272 0.018846283 0.033662736
000330 d2 97 c7 3d 42 76 ed 3c 95 f3 0d be ae 0c 6f bd
       0.09745754 0.028987054 -0.1386245 -0.0583617
000340 33 91 a4 3d f3 26 0d 3d 7e 2f 53 bd ad 80 41 bc
       0.08035507 0.034460973 -0.051558964 -0.011810464
000350 fa 92 9a bd de ef 11 3d fd 9f 27 3d 19 e1 aa 3d
       -0.07547565 0.035629146 0.04092406 0.08343715
000360 40 fe 26 bd fa a8 09 3d fe ce 74 bd d6 b6 5f 3d
       -0.040769815 0.033608414 -0.059767716 0.054617725
000370 61 63 7a bd 66 ad 66 3d 40 b4 ef bc 9f dc f2 bc
       -0.06112993 0.05631771 -0.029260755 -0.029646216
000380 a8 54 17 3d 58 d0 50 bd b4 21 1e bd 67 10 32 3e
       0.03694597 -0.050979942 -0.03860636 0.1738907
000390 bb b9 4e 3d a3 91 02 3d f9 db 52 3d 14 c7 66 3d
       0.050470095 0.03187717 0.051479314 0.0563422
0003a0 c5 71 f9 bc 98 e2 56 3d 39 0e d1 3c 0b c2 71 bd
       -0.030449757 0.05246219 0.025519477 -0.059022944
0003b0 fa f6 bd 3c 13 89 28 bd ab 39 a2 3d 3e 87 32 3d
       0.023189057 -0.04114635 0.079211555 0.04358601
0003c0 86 d6 4a bc e3 cd 03 3d 3c cb 9a bd 2c 5d f2 3d
       -0.012380248 0.03217877 -0.07558295 0.118341774
0003d0 79 92 f1 bc 9a bf 57 bc d0 d1 0e 3d 2a c6 90 3d
       -0.029488789 -0.01316824 0.03486806 0.07069047
0003e0 e0 26 97 3d 5e 42 93 bd 17 7d c1 3c 7c 78 70 3c
       0.07380462 -0.07190393 0.023619218 0.014677163
0003f0 d4 7b 04 be 11 25 9f 3e 07 b6 3c 3b 47 2e 52 bc
       -0.12937862 0.31082967 0.002879502 -0.012828416
